2026-01-31_00-50-28/exported/policy.pt (torch, 18482 bytes, 6 tensors)

weight f4 [32, 24]
0	0x3faf6088	1.3701334
1	0xbd532bd5	-0.051555473
2	0x3e242088	0.16028035
3	0xbd6571fd	-0.05601691
4	0x3e0892d6	0.13337263
5	0xbe123880	-0.14279366
6	0x40133f41	2.3007357
7	0xbe9127fc	-0.28350818
8	0x3e480861	0.19534446
9	0x3db8e94d	0.090288736
10	0x3ef43bae	0.47701782
11	0xbd042c58	-0.032268852
12	0x3d92f652	0.07175888
13	0x3ec1bfb1	0.3784156
14	0x3dd44a3d	0.10365722
15	0x3d11b750	0.03557521
16	0xbd061f21	-0.03274453
17	0x3c8569ee	0.016285863
18	0xbd420f0c	-0.04737763
19	0x3d10bae0	0.035334468
20	0x3d5f9478	0.05458495
21	0x3e052442	0.13002113
22	0xbcf8cd6a	-0.030371387
23	0x3d16eb5d	0.036845554
24	0xc00fe836	-2.248548
25	0xbe17255e	-0.14760348
26	0x3c7554e9	0.014973857
27	0xbe4dcef7	-0.20098482
28	0xbe3fc000	-0.18725586
29	0xbd0468cd	-0.03232651
30	0xbf8ebd4e	-1.1151521
31	0xbcd50a67	-0.026005937
32	0x3f6a3ec1	0.91502005
33	0x3b0e686c	0.002172972
34	0xbf028995	-0.50991184
35	0xbdccc17f	-0.09997844
36	0x3d5ae0ae	0.053436927
37	0xbe9b3656	-0.30314893
38	0x3c8b7814	0.017025031
39	0xbe117ed5	-0.14208539
40	0xbcb9c503	-0.02267695
41	0xbd6a0500	-0.057133675
42	0x3ce35d95	0.027754584
43	0xbd217f8c	-0.03942828
44	0x3daab0f9	0.08334536
45	0xbd5d9081	-0.054092888
46	0xbe0b2f86	-0.13592348
47	0x3defa140	0.11700678
48	0x3f232a37	0.6373629
49	0xbecd6127	-0.40113184
50	0x3e162538	0.14662635
51	0x3ebc15eb	0.36735472
52	0xbd8b3238	-0.06796688
53	0xbdb689e9	-0.08913023
54	0xbf136c4e	-0.57587135
55	0xbfb0d1c4	-1.3814015
56	0x3dc72521	0.09723879
57	0xbe123b1a	-0.14280358
58	0x3f4561e7	0.7710251
59	0x3e91b1d8	0.28455997
60	0x3e4fbee5	0.20287664
61	0x3f48576a	0.78258383
62	0x3d9f8247	0.0778852
63	0x3f272e52	0.65305054
64	0x3e4e38e2	0.20138887
65	0x3dfec94c	0.12440738
66	0xbd895163	-0.067049764
67	0x3d00fc89	0.031490836
68	0x3dfa2df7	0.12215798
69	0x3e9d1354	0.3067881
70	0x3cea6676	0.02861331
71	0xbda4dd1c	-0.08049986
72	0x3f6dfca0	0.929636
73	0xbe00c4cc	-0.12575072
74	0xbe8385e4	-0.25688088
75	0x3f05882b	0.521609
76	0xbe0fe628	-0.14052641
77	0x3d72b306	0.05925276
78	0xbd89e367	-0.06732827
79	0xbf972454	-1.1807961
80	0x3e325aa0	0.17417383
81	0x3eed64ff	0.46366116
82	0xbf456e79	-0.7712169
83	0xbee797b8	-0.4523294
84	0xbb53f8b1	-0.0032344277
85	0x3f17bf83	0.592766
86	0xbe595727	-0.21224652
87	0x3e3f3b96	0.18675074
88	0x3e332e4c	0.1749813
89	0x3dad2a34	0.08455315
90	0xbc56e80c	-0.013116848
91	0xbdab9c7d	-0.08379457
92	0xbdfa6b34	-0.122274786
93	0x3dc4e759	0.096144386
94	0xbe57b4f1	-0.21065117
95	0xbc41d31a	-0.011830116
96	0xbe31b0cf	-0.17352603
97	0x3ed0989a	0.40741426
98	0x3f4d83b7	0.80279106
99	0xbea57d69	-0.32322243
100	0x3e1f4442	0.15553382
101	0x3e47b1bb	0.19501393
102	0x3f122361	0.57085234
103	0x3f9e7a70	1.2381115
104	0x3d2de2b0	0.042452514
105	0xbf0dab92	-0.5533992
106	0x3f5d80e4	0.86524796
107	0x3ed094c7	0.40738508
108	0x3e86f456	0.2635829
109	0x3f19518f	0.59890074
110	0x3f13099f	0.57436556
111	0xbea02602	-0.31278998
112	0xbe3ea2cc	-0.1861679
113	0x3d00ad42	0.03141523
114	0x3d513e22	0.051084645
115	0x3dc14023	0.09436061
116	0xbed321a5	-0.41236606
117	0x3f48f11c	0.78492904
118	0x3ee8ca90	0.45467043
119	0x3e085cdc	0.13316673
120	0xbf3e9fa4	-0.7446234
121	0xbefe0193	-0.49610576
122	0xbda1db6e	-0.07903181
123	0x3daac333	0.083380125
124	0x3dc3f143	0.095675014
125	0xbe97534e	-0.29555744
126	0x3f1740a8	0.5908303
127	0x3ec7cd08	0.39023614
128	0x3d74a3da	0.059726574
129	0xbf027f4c	-0.5097549
130	0xbe96e175	-0.29468885
131	0x3ed0ec81	0.40805438
132	0x3e84d195	0.25941148
133	0xbf46f346	-0.77714956
134	0x3c0f760a	0.00875617
135	0xbeaf464c	-0.3423332
136	0xbe03516b	-0.12824027
137	0xbe2e906b	-0.17047279
138	0xbd7b2279	-0.061312173
139	0xbbe43980	-0.0069648623
140	0x3e4ad412	0.19807461
141	0xbe8b8492	-0.2724958
142	0xbd819737	-0.0632767
143	0x3e906e88	0.2820933
144	0xbef2e5a2	-0.4744082
145	0xbd4c48ee	-0.04987424
146	0x3fd8090a	1.6877759
147	0x3e876d03	0.26450357
148	0xbea5be46	-0.3237173
149	0xbdd248fc	-0.10267827
150	0xbed4d0cf	-0.41565558
151	0xbf020e00	-0.5080261
152	0x3e534d64	0.20634991
153	0xbdff0b38	-0.12453312
154	0x3f6d8058	0.9277396
155	0x3e6b06b3	0.22951774
156	0x3f2edc55	0.6830495
157	0xbf82e91f	-1.0227393
158	0x3e237286	0.15961656
159	0x3e324316	0.17408404
160	0x3dc8d0ec	0.09805474
161	0xbc5aef09	-0.0133626545
162	0xbd833c20	-0.06407952
163	0xbd44e2f0	-0.048067987
164	0x3f15a7c4	0.58459115
165	0xbf128a9d	-0.5724276
166	0x3d028e15	0.03187378
167	0xbeca0329	-0.39455536
168	0x3f515ee5	0.8178542
169	0xbeb651a3	-0.3560916
170	0x3ed58b91	0.41708043
171	0x3e2d51e6	0.16925773
172	0x3e8a9271	0.2706485
173	0x3e8014cf	0.25015876
174	0x3f239702	0.63902295
175	0xbecb6432	-0.3972488
176	0x3f244b48	0.6417737
177	0x3ed53635	0.4164292
178	0xbeb921c1	-0.36158565
179	0xbd87c8bf	-0.06630086
180	0xbe8a5e24	-0.2702495
181	0x3e8bb1f5	0.27284208
182	0xbe629851	-0.22128417
183	0x3f0233ad	0.508601
184	0xbd19db41	-0.037562612
185	0x3d301345	0.042987127
186	0xbc9f7071	-0.019462796
187	0x3bad4aaf	0.005288444
188	0xbe93bc09	-0.28854397
189	0x3e965e3c	0.2936877
190	0xbddfbaa7	-0.10924273
191	0x3e28505f	0.16436909
192	0x3e816a59	0.2527645
193	0x3f0b43ab	0.5440013
194	0xbdaf412c	-0.085573524
195	0xbe9e2779	-0.3088949
196	0xbe597f51	-0.21239974
197	0xbdc70b3e	-0.09718941
198	0x3e289a37	0.16465078
199	0x3f92c1c6	1.1465385
200	0xbe055dde	-0.13024089
201	0x3eaa5b65	0.33272853
202	0x3e1f6984	0.15567595
203	0xbd5ff947	-0.05468109
204	0x3e983ef6	0.29735535
205	0x3fa8fbe0	1.3201866
206	0x3b22218b	0.0024739231
207	0x3f365853	0.7122852
208	0x3d993022	0.07479884
209	0xbddadd6d	-0.10686765
210	0x3cf699f9	0.030102717
211	0xbd09786b	-0.033562105
212	0x3e205652	0.15657929
213	0x3f523113	0.8210613
214	0xbdc9625a	-0.09833212
215	0x3e31d7c3	0.17367463
216	0x3fae2877	1.3606099
217	0x3eee9939	0.46601275
218	0x3ed0a5f8	0.40751624
219	0xbd8fab55	-0.07015101
220	0x3df71891	0.120652325
221	0x3d0809c3	0.033212435
222	0x400336dc	2.0502234
223	0xbe30e6f6	-0.17275605
224	0x3e68c9d5	0.22733243
225	0xbd3e6447	-0.04648235
226	0xbf179b43	-0.59221286
227	0xbdc2f017	-0.0951845
228	0x3d81d401	0.06339265
229	0xbeacab6c	-0.33724535
230	0x3e5773ad	0.2104022
231	0xbe6bd0ed	-0.23028918
232	0xbc9ca477	-0.019121392
233	0x3ccd067d	0.025027508
234	0x3b9ecd0d	0.0048462213
235	0x3d198381	0.037478928
236	0xbe469438	-0.19392478
237	0xbe05971d	-0.13045926
238	0x3d4f6ba3	0.05063976
239	0x3e0be6e7	0.13662301
240	0x3f2c45d6	0.6729406
241	0x3f2b53ed	0.66924936
242	0x3ee7fbab	0.45309195
243	0x3d406f91	0.046981398
244	0xbc14d20d	-0.009083283
245	0x3ceecb17	0.029149575
246	0x3f30904d	0.68970186
247	0xbe830db9	-0.25596407
248	0x3d8cf024	0.06881741
249	0xbf32c5a8	-0.6983285
250	0xbed6245f	-0.41824624
251	0xbee25b2b	-0.4421018
252	0xbeb9c03d	-0.3627948
253	0xbefcd36b	-0.4938005
254	0xbed18baa	-0.40926868
255	0xbe7341a3	-0.23755507

bias f4 [32]
0	0x3e1dd6d7	0.15413986
1	0xbf04b378	-0.5183635
2	0xbe871228	-0.2638104
3	0xbe12bcf3	-0.14329891
4	0xbdedfa8d	-0.116200544
5	0xbdc38750	-0.09547293
6	0xbe5a3229	-0.21308197
7	0xbd6088fd	-0.054818142
8	0x3e3faf57	0.1871923
9	0x3e2cf172	0.16888979
10	0xbe25b4d1	-0.16182257
11	0xbe23c31b	-0.15992396
12	0xbe6a94af	-0.22908281
13	0xbdf69036	-0.12039225
14	0xbbe6d64b	-0.0070445887
15	0xbdccc668	-0.099987805
16	0x3e04ba75	0.12961753
17	0xbde5d804	-0.11222842
18	0xbea07420	-0.31338596
19	0xbe2aaa41	-0.16666509
20	0xbdbe08bc	-0.0927901
21	0xbe15624f	-0.14588283
22	0xbe0a1c3f	-0.13487338
23	0xbbdd694e	-0.006756938
24	0x3daf5a78	0.085621774
25	0xbdc5ca52	-0.0965773
26	0xbd2b7fe5	-0.041870017
27	0xbe29ff0d	-0.166012
28	0xbe9711e2	-0.2950583
29	0xbe4def7d	-0.20110889
30	0xbe52b20c	-0.20575732
31	0xbe5ead28	-0.21745741

weight f4 [32, 32]
0	0x3e055efa	0.13024512
1	0xbcc18aa1	-0.023625674
2	0xbc9dff27	-0.019286705
3	0xbe47ff0c	-0.19530886
4	0xbd95456d	-0.072886325
5	0x3e008c9c	0.12553638
6	0x3df29deb	0.11846527
7	0x3e098172	0.13428286
8	0x3d2c5ebe	0.04208254
9	0x3e1687b9	0.14700212
10	0x3e7f13ce	0.24909899
11	0xbc99cf13	-0.018775498
12	0x3e22066c	0.15822762
13	0xbd30576d	-0.043052126
14	0x38266a4a	3.9676474e-05
15	0xbe1be009	-0.15222181
16	0xbe18339c	-0.14863437
17	0xbe555b54	-0.2083562
18	0x3e075ac9	0.13218226
19	0x3dbcc5e9	0.09217436
20	0x3e50fcc5	0.20408924
21	0x3d33324e	0.043749146
22	0xbcd79972	-0.026318286
23	0x3df38f7c	0.11892602
24	0x3cfc7802	0.030818943
25	0x3e5240fd	0.20532604
26	0x3e98ff46	0.29882258
27	0x3e8e5b60	0.2780409
28	0xbdd18594	-0.10230556
29	0x3ed954a8	0.424474
30	0xbe1c6f14	-0.15276748
31	0xbe2ea2f1	-0.17054345
32	0xbe18f0df	-0.14935635
33	0x3c9dbbdd	0.01925462
34	0x3e5641b5	0.20923503
35	0x3e3a8dc7	0.18218146
36	0xbe6d822e	-0.23194191
37	0x3d060258	0.03271708
38	0x3d7e44f3	0.062077474
39	0x3e2c910c	0.16852206
40	0x3db4266a	0.087963894
41	0xbea944b0	-0.33060217
42	0xbe444106	-0.1916543
43	0x3b42cead	0.002972524
44	0x3e3bfc2f	0.18357919
45	0xbdc88245	-0.09790472
46	0xbd3b0645	-0.045660276
47	0x3ea18900	0.31549835
48	0xbe247523	-0.16060309
49	0xbe5825a6	-0.21108112
50	0x3ca0e601	0.019640924
51	0xbc1b47ba	-0.00947755
52	0x3ce0aabc	0.027425162
53	0xbd17f172	-0.037095495
54	0xbe9109bc	-0.2832774
55	0xbde1132b	-0.10989984
56	0x3de9191e	0.11381744
57	0x3e3f007a	0.18652526
58	0x3caf365b	0.021388223
59	0xbbb0aa7d	-0.0053914175
60	0x3c10171f	0.008794575
61	0xbe616869	-0.22012486
62	0x3e28a48a	0.16469017
63	0x3e2e9576	0.17049202
64	0xbd1a9d50	-0.03774768
65	0x3d1738b2	0.036919303
66	0x3e9ed651	0.31022885
67	0x3e3c97d0	0.18417287
68	0x3e32cf80	0.17461967
69	0x3e129d90	0.14317918
70	0x3da6e083	0.08148291
71	0x3d35cbbd	0.044383753
72	0xbe36ca7e	-0.17850682
73	0xbd4849da	-0.048898555
74	0x3da9df1a	0.08294506
75	0x3d27e419	0.040989015
76	0x3e2494c8	0.1607238
77	0xbe0939b0	-0.13400912
78	0x3ce375ca	0.027766127
79	0x3e3df10f	0.18548988
80	0xbd403124	-0.046921864
81	0xbbc18727	-0.005906004
82	0x3e7eea1f	0.24893998
83	0xbbb603fb	-0.0055546737
84	0xbce770f7	-0.028252108
85	0xbdf844e6	-0.12122516
86	0x3df1e930	0.11812055
87	0xbddf8eb6	-0.10915892
88	0x3d1fbbf8	0.03899762
89	0x3e26d95e	0.16293857
90	0x3e021cc4	0.12706286
91	0x3b488c87	0.003060134
92	0x3d1baaa9	0.03800455
93	0xbdc7e5bb	-0.097606145
94	0x3e5984b5	0.2124203
95	0xbd33a392	-0.043857165
96	0x3e4cc954	0.19998676
97	0xbd8e6713	-0.069532536
98	0x3d795eab	0.060881298
99	0x3da64266	0.08118133
100	0xbe275756	-0.1634191
101	0xbd34a335	-0.04410096
102	0xbd726397	-0.059177008
103	0x3d6a90e5	0.05726709
104	0x3d7d9342	0.061908014
105	0x3dda87b8	0.106704175
106	0x3b527277	0.0032111683
107	0xbe1fb4d3	-0.15596323
108	0xbc47609d	-0.0121690305
109	0xbc7093cb	-0.014683674
110	0xbdb4d287	-0.088292174
111	0xbc869088	-0.01642634
112	0x3cd67f9b	0.026183894
113	0xbea3cf60	-0.31994152
114	0x3e008fc1	0.12554838
115	0x3e4931f3	0.1964796
116	0x3da7341e	0.081642374
117	0xbe0ac8b8	-0.1355313
118	0xbe362414	-0.177872
119	0x3e91e6e9	0.28496483
120	0xbcef06ea	-0.029178102
121	0xbd4ee70b	-0.05051331
122	0xbdc0cb2c	-0.09413752
123	0x3e494b4e	0.19657633
124	0x3d044d0e	0.032300048
125	0x3eaa8b3a	0.33309346
126	0x3e1b6c65	0.15178068
127	0xbe350485	-0.17677505
128	0x3dbe2993	0.092852734
129	0xbe088861	-0.13333274
130	0xbe2066df	-0.15664242
131	0xbe4210cd	-0.18951721
132	0xbe282f18	-0.16424215
133	0x3d9938a9	0.0748151
134	0xbda5df15	-0.0809919
135	0xbcb2c054	-0.021820225
136	0x3c2660af	0.010154887
137	0xbe2e8c5b	-0.17045729
138	0x3d66bf82	0.05633498
139	0xbe15d3b3	-0.14631538
140	0xbb3406d6	-0.0027469895
141	0xbd47f3e4	-0.048816577
142	0xbe2c3df2	-0.16820505
143	0xbddfd52e	-0.10929333
144	0x3d288fe5	0.041152854
145	0xbd350712	-0.044196196
146	0x3df74f78	0.12075704
147	0x3d76634e	0.060153298
148	0x3e43a7ad	0.19106932
149	0xbe062ac1	-0.13102247
150	0x3cd39423	0.025827473
151	0xbddad986	-0.106860206
152	0xbdb8c9f8	-0.090228975
153	0xbd1d2c1f	-0.038372155
154	0xbd765d62	-0.06014765
155	0xbe3f290f	-0.18668006
156	0x3daaf042	0.08346607
157	0x3e228a71	0.15873124
158	0x3e40b6d1	0.18819739
159	0x3cbd4746	0.023105275
160	0x3dbff0d6	0.09372108
161	0x3e65caea	0.22440687
162	0xbe2e8337	-0.17042242
163	0x3dadf0fc	0.0849323
164	0x3d75c3fa	0.06000135
165	0x3e1f64e9	0.15565838
166	0xbe8fec7a	-0.28110105
167	0x3e1bcd23	0.15214972
168	0xbd24d1b8	-0.040239066
169	0xbd7afbaf	-0.06127518
170	0xbe15e85e	-0.14639422
171	0xbea771bb	-0.32703957
172	0x3da8f022	0.08248927
173	0xbbc3e7ac	-0.005978545
174	0x3d952898	0.07283133
175	0xbe5059d0	-0.20346761
176	0xbe016023	-0.1263433
177	0x3e2a09b7	0.16605268
178	0x3e16523b	0.14679806
179	0x3e06ab7f	0.13151358
180	0x3cc6cbf6	0.024267178
181	0x3da86789	0.08222873
182	0x3d98ce01	0.07461167
183	0xbe929ae1	-0.28633788
184	0xbda2fd06	-0.07958417
185	0xbe5ad5d2	-0.21370628
186	0xbde9babb	-0.11412569
187	0xbe384cfa	-0.17998114
188	0xbc5eb825	-0.013593708
189	0xbe3f9c16	-0.18711886
190	0xbde25538	-0.110514104
191	0xbe31d396	-0.1736587
192	0xbe1f62f9	-0.15565099
193	0xbe06ae78	-0.13152492
194	0x3c592efd	0.013255832
195	0xbddc9b53	-0.10771813
196	0x3c184024	0.009292636
197	0x3e909477	0.2823827
198	0x3d053573	0.032521676
199	0xbe09bf04	-0.13451773
200	0xbf0748ba	-0.52845347
201	0xbde95e53	-0.11394944
202	0x3e0abe2d	0.13549109
203	0x3e03efb7	0.12884413
204	0x3d4bee08	0.04978755
205	0x3db203ad	0.08692107
206	0x3dfeb435	0.124367155
207	0xbc0a5225	-0.008442436
208	0x3d0e1a69	0.034693155
209	0x3ca3b1f4	0.019982316
210	0x3d24b148	0.04020813
211	0x3e63161e	0.22176406
212	0xbe0f7f4a	-0.140134
213	0x3c3cdb2d	0.011526865
214	0x3d048fbe	0.032363646
215	0x3d497263	0.049181353
216	0x3d2fbae6	0.04290285
217	0x3e22a80f	0.15884422
218	0x3e8ce4e7	0.2751839
219	0x3e28658a	0.16444984
220	0x3bdb5177	0.006693061
221	0xbdade936	-0.08491747
222	0xbc35430b	-0.011063348
223	0x3dd2195f	0.102587454
224	0xbc72e511	-0.0148251215
225	0x3e4bf9dc	0.19919533
226	0x3dcfc09c	0.10144159
227	0xbcdeff2c	-0.027221285
228	0xbe65581f	-0.22396897
229	0x3cc70e25	0.024298737
230	0x3e8da66e	0.27666038
231	0xbdc8409b	-0.097779475
232	0xbeac2f0f	-0.33629653
233	0x3e4022f0	0.18763328
234	0xbe28b2af	-0.16474412
235	0xbe165c30	-0.14683604
236	0x3e2b2402	0.16712955
237	0xbccecf5c	-0.025245361
238	0xbdad2c9d	-0.08455775
239	0x3d84b05f	0.064789526
240	0xbe9b5e43	-0.30345353
241	0x3d8b9cce	0.068170175
242	0xbd536580	-0.05161047
243	0x3d6cd2ec	0.05781834
244	0xbdc22d0d	-0.09481249
245	0xbd2cfeeb	-0.042235296
246	0xbeb698ff	-0.35663602
247	0xbcc23821	-0.023708405
248	0xbe16572a	-0.14681688
249	0x3dfc7fcb	0.12329062
250	0x3e8b820a	0.2724765
251	0x3da423a1	0.08014608
252	0x3de68f08	0.1125775
253	0xbe668145	-0.2251025
254	0x3e1d9064	0.15387112
255	0x3dfe082e	0.12403904

bias f4 [32]
0	0xbe3e1fd8	-0.18566835
1	0xbdc1942a	-0.09452088
2	0xbe7d6f02	-0.24749377
3	0xbdc52e4b	-0.0962797
4	0xbad490aa	-0.001621743
5	0xbd35df4b	-0.044402402
6	0x3d741c25	0.059597153
7	0x3c125af3	0.008932817
8	0xbd361d5d	-0.044461597
9	0xbe4251bc	-0.18976492
10	0x3d5e1cb9	0.05422661
11	0xbe25625e	-0.16150805
12	0xbe920641	-0.28520396
13	0xbde1d527	-0.11026984
14	0xbcba8fc1	-0.022773625
15	0x3ccb1c02	0.024793629
16	0xbdf97935	-0.121813215
17	0xbd729630	-0.05922526
18	0xbe0337ca	-0.1281425
19	0xbd9fca89	-0.078023024
20	0xbe648510	-0.22316384
21	0xbd39c366	-0.045352362
22	0x3b0635f7	0.0020478943
23	0xbe1c1743	-0.15243249
24	0x3d372bf0	0.044719636
25	0xbe60918b	-0.2193052
26	0xbe34d267	-0.17658387
27	0xbd1c3785	-0.038138885
28	0xbd565b1e	-0.05233299
29	0x3d4cfab4	0.050043777
30	0xbe203ea5	-0.15648897
31	0xbe097f8b	-0.1342756

weight f4 [4, 32]
0	0xbe25b2ff	-0.16181563
1	0xbdcbd2a0	-0.09952283
2	0xbe1871c0	-0.14887142
3	0xbdb2b7f4	-0.087264925
4	0x3a20a35a	0.0006127857
5	0x3dbf8b99	0.09352798
6	0xbd0c12b8	-0.03419754
7	0x3d71fe42	0.05908037
8	0x3e13af31	0.14422299
9	0x3c34bf00	0.011031866
10	0x3d9924d2	0.07477726
11	0x3d299db7	0.041410174
12	0xbe17a77b	-0.14809982
13	0xbcde4d07	-0.027136339
14	0xbe1c3b26	-0.15256938
15	0xbe102a18	-0.14078557
16	0xbd448cb6	-0.047985755
17	0xbdef47e1	-0.11683632
18	0xbdd4c32d	-0.10388789
19	0x3dd163ef	0.10224139
20	0xbd1cff2e	-0.038329296
21	0xbc4b8ac3	-0.01242322
22	0xbaf06945	-0.001834192
23	0x3dc21c40	0.094780445
24	0xbe210d5c	-0.15727752
25	0xbdeb9506	-0.11503033
26	0x3e371ab5	0.17881282
27	0x3cee390f	0.029079942
28	0xbd8de56b	-0.06928524
29	0x3cfbcf77	0.030738575
30	0x3d56d763	0.052451503
31	0x3d58863f	0.052862402
32	0xbd929a56	-0.071583435
33	0x3d8fc27d	0.070195176
34	0x3d791dbf	0.060819384
35	0x3d91311b	0.07089444
36	0x3d93f252	0.07223953
37	0xbd388fe0	-0.045059085
38	0xbdaf624c	-0.085636705
39	0xbe29b543	-0.16573052
40	0xbd841afc	-0.06450459
41	0x3ddab87e	0.1067972
42	0xbd080662	-0.033209212
43	0xbc9dae64	-0.019248195
44	0x3e0b129f	0.13581322
45	0x3bf92a0b	0.007603889
46	0xbcff7642	-0.03118432
47	0xbdceffb0	-0.10107362
48	0xbcbcba67	-0.023038102
49	0x3e2462f5	0.16053374
50	0xbdb4a9b9	-0.088214345
51	0x3d9dc9e2	0.07704522
52	0x3c5ed1de	0.013599841
53	0x3ae4a337	0.0017443661
54	0xbd910f1b	-0.07082959
55	0x3d57c091	0.05267388
56	0x3e09b924	0.13449532
57	0x3e6d5b46	0.2317935
58	0xbe5953fd	-0.21223445
59	0x3cc1ba7b	0.023648491
60	0x3d2aaa04	0.041666046
61	0xbcbfc447	-0.023409022
62	0x3dd3006b	0.10302814
63	0x3d1622f9	0.036654446
64	0xbe0fcef0	-0.14043784
65	0x3e5a7c82	0.21336558
66	0x3d6d920e	0.058000617
67	0xbd30f8b2	-0.043205924
68	0xbc885268	-0.016640857
69	0xbe598b66	-0.21244583
70	0x3d9c6a39	0.07637448
71	0xbdef28cd	-0.11677704
72	0x3e66751b	0.2250561
73	0x3e20bf62	0.15698007
74	0xbc4af697	-0.012387893
75	0x3e5e2e52	0.21697357
76	0xbd5ffd2f	-0.054684814
77	0xbe049feb	-0.12951629
78	0x3e0ef6aa	0.13961282
79	0xbec90699	-0.39262846
80	0x3dde8de3	0.108669065
81	0xbd850714	-0.06495491
82	0xbde6fa3d	-0.11278198
83	0xbb8f93d7	-0.0043816376
84	0xbe0b52f1	-0.13605858
85	0x3c51a5fd	0.012795922
86	0xbdb40850	-0.08790648
87	0x3e6ebd98	0.23314512
88	0xbdeda6e3	-0.11604097
89	0xbe81af92	-0.25329262
90	0x3dcbbaba	0.09947725
91	0x3cc9e122	0.024643485
92	0x3d4755a6	0.048665665
93	0xbdb410d2	-0.08792271
94	0xbdf1c13a	-0.11804433
95	0xbe3eb18a	-0.18622413
96	0xbddcbbae	-0.107779846
97	0x3ea3109b	0.31848606
98	0x3da4a87e	0.0803995
99	0xbd92a352	-0.07160057
100	0x3d4745f4	0.048650697
101	0xbc8b9ab1	-0.017041536
102	0x3d7eaedd	0.06217848
103	0xbe24db95	-0.16099389
104	0xbe542c7e	-0.20720097
105	0xbe234ff2	-0.15948465
106	0x3d09d671	0.033651773
107	0x3dc6acbe	0.09700917
108	0x3d49d7b3	0.049277972
109	0x3d969d7f	0.07354259
110	0xbe535dcd	-0.20641251
111	0xbe6783ad	-0.22608824
112	0x3ca700a7	0.020386053
113	0x3e197f02	0.14989856
114	0xbdba40e7	-0.090944104
115	0x3dc22023	0.09478786
116	0x3d90e4e8	0.070749104
117	0xbd3cf1d4	-0.046129063
118	0x3d255f83	0.04037429
119	0x3dea5f11	0.11443914
120	0x3e64c905	0.22342308
121	0x3e9570cd	0.29187623
122	0xbdc5911d	-0.09646819
123	0xbd33d562	-0.04390467
124	0xbd461b71	-0.048366014
125	0x3e1a8d10	0.15092874
126	0xbdd31a7c	-0.10307786
127	0xbe8ac18d	-0.27100793

bias f4 [4]
0	0xbb64071d	-0.003479428
1	0xbd67bf95	-0.05657919
2	0xbdaf8801	-0.085708626
3	0xbd1fc641	-0.03900743
