2026-01-31_00-50-28/model_50.pt (torch, 62593 bytes, 36 tensors)

std f4 [4]
0.19791271 0.17269716 0.32862103 0.31987083
00000000: a1a9 4a3e 86d7 303e 0441 a83e 1cc6 a33e

actor.0.weight f4 [32, 24]
1.0594461 0.20986749 -0.06790044 0.082195394 0.1315696 -0.07049609 1.6603074 -0.6945347
0.1856089 -0.22647409 0.56345683 -0.0461721 0.05510707 0.37330973 0.11789256 0.024961613
-0.06598624 0.050131097 -0.028006092 0.038261235 0.17341219 0.022064276 -0.011373053 -0.17595229
-2.0543497 -0.035787456 -0.1447417 -0.09560172 -0.31768066 -0.12421066 -0.8771226 0.27096456
0.71314716 0.10501952 -0.49390236 0.012682479 0.049195867 -0.49288252 0.21799491 -0.28793544
-0.014946131 -0.050812833 0.01999568 -0.0010865721 0.12614337 -0.22186646 -0.042111844 0.0074585965
0.7312441 -0.61450064 -0.23335646 0.16659507 -0.05304333 -0.07669062 -0.41163012 -0.5030985
0.10216125 -0.08839268 1.1323943 0.20179239 0.09247294 0.68262655 0.13334206 0.5529175
0.15125899 0.06766551 -0.039482728 0.06926978 -0.00019817265 0.23505558 0.07325107 -0.10413662
1.0912181 -0.08145868 -0.23952371 0.24820691 -0.0894383 -0.07170161 -0.041108824 -0.701601
0.12982532 0.38039756 -0.21945366 -0.21456237 -0.07309379 0.43262833 0.05627466 0.26335526
0.12392885 0.033179276 -0.02361048 -0.010543056 -0.16183545 -0.11151076 0.025462313 0.053279616
-0.20756578 0.36864173 0.5315682 -0.012089534 0.18080981 0.19137858 0.6041491 0.60872185
-0.05932479 -0.55813617 1.2709919 -0.010332491 0.5617298 0.30089474 0.64873105 -0.23484425
-0.09786776 0.07827099 -0.04927053 0.042798217 -0.03443017 0.45802736 0.27116793 -0.19692214
-0.80151814 -0.16993223 0.043434706 0.062664025 0.085994564 -0.20653205 0.46904102 0.20841293
0.046373375 -0.55121267 -0.21864645 0.50436616 0.22379526 -0.7629818 -0.07444601 -0.37211585
-0.18164992 -0.15584677 -0.05617988 -0.056393486 0.19408073 -0.29124272 -0.13329513 0.13709477
-0.7746809 -0.43398163 1.4178709 0.2447363 -0.10895876 -0.11650392 -0.30133018 -0.40811065
0.17333959 -0.24287136 0.14950167 -0.09047396 0.2151658 -0.83210343 -0.11502141 0.025244297
0.096375205 0.09818645 -0.06556563 -0.06357873 0.12070655 -0.3636307 0.029003676 -0.20147954
0.8337565 -0.17233016 0.09190103 0.14680327 0.22335537 0.15109006 0.5567213 -0.71330774
0.5757843 0.41386482 0.13701595 0.053446986 -0.17724967 0.055575185 -0.16742624 0.39068347
-0.03548397 -0.046742436 -0.026045743 0.05886474 -0.2854597 0.14588977 -0.2613127 0.124815196
0.6242619 0.4113929 -0.28396574 -0.3786859 -0.13408288 0.03654718 0.26128677 0.85156125
-0.052626327 0.3787237 1.0602213 -0.007392632 0.20825979 0.9567084 0.2201351 0.6830869
0.055844128 -0.09660176 -0.0034701072 -0.056972098 0.059982922 0.5288245 -0.15810622 0.017977417
1.0052005 0.85333323 0.2532731 -0.057780087 0.16615015 0.026502743 1.4904436 -0.26902872
0.24516538 -0.43026534 -0.9101246 0.096753575 -0.009819765 -0.28348836 0.15825509 -0.1984399
0.008258669 0.08273893 -0.010593741 0.018251447 -0.11565499 -0.18845828 0.065504305 0.035379786
0.60818267 0.44406524 0.5353239 0.23180728 -0.07745982 0.0024390188 0.6254146 -0.0028445679
0.048257653 -0.6801185 -0.47429305 -0.19574602 -0.3479803 -0.4273646 -0.36368456 -0.20705007
00000000: ee9b 873f 81e7 563e 630f 8bbd 0f56 a83d
00000010: 2eba 063e 4160 90bd f484 d43f 07cd 31bf
00000020: 4210 3e3e d3e8 67be b53e 103f f51e 3dbd
00000030: f3b7 613d 7422 bf3e a871 f13d 4c7c cc3c
00000040: cb23 87bd 4456 4d3d 086d e5bc d0b7 1c3d
00000050: f792 313e 24c0 b43c 0b56 3abc d62c 34be
00000060: 777a 03c0 de95 12bd 2b37 14be d6ca c3bd
00000070: 0aa7 a2be 2962 febd 1b8b 60bf debb 8a3e
00000080: d090 363f 7914 d73d c5e0 fcbe 2cca 4f3c
00000090: 9b81 493d 195b fcbe 0f3a 5f3e 466c 93be
000000a0: 9ee0 74bc 1e21 50bd fbcd a33c 4f6b 8eba
000000b0: ba2b 013e f630 63be 787d 2cbd 3e67 f43b
000000c0: d032 3b3f ea4f 1dbf fff4 6ebe e697 2a3e
000000d0: f643 59bd f90f 9dbd 2fc1 d2be 10cb 00bf
000000e0: eb39 d13d 3907 b5bd 4cf2 903f aaa2 4e3e
000000f0: 7462 bd3d 9dc0 2e3f d28a 083e 008c 0d3f
00000100: a3e3 1a3e 3794 8a3d a4b8 21bd 50dd 8d3d
00000110: 91cc 4fb9 69b2 703e a804 963d 9545 d5bd
00000120: 09ad 8b3f cfd3 a6bd b445 75be f429 7e3e
00000130: 6d2b b7bd 4bd8 92bd ba61 28bd 209c 33bf
00000140: eef0 043e 78c3 c23e 76b8 60be 3db6 5bbe
00000150: 32b2 95bd 7681 dd3e 4280 663d 80d6 863e
00000160: 69ce fd3d fee6 073d c46a c1bc c8bc 2cbc
00000170: 31b8 25be c15f e4bd 5796 d03c ba3b 5a3d
00000180: 208c 54be 9cbe bc3e db14 083f 2e13 46bc
00000190: 3526 393e bff8 433e 84a9 1a3f 32d5 1b3f
000001a0: 8dfe 72bd 03e2 0ebf ddaf a23f 9c49 29bc
000001b0: 86cd 0f3f e00e 9a3e 3d13 263f 037b 70be
000001c0: e46e c8bd 8a4c a03d e5cf 49bd 2f4d 2f3d
000001d0: a606 0dbd 9082 ea3e 86d6 8a3e f5a5 49be
000001e0: 4b30 4dbf b702 2ebe 97e8 313d ff55 803d
000001f0: eb1d b03d 237d 53be 2526 f03e 336a 553e
00000200: 02f2 3d3d 461c 0dbf dbe4 5fbe 241e 013f
00000210: 962a 653e c652 43bf 2677 98bd f885 bebe
00000220: 7002 3abe 4c96 1fbe e01c 66bd dbfc 66bd
00000230: 19bd 463e c41d 95be 857e 08be 9262 0c3e
00000240: 7d51 46bf d732 debe cb7c b53f 279c 7a3e
00000250: c525 dfbd 9b99 eebd f347 9abe e1f3 d0be
00000260: ef7f 313e 45b3 78be f716 193e 694a b9bd
00000270: 6c54 5c3e bb04 55bf 5890 ebbd 21cd ce3c
00000280: 5d60 c53d fa15 c93d 4647 86bd 9135 82bd
00000290: ff34 f73d ce2d babe 1e99 ed3c a750 4ebe
000002a0: 1171 553f 5177 30be 9b36 bc3d 9953 163e
000002b0: 45b7 643e 5ab7 1a3e 4a85 0e3f 569b 36bf
000002c0: 9a66 133f 17e6 d33e e94d 0c3e 3aeb 5a3d
000002d0: f080 35be cea2 633d c971 2bbe aa07 c83e
000002e0: a457 11bd ff74 3fbd e25d d5bc 271c 713d
000002f0: c627 92be 2164 153e c7ca 85be 1c9f ff3d
00000300: a1cf 1f3f 17a2 d23e f563 91be 1ee3 c1be
00000310: 064d 09be 7fb2 153d 61c7 853e ebff 593f
00000320: b48e 57bd 13e8 c13e 55b5 873f e43d f2bb
00000330: 0e42 553e d7ea 743f 186b 613e c8de 2e3f
00000340: d0bc 643d 25d7 c5bd bd6a 63bb 935b 69bd
00000350: a7b0 753d 0b61 073f 99e6 21be 6045 933c
00000360: 69aa 803f 0c74 5a3f 03ad 813e d0aa 6cbd
00000370: 4423 2a3e 481c d93c dbc6 be3f 22be 89be
00000380: a20c 7b3e bd4b dcbe edfd 68bf bd26 c63d
00000390: 14e3 20bc 6325 91be 9f0d 223e d433 4bbe
000003a0: 5e4f 073c 0773 a93d 5f91 2dbc 0f84 953c
000003b0: 86dc ecbd 35fb 40be 1f27 863d 65ea 103d
000003c0: dcb1 1b3f 855c e33e fd0a 093f e35e 6d3e
000003d0: 41a3 9ebd f2d7 1f3b 2c1b 203f ee6b 3abb
000003e0: d1a9 453d 3f1c 2ebf 8ad6 f2be a571 48be
000003f0: 792a b2be 88cf dabe dd34 babe ef04 54be

actor.0.bias f4 [32]
0.16187128 -0.38569322 -0.2645337 -0.11490252 -0.02807462 -0.07696227 -0.15227407 -0.06349759
0.08894693 0.15453966 -0.16000083 -0.07290845 -0.18210047 -0.10054197 -0.026078183 -0.11292134
0.12840037 -0.1308322 -0.36247543 -0.15067701 -0.15880889 -0.20532334 -0.1562259 0.06012386
0.013903336 -0.22368686 -0.02892572 -0.24858347 -0.26764923 -0.26853004 -0.12832883 -0.22152638
00000000: 96c1 253e 9579 c5be f670 87be 0352 ebbd
00000010: bffc e5bc 659e 9dbd bced 1bbe 060b 82bd
00000020: cf29 b63d a53f 1e3e 42d7 23be 0751 95bd
00000030: 8c78 3abe f3e8 cdbd eaa1 d5bc 4e43 e7bd
00000040: 637b 033e e0f8 05be 6196 b9be 134b 1abe
00000050: cc9e 22be 4840 52be aff9 1fbe 7044 763d
00000060: d1ca 633c 2b0e 65be a2f5 ecbc aa8c 7ebe
00000070: 5209 89be c57c 89be a268 03be d0d7 62be

actor.2.weight f4 [32, 32]
0.069657624 -0.027110053 -0.021594753 -0.12795417 -0.049574327 0.09381532 0.15203378 0.11103637
-0.055417344 0.06706707 0.19614021 0.008475316 0.061220273 -0.010662224 0.02887797 -0.2551409
0.016110709 -0.17391934 0.047867578 0.10019307 0.08784294 0.112713605 0.037455294 0.082713924
-0.0384488 0.14132233 0.16394542 0.1609148 -0.13402809 0.32922703 -0.19248241 -0.12208893
0.07415233 -0.02204091 0.11502554 0.16120322 -0.038102508 -0.047290847 -0.0007541877 0.15347686
0.14266002 -0.08954647 -0.17818765 0.049802445 0.18061574 -0.046356477 0.032882683 0.22870372
-0.08673804 -0.114959285 0.05319378 -0.15006073 0.021923495 -0.11009302 -0.26105493 0.029142728
0.08594779 0.10713905 -0.024828957 -0.012957565 -0.04395989 -0.1414101 0.07773496 0.124083444
-0.004558589 0.017464237 0.19790246 0.17752752 0.2168984 0.11197002 0.11217997 0.016472597
-0.15296979 -0.012283215 0.117206156 0.0058582746 0.1307955 -0.13400328 -0.01664505 0.18041188
-0.101614796 -0.013007903 0.2225257 -0.18026122 -0.06482522 -0.08726406 0.12302356 -0.07030293
0.04042597 0.16324344 0.022054475 -0.017474743 0.08143365 -0.1268452 0.16010976 -0.024112912
0.14651537 -0.054476697 0.042771168 0.13518198 -0.11030227 -0.04614343 -0.029307507 0.08053053
-0.07865641 0.10115475 -0.10774842 -0.09653091 0.0057489346 0.066852316 0.0076518864 0.014070559
0.14302689 -0.20379777 0.119660944 0.27171007 0.017030878 -0.09367442 -0.12943223 0.20847988
-0.011496381 0.013425911 -0.087604254 0.18501943 0.020692982 0.2665391 0.14190158 -0.12579022
0.115673095 -0.13551731 -0.11724048 -0.05902951 -0.13679221 0.037277177 -0.084025934 -0.0146184005
-0.064445086 -0.0821799 0.08558659 -0.11277349 -0.0002370342 0.019632181 -0.07715037 -0.07348788
0.07208672 -0.0901493 0.021080142 0.13142514 0.16124731 -0.07528878 0.14481668 -0.0777014
-0.093488984 -0.009277196 -0.07433261 -0.15315188 0.040469542 0.13249396 0.15260577 0.05024056
0.08540113 0.17550498 -0.12482047 0.1126472 0.015328801 0.15792267 -0.17464106 0.14650431
-0.13196322 -0.034234468 -0.12119254 -0.2267037 -0.03800848 0.018240206 0.026528204 -0.26015672
-0.02242615 0.12386405 0.05548636 0.18566175 0.018749854 0.11886237 0.076051645 -0.21287178
-0.1328905 -0.1686695 -0.12157969 -0.17260148 0.017935015 -0.1871056 -0.094084375 -0.0451164
-0.18463697 -0.12893051 0.004816469 -0.046070572 0.057753935 0.18048759 0.017025772 -0.169755
-0.31041047 -0.14725962 0.15351029 0.21218559 0.05345641 0.04277001 0.09908273 -0.009924574
0.14718682 0.10985236 0.0457358 0.07829463 -0.13410693 0.055210333 -0.029161135 0.042410385
0.03972703 0.13479237 0.20344159 0.10130421 -0.016870074 -0.1532766 0.0036852227 0.14300942
-0.1571025 0.18368238 0.08262796 -0.10014063 -0.16552936 -0.018685883 0.18048744 -0.091182224
-0.29177746 0.07621393 -0.12931539 -0.09627064 0.12553462 -0.03331644 -0.010655306 0.01219896
-0.078155346 0.04392501 -0.10743239 0.12387991 -0.07908411 -0.029449185 -0.16705228 -0.11990134
-0.11301416 0.110805765 0.16023025 0.074809186 0.054454427 -0.19479525 0.17803892 0.07492676
00000000: a8a8 8e3d e715 debc 7be7 b0bc 6b06 03be
00000010: 730e 4bbd 3f22 c03d beae 1b3e 0967 e33d
00000020: 4cfd 62bd 765a 893d fbd8 483e 0ddc 0a3c
00000030: 1cc2 7a3d 9cb0 2ebc 7e91 ec3c d4a1 82be
00000040: 9bfa 833c e917 32be cb10 443d 0632 cd3d
00000050: 00e7 b33d 64d6 e63d b96a 193d eb65 a93d
00000060: 7d7c 1dbd cdb6 103e 4fe1 273e d9c6 243e
00000070: a93e 09be 7290 a83e 1c1a 45be c309 fabd
00000080: 2ddd 973d 238f b4bc 8392 eb3d 7512 253e
00000090: 6011 1cbd 0cb4 41bd aeb4 45ba 0a29 1d3e
000000a0: 7815 123e 2464 b7bd d376 36be a6fd 4b3d
000000b0: 55f3 383e 4ae0 3dbd feaf 063d 4f31 6a3e
000000c0: b7a3 b1bd c66f ebbd b9e1 593d 85a9 19be
000000d0: e798 b33c 7378 e1bd fea8 85be bbbc ee3c
000000e0: 6505 b03d b86b db3d 1966 cbbc f74b 54bc
000000f0: 490f 34bd cfcd 10be 8233 9f3d 761f fe3d
00000100: 3760 95bb 2911 8f3c f1a6 4a3e c6c9 353e
00000110: 9d1a 5e3e 8a50 e53d 9dbe e53d 8af1 863c
00000120: 1da4 1cbe 8a3f 49bc c809 f03d c5f6 bf3b
00000130: 41ef 053e 2838 09be 335b 88bc e4bd 383e
00000140: 6b1b d0bd 191f 55bc c7dd 633e 6696 38be
00000150: 16c3 84bd 80b7 b2bd c7f3 fb3d fcfa 8fbd
00000160: b495 253d 4a29 273e 96ab b43c 3127 8fbc
00000170: afc6 a63d b5e3 01be d0f3 233e 7188 c5bc
00000180: 2008 163e f522 5fbd d230 2f3d 256d 0a3e
00000190: 28e6 e1bd e500 3dbd 4c16 f0bc 31ed a43d
000001a0: 9d16 a1bd 392a cf3d 34ab dcbd ffb1 c5bd
000001b0: 8f61 bc3b dee9 883d adbc fa3b 3488 663c
000001c0: a475 123e 5db0 50be cc10 f53d 951d 8b3e
000001d0: 5784 8b3c 60d8 bfbd e289 04be c07b 553e
000001e0: 515b 3cbc 5af8 5b3c dc69 b3bd bc75 3d3e
000001f0: 5484 a93c d077 883e a64e 113e 27cf 00be
00000200: 04e6 ec3d 0dc5 0abe c71b f0bd edc8 71bd
00000210: 4213 0cbe f4af 183d ca15 acbd 0482 6fbc
00000220: c9fb 83bd ef4d a8bd 0648 af3d caf5 e6bd
00000230: 628c 78b9 abd3 a03c 0301 9ebd d080 96bd
00000240: 34a2 933d 32a0 b8bd 43b0 ac3c 5094 063e
00000250: 041e 253e 0131 9abd d34a 143e e921 9fbd
00000260: 2777 bfbd 61ff 17bc b23b 98bd d9d3 1cbe
00000270: 64c3 253d 7fac 073e b044 1c3e 0cc9 4d3d
00000280: cae6 ae3d 94b7 333e e0a1 ffbd 93b3 e63d
00000290: a725 7b3c 7bb6 213e 1bd5 32be 3a05 163e
000002a0: 5e21 07be 7139 0cbd cb33 f8bd 0425 68be
000002b0: c8ae 1bbd 7c6c 953c ad51 d93c 4333 85be
000002c0: 0cb7 b7bc 6fac fd3d aa45 633d 1d1e 3e3e
000002d0: 4b99 993c 1d6e f33d f7c0 9b3d 0ffb 59be
000002e0: 7214 08be b3b7 2cbe c6fe f8bd 71be 30be
000002f0: 74ec 923c 9c98 3fbe 4faf c0bd f9cb 38bd
00000300: 7911 3dbe 5c06 04be 78d3 9d3b 7fb4 3cbd
00000310: 648f 6c3d bdd1 383e a279 8b3c 41d4 2dbe
00000320: 1fee 9ebe 3acb 16be cd31 1d3e 2e47 593e
00000330: 1cf5 5a3d 9b2f 2f3d e3eb ca3d ae9a 22bc
00000340: 24b8 163e 46fa e03d 7655 3b3d ef58 a03d
00000350: 5453 09be 3b24 623d 55e3 eebc 83b6 2d3d
00000360: cfb8 223d 0307 0a3e fe52 503e 9578 cf3d
00000370: 1c33 8abc 8bf4 1cbe c783 713b 1071 123e
00000380: 7adf 20be 3c17 3c3e d938 a93d 8816 cdbd
00000390: 8780 29be 2313 99bc b3d1 383e bfbd babd
000003a0: db63 95be 0d16 9c3d 416b 04be 8b29 c5bd
000003b0: 268c 003e d276 08bd 9893 2ebc 26de 473c
000003c0: e90f a0bd b6ea 333d 8305 dcbd c0b4 fd3d
000003d0: daf6 a1bd 6b3f f1bc c10f 2bbe d58e f5bd
000003e0: f873 e7bd 22ee e23d 6613 243e 8f35 993d
000003f0: 9b0b 5f3d 6878 47be d64f 363e 3373 993d

actor.2.bias f4 [32]
-0.14080347 -0.060782615 -0.21441841 -0.100009136 0.032403175 -0.0011661396 0.10561808 0.046473496
-0.0010531592 -0.14198187 0.1041918 -0.09490308 -0.29722938 -0.12472661 -0.0061986092 0.05484906
-0.11063426 -0.036829174 -0.11862865 -0.15286332 -0.19452174 -0.06334552 0.032797705 -0.013652859
0.038366556 -0.25733122 -0.1309606 -0.06431711 -0.016521547 0.069687165 -0.19344209 -0.10357541
00000000: c92e 10be 31f7 78bd 8090 5bbe 97d1 ccbd
00000010: 31b9 043d 27d9 98ba 4b4e d83d fe5a 3e3d
00000020: 290a 8aba b263 11be 8362 d53d 8c5c c2bd
00000030: 732e 98be aa70 ffbd b41d cbbb 68a9 603d
00000040: 3794 e2bd 30da 16bd 94f3 f2bd 3488 1cbe
00000050: b530 47be 4cbb 81bd e356 063d 3eb0 5fbc
00000060: 4026 1d3d ebc0 83be 891a 06be b0b8 83bd
00000070: 3258 87bc 25b8 8e3d af15 46be 581f d4bd

actor.4.weight f4 [4, 32]
-0.15231326 -0.117073774 -0.15056911 -0.07778793 -0.0010927538 0.119505495 -0.06506816 0.08677099
0.106173456 0.0077837915 0.06835431 -0.038720403 -0.12949073 -0.046140216 -0.1748618 -0.05913735
-0.05317705 -0.14465451 -0.12365844 0.07109245 -0.010375956 0.03791805 0.031580757 0.019379849
-0.16940586 -0.27026713 0.1592448 -0.0010304005 -0.11645435 0.077582695 0.048895776 0.054377966
-0.053465527 0.069584355 0.07758514 0.079186834 -0.011323999 -0.019108407 -0.09569338 -0.12715174
-0.11476235 0.12527609 -0.022627363 -0.018630378 0.1400937 0.012805115 0.027042903 -0.034428746
0.020423288 0.11697736 -0.07164192 0.07180349 0.024735428 0.054817095 -0.0834101 -0.008992462
0.1240234 0.21515156 -0.16957057 -0.0069068493 0.01436402 -0.036341097 0.15215445 0.061181605
-0.08842851 0.16250068 0.0772573 -0.079587385 -0.06628562 -0.18536964 0.057904005 -0.17269444
0.20140076 0.10717801 -0.002516849 0.17947142 -0.05361618 -0.041365486 0.11783547 -0.14970945
0.09484345 -0.036787137 -0.12189875 0.002785102 -0.08802215 0.076444425 -0.035509314 0.1393323
-0.072768725 -0.18110973 0.095612295 -0.018319063 0.0494795 -0.00084774167 -0.10145702 -0.1302613
-0.12705939 0.21642531 0.018551411 -0.021472922 0.0011736677 -0.03304484 0.05298541 -0.1334641
-0.1387075 -0.19293843 0.055011194 -0.008420952 0.044417933 0.09376748 -0.11569757 0.108677104
-0.05731787 -0.02846939 -0.07576734 0.036745198 0.029054742 -0.0108766565 0.096838385 0.04301332
0.17880216 0.2493472 -0.11679438 0.02088677 -0.11370783 0.21460715 -0.09761856 -0.13117057
00000000: 02f8 1bbe 60c4 efbd ca2e 1abe 474f 9fbd
00000010: bc3a 8fba 4cbf f43d 7542 85bd fdb4 b13d
00000020: 7871 d93d 2d0f ff3b 58fd 8b3d 4999 1ebd
00000030: 3899 04be 86fd 3cbd f90e 33be 023a 72bd
00000040: 2ed0 59bd 5020 14be a340 fdbd eb98 913d
00000050: eaff 29bc f54f 1b3d d35a 013d 7dc2 9e3c
00000060: bb78 2dbe 7460 8abe 1211 233e 810e 87ba
00000070: 9e7f eebd ade3 9e3d f046 483d 6ebb 5e3d
00000080: abfe 5abd 3e82 8e3d f5e4 9e3d b52c a23d
00000090: 4b88 39bc 3c89 9cbc e4fa c3bd 1134 02be
000000a0: 8608 ebbd 6048 003e 055d b9bc bc9e 98bc
000000b0: b974 0f3e 8ccc 513c 1489 dd3c 2805 0dbd
000000c0: bd4e a73c d391 ef3d 00b9 92bd b50d 933d
000000d0: f4a1 ca3c e487 603d ead2 aabd 1f55 13bc
000000e0: fbff fd3d b150 5c3e e8a3 2dbe da52 e2bb
000000f0: 1157 6b3c 67da 14bd 60ce 1b3e 9099 7a3d
00000100: 021a b5bd 9466 263e 1339 9e3d b6fe a2bd
00000110: c1c0 87bd 8ad1 3dbe c02c 6d3d d0d6 30be
00000120: 003c 4e3e 2580 db3d b8f1 24bb 5bc7 373e
00000130: a49c 5bbd db6e 29bd b953 f13d 6f4d 19be
00000140: 483d c23d 1cae 16bd 0da6 f9bd 4286 363b
00000150: f544 b4bd e58e 9c3d 3772 11bd 20ad 0e3e
00000160: c507 95bd d474 39be 61d0 c33d dc11 96bc
00000170: 04ab 4a3d fb3a 5eba b3c8 cfbd 3863 05be
00000180: db1b 02be 999e 5d3e 21f9 973c fbe7 afbc
00000190: c1d5 993a 075a 07bd 3b07 593d d0aa 08be
000001a0: 5709 0ebe a791 45be 6b53 613d 08f8 09bc
000001b0: 94ef 353d 2a09 c03d d9f2 ecbd 1a92 de3d
000001c0: 25c6 6abd a338 e9bc e82b 9bbd 2282 163d
000001d0: 3604 ee3c 0134 32bc 3453 c63d bc2e 303d
000001e0: ea17 373e df54 7f3e e431 efbd bb1a ab3c
000001f0: a7df e8bd fac1 5b3e 3dec c7bd 9451 06be

actor.4.bias f4 [4]
-0.031312607 -0.057363816 -0.111433305 -0.0021691031
00000000: a641 00bd 52f6 6abd 2537 e4bd 8327 0ebb

critic.0.weight f4 [32, 24]
-0.49034545 0.044152994 -0.029785372 -0.08063481 0.009604131 -0.015299001 -0.48228258 0.44574812
-0.13347955 0.08199026 0.36083883 -0.06266114 -0.065174684 -0.066181034 0.20895833 -0.18436143
0.08866407 -0.06759764 -0.051079363 -0.032125317 -0.13682494 0.16042984 0.11494633 -0.088680394
0.29198262 -0.21454184 -0.07794775 0.035624046 0.16407791 0.006833916 -0.24138878 0.12805782
-0.4267647 0.32367876 0.24843326 0.033025406 -0.044800013 0.22188248 0.020348027 0.06952867
-0.008799345 0.053534657 -0.015612167 -0.007991558 -0.23613475 0.08354296 0.22421736 -0.20479842
1.1617101 0.07076497 0.0010992222 0.022626452 0.058906972 -0.005871681 3.2365146 -0.15878265
0.14106877 0.65828985 -0.075042985 0.024005461 -0.05104812 0.1623942 -0.13572477 0.12963836
-0.019697277 -0.0041073197 -0.0033249876 0.004706694 -0.106747836 0.25383493 -0.14467211 0.071962
-0.099762 0.09354823 -0.07643652 0.16195837 0.053770185 -0.07799283 -0.12712201 -0.080037564
-0.116722934 0.274077 0.045013454 0.010639243 0.07007412 -0.12682569 0.21270296 0.009906283
0.045942754 0.066020034 -0.04248502 0.026966617 0.07023898 -0.16162199 0.08069616 -0.13032168
-0.21484482 -0.014415908 -0.6320085 -0.11542453 0.08642874 -0.09209605 -0.23830089 0.11414113
0.09667996 0.2857692 0.17410542 0.03798388 -0.12595744 0.14859234 -0.09518366 -0.16652095
-0.060452584 -0.12416838 -0.0726003 0.023359487 -0.05353945 -0.0913147 -0.09629865 -0.18920493
-0.45749933 -0.3444604 -0.5049734 0.11624185 -0.102435656 -0.012983629 -0.7879342 0.089817
0.18739171 0.02793891 0.6113899 -0.022441914 -0.26139492 0.037576582 -0.2805896 0.2563494
0.07857823 0.0054825675 0.0027979803 -0.04468012 -0.03479038 -0.12479092 0.17870905 0.073018484
0.25453588 0.053526636 -0.26491603 -0.0009864635 0.12967148 0.08935678 0.38466546 -0.18615916
-0.11036132 0.10055031 -0.0143100545 -0.0076545496 -0.16749555 -0.100696445 -0.28969824 -0.22258432
0.030131461 0.056141652 0.022487072 0.012619019 -0.1054395 0.024241658 -0.18173748 0.20828827
0.18688385 0.088822395 0.15181841 0.0010148055 0.13636288 0.037198793 -0.18102385 0.023523154
-0.27688175 -0.069370806 -0.13427004 0.015822444 0.02792525 -0.070748486 0.084356695 0.23347497
-0.08202231 -0.05621237 0.0061265035 0.03518349 0.23139164 -0.00044807242 -0.06850215 -0.12813166
0.09760713 -0.009933363 -0.40764952 0.11449812 0.09430368 -0.0396719 -0.68744075 0.12619835
-0.080246866 -0.056122072 0.34382498 0.046729207 0.06655892 0.08886103 0.053196996 0.2827864
-0.07651183 -0.019619983 0.017798834 -0.04464864 0.16574997 -0.14074081 -0.22689126 -0.03838209
0.12440011 0.071649484 0.14073001 -0.13840331 0.07303582 0.08335943 -0.027079646 0.066025645
-0.03646721 -0.06480605 -0.04292554 -0.13280204 0.25913864 0.043427277 0.23882502 0.025545027
-0.049528826 0.107449815 -0.064628646 -0.12688853 0.05565626 -0.0005948616 0.12635949 0.034037862
-0.68945295 0.05929378 -0.18300387 0.02736424 -0.010627311 -0.0007069107 -1.8119787 0.2049957
-0.14444646 1.1394202 -0.22961465 0.02053914 -0.003843302 -0.17379338 0.03650129 -0.04053724
00000000: 8f0e fbbe c5d9 343d 7400 f4bc dd23 a5bd
00000010: a55a 1d3c a9a8 7abc beed f6be 1939 e43e
00000020: ddae 08be 82ea a73d debf b83e 7c54 80bd
00000030: 4e7a 85bd ec89 87bd 2cf9 553e 3ec9 3cbe
00000040: 8295 b53d a270 8abd 9838 51bd d695 03bd
00000050: d61b 0cbe b847 243e fb68 eb3d 119e b5bd
00000060: bf7e 953e dbb0 5bbe 12a3 9fbd 85ea 113d
00000070: 0a04 283e 0bef df3b 9f2e 77be 9721 033e
00000080: e780 dabe 39b9 a53e 4a65 7e3e a645 073d
00000090: 3880 37bd 2935 633e e8b0 a63c 0c65 8e3d
000000a0: 212b 10bc 2847 5b3d 2dca 7fbc 06ef 02bc
000000b0: 4fcd 71be 9218 ab3d 3c99 653e adb6 51be
000000c0: ebb2 943f 39ed 903d c713 903a 1c5b b93c
000000d0: 7048 713d 3b67 c0bb 0e23 4f40 eb97 22be
000000e0: 5574 103e af85 283f 23b0 99bd 1aa7 c43c
000000f0: d517 51bd aa4a 263e 6ffb 0abe ebbf 043e
00000100: 2f5c a1bc b296 86bb 09e8 59bb 9c3a 9a3b
00000110: 9c9e dabd a7f6 813e ed24 14be d060 933d
00000120: 0550 ccbd 3796 bf3d c08a 9cbd 6ad8 253e
00000130: 203e 5c3d b4ba 9fbd 462c 02be bcea a3bd
00000140: 6f0c efbd d253 8c3e 0760 383d 3850 2e3c
00000150: 0583 8f3d 98de 01be cece 593e f64d 223c
00000160: 782e 3c3d 8335 873d c604 2ebd 18e9 dc3c
00000170: 74d9 8f3d 3c80 25be 0744 a53d 0c73 05be
00000180: 4800 5cbe b330 6cbc 4fcb 21bf b263 ecbd
00000190: 8d01 b13d db9c bcbd 2605 74be d3c2 e93d
000001a0: 2500 c63d 5750 923e b148 323e fc94 1b3d
000001b0: fdfa 00be 9728 183e a7ef c2bd 7884 2abe
000001c0: 219d 77bd fe4b febd 77af 94bd 655c bf3c
000001d0: 2f4c 5bbd 3403 bbbd 3a38 c5bd f0be 41be
000001e0: 5a3d eabe 1d5d b0be f045 01bf 3510 ee3d
000001f0: c9c9 d1bd 49b9 54bc 0eb6 49bf faf1 b73d
00000200: 9de3 3f3e 24e0 e43c 0c84 1c3f 1bd8 b7bc
00000210: 8ed5 85be e7e9 193d 71a9 8fbe 3b40 833e
00000220: a0ed a03d 1ca7 b33b 525e 373b 8002 37bd
00000230: 5c80 0ebd 6292 ffbd 81ff 363e b78a 953d
00000240: 8752 823e bf3e 5b3d 13a3 87be 394c 81ba
00000250: 9ac8 043e b000 b73d dff2 c43e 82a0 3ebe
00000260: 1e05 e2bd 52ed cd3d b874 6abc 04d3 fabb
00000270: f483 2bbe f039 cebd 5453 94be 25ed 63be
00000280: 41d6 f63c caf4 653d cf36 b83c 00c0 4e3c
00000290: aaf0 d7bd 7196 c63c 6419 3abe 8549 553e
000002a0: 7b5e 3f3e 84e8 b53d 4976 1b3e 3903 853a
000002b0: b6a2 0b3e c35d 183d 515e 39be a1b3 c03c
000002c0: 72c3 8dbe 4812 8ebd 167e 09be 129e 813c
000002d0: 7ec3 e43c 95e4 90bd 34c3 ac3d 1014 6f3e
000002e0: 50fb a7bd f13e 66bd d6c0 c83b 901c 103d
000002f0: eef1 6c3e 43eb eab9 db4a 8cbd f234 03be
00000300: 3fe6 c73d 8bbf 22bc 70b7 d0be fe7d ea3d
00000310: 4a22 c13d 017f 22bd 1efc 2fbf 243a 013e
00000320: 7858 a4bd 42e0 65bd d409 b03e 2067 3f3d
00000330: 0b50 883d c6fc b53d 18e5 593d 61c9 903e
00000340: 3cb2 9cbd 16ba a0bc dcce 913c 7ee1 36bd
00000350: 5cba 293e 5c1e 10be 2f56 68be 8a36 1dbd
00000360: 7cc5 fe3d f7bc 923d 871b 103e 99b9 0dbe
00000370: ce93 953d 59b8 aa3d 22d6 ddbc 7438 873d
00000380: a45e 15bd 09b9 84bd b1d2 2fbd 42fd 07be
00000390: d2ad 843e cde0 313d 8c8e 743e ce43 d13c
000003a0: bdde 4abd a60e dc3d 065c 84bd 11ef 01be
000003b0: d2f7 633d 7cf0 1bba 6264 013e 496b 0b3d
000003c0: fd7f 30bf 09de 723d 5e65 3bbe f82a e03c
000003d0: 2c1e 2ebc f94f 39ba ebee e7bf 65ea 513e
000003e0: c6e9 13be 85d8 913f 1a20 6bbe b341 a83c
000003f0: e8df 7bbb e4f6 31be 6082 153d 610a 26bd

critic.0.bias f4 [32]
0.069311485 -0.1718939 -0.25269258 0.19088487 0.0024380563 0.17102024 -0.13200437 0.05402151
0.010943935 0.016402705 -0.49868742 -0.32566246 0.20559028 0.12400374 -0.03328472 0.053668343
-0.042419244 -0.091606006 0.2823953 0.14575523 -0.24162693 -0.14678966 -0.3605853 0.0420325
-0.11138197 -0.22557743 0.05931046 0.150826 -0.01440739 0.13446748 0.07906196 -0.11481539
00000000: 2ef3 8d3d f404 30be ec60 81be 5377 433e
00000010: ccc7 1f3b ee1f 2f3e 272c 07be a945 5d3d
00000020: 314e 333c f75e 863c f553 ffbe 3bbd a6be
00000030: 4286 523e acf5 fd3d 8f55 08bd 56d3 5b3d
00000040: cdbf 2dbd ee9b bbbd 1e96 903e dc40 153e
00000050: 0d6d 77be 0750 16be a39e b8be 452a 2c3d
00000060: 3b1c e4bd c5fd 66be 86ef 723d 2272 1a3e
00000070: f90c 6cbc d8b1 093e 3deb a13d 5524 ebbd

critic.2.weight f4 [32, 32]
0.118308425 -0.15541267 -0.0330401 -0.05371866 0.0008653429 0.16041255 0.11771435 -0.05215306
-0.16647123 -0.14647906 -0.14001493 -0.019311734 0.05010954 -0.18763022 0.16461799 -0.082363784
0.11859493 0.11592315 0.13984083 -0.030788131 -0.0173165 0.066484354 -0.1459197 0.016020672
0.07587734 -0.057394575 -0.14158301 -0.0078121675 -0.012166721 0.0720565 -0.044862166 -0.0032812539
-0.036653187 -0.022103127 0.13935614 -0.010134889 -0.024284951 -0.021098724 -0.024181271 -0.15705904
0.11192285 -0.018137716 0.04136705 0.14857367 0.066669196 -0.12538764 -0.07483837 -0.08464393
-0.09663074 0.068373896 -0.024453772 -0.0006935893 0.012466707 -0.11170741 0.13256107 0.0597633
0.15036629 0.051362365 -0.044290513 0.008013272 0.1749008 -0.07159826 0.048359614 -0.1887231
0.045586843 -0.09082838 0.00309172 0.03266615 -0.0073463735 0.002119606 -0.013862096 -0.025857804
0.09054729 0.10296298 -0.09799554 0.037379224 0.052848883 0.029713906 0.039638706 0.008832938
-0.14438577 -0.03830439 -0.09366368 0.13292895 -0.121528156 0.051586397 0.035677638 0.057000987
0.036265463 -0.046541773 -0.064136714 0.13556574 0.028029207 0.111574225 0.04009327 0.14222215
0.04069925 -0.037744503 -0.16131772 0.0023015477 0.10885868 -0.07057226 0.3316183 0.06923527
-0.17509234 -0.09528808 -0.6221514 -0.23314199 0.05503559 -0.07981247 0.10875758 -0.050570495
-0.003158435 -0.11012717 0.01295671 -0.11154142 -1.1099119 0.11106141 -0.14326279 0.024298707
-0.16915293 0.15838234 0.45539495 0.04657149 0.07993836 0.038723085 0.079208046 -0.07161444
-0.042551935 -0.11588417 -0.07068598 -0.044270042 0.050851025 -0.07568078 -0.13960104 -0.03556817
0.14320958 -0.09180435 -0.09733397 0.07874038 -0.031147512 -0.036849745 -0.16954604 -0.11476845
0.03778459 0.059855167 -0.10045697 -0.057205558 0.07112202 0.16464433 -0.049708687 -0.1998541
0.10935081 -0.13930394 -0.07548272 -0.14091638 0.054829214 0.09917487 0.15677918 0.022453897
-0.13356188 0.0933827 0.08820891 0.02345422 0.03713197 -0.08370065 -0.0074649104 0.13040212
0.015483151 -0.14527553 0.11409962 0.103122264 0.13223258 0.0795797 0.1407036 0.11059129
0.049639314 -0.10238505 -0.026563212 0.06877102 -0.16454813 -0.12771825 -0.11453831 -0.118860565
0.06577075 0.08947892 -0.12660325 -0.125269 0.09007535 -0.08037564 -0.037491046 -0.045542922
0.14647903 -0.17898512 0.044943742 -0.06216724 -0.12629484 0.04651035 0.0595724 0.16953918
-0.085567445 -0.02092207 -0.14809886 -0.107371286 -0.022499314 0.10180295 -0.0549449 0.1466482
-0.017373137 -0.09230901 0.027290411 0.14850844 0.06234916 -0.07368979 -0.10551117 0.1480894
0.1246239 0.123406045 -0.09211657 -0.15027463 -0.1717249 0.0622098 0.13884555 -0.07596285
-0.19774684 -0.12716629 -0.014907995 0.102978446 -0.034093257 0.01891638 -0.120441206 -0.118754424
-0.096807815 0.09655538 -0.087850854 -0.0827168 -0.02671008 0.04893339 -0.09754053 -0.050197918
0.044459987 0.009918906 0.07032247 -0.15179236 -0.19670203 -0.09868946 0.14858446 -0.13124475
-0.088495314 -0.10131811 0.07261419 -0.0797121 -0.09497911 0.007176999 -0.064424746 0.139177
00000000: b04b f23d 8024 1fbe 0e55 07bd 1908 5cbd
00000010: 2ed8 623a 3043 243e 3914 f13d 729e 55bd
00000020: 6f77 2abe 9bfe 15be 1360 0fbe a433 9ebc
00000030: a93f 4d3d 2322 40be 9e91 283e 58ae a8bd
00000040: e6e1 f23d 1e69 ed3d 6f32 0f3e 6437 fcbc
00000050: 55db 8dbc f328 883d f96b 15be c93d 833c
00000060: 9465 9b3d 9316 6bbd 23fb 10be 36fd ffbb
00000070: ed56 47bc 5c92 933d 64c1 37bd 4e0a 57bb
00000080: a721 16bd 9e11 b5bc 60b3 0e3e ce0c 26bc
00000090: 3cf1 c6bc 3bd7 acbc cd17 c6bc 16d4 20be
000000a0: cf37 e53d 8c95 94bc 7f70 293d b223 183e
000000b0: dc89 883d 9e65 00be dc44 99bd cc59 adbd
000000c0: 56e6 c5bd 9d07 8c3d 4753 c8bc fdd1 35ba
000000d0: 2941 4c3c dbc6 e4bd 17be 073e 5dca 743d
000000e0: 9ff9 193e 5861 523d f869 35bd 194a 033c
000000f0: 3219 333e 1ca2 92bd bb14 463d a140 41be
00000100: 45b9 3a3d 3b04 babd 749e 4a3b f1cc 053d
00000110: d9b9 f0bb 16e9 0a3b d81d 63bc bfd3 d3bc
00000120: dc70 b93d 41de d23d e3b1 c8bd f51a 193d
00000130: 1278 583d 946a f33c 325c 223d 07b8 103c
00000140: ddd9 13be 10e5 1cbd bed2 bfbd 871e 083e
00000150: c1e3 f8bd 424c 533d b722 123d de79 693d
00000160: 188b 143d 96a2 3ebd 1c5a 83bd bfd1 0a3e
00000170: 829d e53c 0781 e43d d738 243d afa2 113e
00000180: 42b4 263d fb99 1abd 7930 25be 90d5 163b
00000190: 4df1 de3d 3088 90bd e0c9 a93e 39cb 8d3d
000001a0: 684b 33be 6626 c3bd 5045 1fbf c6bc 6ebe
000001b0: 006d 613d b874 a3bd 4bbc de3d 0223 4fbd
000001c0: bffd 4ebb 5b8a e1bd 6148 543c d46f e4bd
000001d0: 9811 8ebf 2a74 e33d 7bb3 12be 150e c73c
000001e0: 6d36 2dbe fb2e 223e 8729 e93e bfc1 3e3d
000001f0: b9b6 a33d 199c 1e3d d437 a23d 97aa 92bd
00000200: f04a 2ebd ae54 edbd d0c3 90bd 8154 35bd
00000210: 2a49 503d 86fe 9abd 93f3 0ebe eeaf 11bd
00000220: 88a5 123e eb03 bcbd 0857 c7bd a342 a13d
00000230: 1129 ffbc c2ef 16bd 7a9d 2dbe b90b ebbd
00000240: 04c4 1a3d b12a 753d 62bc cdbd 6050 6abd
00000250: 6ca8 913d 8698 283e 569b 4bbd 8ea6 4cbe
00000260: 51f3 df3d b1a5 0ebe af96 9abd 624c 10be
00000270: 9994 603d 321c cb3d b98a 203e 3cf1 b73c
00000280: 72c4 08be 6e3f bf3d dfa6 b43d 1023 c03c
00000290: b117 183d 3f6b abbd 359c f4bb 2288 053e
000002a0: 0bad 7d3c 1cc3 14be 10ad e93d c431 d33d
000002b0: fa67 073e affa a23d 9b14 103e b07d e23d
000002c0: 9852 4b3d 41af d1bd 189b d9bc d2d7 8c3d
000002d0: 4e7f 28be 93c8 02be 1093 eabd 2b6d f3bd
000002e0: d1b2 863d b940 b73d 48a4 01be 8446 00be
000002f0: 6d79 b83d fc9b a4bd 3690 19bd 378b 3abd
00000300: 99fe 153e e047 37be ee16 383d 13a3 7ebd
00000310: 6f53 01be a381 3e3d 3002 743d ae9b 2d3e
00000320: fc3d afbd c364 abbc 3aa7 17be 7ae5 dbbd
00000330: 7b50 b8bc 117e d03d e70d 61bd f22a 163e
00000340: 1c52 8ebc 820c bdbd 2490 df3c 9912 183e
00000350: d561 7f3d acea 96bd 3e16 d8bd bfa4 173e
00000360: d13a ff3d 4fbc fc3d 9da7 bcbd 98e1 19be
00000370: a7d8 2fbe b4cf 7e3d 872d 0e3e 6992 9bbd
00000380: 267e 4abe e137 02be aa40 74bc 5de6 d23d
00000390: 5fa5 0bbd 86f6 9a3c e1a9 f6bd 8535 f3bd
000003a0: 2d43 c6bd d4be c53d 26eb b3bd 6d67 a9bd
000003b0: 19cf dabc 616e 483d 54c3 c7bd 559c 4dbd
000003c0: ad1b 363d e882 223c 3a05 903d 756f 1bbe
000003d0: 426c 49be b31d cabd 8626 183e 0665 06be
000003e0: 083d b5bd df7f cfbd c0b6 943d 1940 a3bd
000003f0: 6884 c2bd 082d eb3b 1ff1 83bd 6a84 0e3e

critic.2.bias f4 [32]
-0.15063381 -0.029994823 -0.089634374 0.13596882 -0.082487695 -0.15711412 -0.12031662 0.016877593
-0.044765104 -0.19243364 0.001108846 0.254478 0.008092183 -0.046054356 -0.041410297 0.037745543
0.22134835 0.07354253 -0.08962505 -0.0406932 0.13506222 0.08415956 0.17338154 0.16861369
-0.057867855 -0.039629124 -0.06706992 -0.000213118 0.071716614 -0.09182907 0.06357739 0.3437429
00000000: c03f 1abe b4b7 f5bc 3a92 b7bd 693b 0b3e
00000010: 4fef a8bd 86e2 20be 8f68 f6bd e142 8a3c
00000020: 9d5b 37bd 530d 45be b356 913a f14a 823e
00000030: 1395 043c 7ea3 3cbd d89d 29bd 129b 1a3d
00000040: 24a9 623e 779d 963d 578d b7bd eaad 26bd
00000050: c04d 0a3e d95b ac3d ee8a 313e 11a9 2c3e
00000060: d806 6dbd 2652 22bd f45b 89bd 6d78 5fb9
00000070: 29e0 923d e110 bcbd dd34 823d 12ff af3e

critic.4.weight f4 [1, 32]
-0.007785753 0.010232066 0.06378185 0.2575764 -0.0030563287 0.032271046 -0.029443875 0.09028172
-0.0040618144 0.01699233 -0.029950146 0.030009205 0.0337854 -0.009687433 0.03818365 0.015533392
-0.1046359 -0.0846294 0.115097836 -0.062220328 -0.031073753 0.07232537 -0.0043034754 0.04196571
-0.0013354259 0.042840227 0.055396028 0.0003506923 -0.09119806 0.109676465 -0.037769314 0.23865157
00000000: a11f ffbb 65a4 273c 0fa0 823d 0ee1 833e
00000010: b04c 48bb a52e 043d 4834 f1bc 9fe5 b83d
00000020: f818 85bb 8033 8b3c 025a f5bc ddd5 f53c
00000030: 8f62 0a3d 0ab8 1ebc 7566 1c3d c57f 7e3c
00000040: 594b d6bd 2e52 adbd 6ab8 eb3d beda 7ebd
00000050: 628e febc 531f 943d 2b04 8dbb 3de4 2b3d
00000060: 7509 afba 3c79 2f3d f2e6 623d 20dd b739
00000070: 0cc6 babd 0e9e e03d ffb3 1abd 1461 743e

exp_avg f4 [4]
-0.011380597 0.00060757645 0.009851882 0.01184825
00000000: af75 3abc c445 1f3a ca69 213c 2a1f 423c

exp_avg_sq f4 [4]
0.0042409385 0.0059189238 0.001422915 0.0016329532
00000000: 92f7 8a3b 88f3 c13b 1b81 ba3a d108 d63a

exp_avg f4 [32, 24]
-0.0007219941 -0.00013651027 -0.00023315298 0.0005402709 0.0038571872 -0.00096489897 -0.0008052576 -1.2889801e-05
0.005184541 -0.0014448226 -4.3592404e-06 -0.0009427501 -8.04431e-05 3.4588154e-06 0.00037787485 -0.000572673
0.0047480473 -0.008103552 0.012041167 -0.0024020332 0.00027150387 -0.0004506363 0.0014937785 -0.00064381
0.00044426252 4.110407e-05 -2.0372192e-05 0.0004785681 0.0038778712 0.00093868794 0.00033566612 3.524699e-05
0.0016618611 -7.590672e-05 6.7651185e-05 -0.000379336 -9.6588454e-05 0.00015398419 0.00010583222 -7.3847106e-05
-0.0004335921 0.00030930463 0.00544511 -0.0036469647 -3.6558158e-05 0.00014609499 0.000396833 -0.00041036645
-0.00045760357 -3.8165836e-05 0.00023676774 -0.0006138094 -0.002305759 -0.0009483914 -0.00021699902 4.6587156e-05
-0.0011060045 -2.4225683e-05 -2.1161522e-05 0.00036088642 0.00035112377 -0.0002491733 8.777875e-06 -4.3300653e-05
0.0043765767 -0.001276081 -0.0018044559 0.0029835755 0.00081192475 -0.0003562525 -2.5154438e-06 -8.5793135e-06
-0.0005773546 -4.8375375e-07 0.00018095727 -0.0008810536 -0.0015795553 -0.0006160487 -0.00049711956 6.946166e-05
0.00015601747 -0.0006643761 -4.982382e-05 1.609186e-05 0.000258058 -0.00014751298 0.00027418378 -0.00019418319
0.004233644 -0.003226433 0.001172535 -0.0005614077 0.0005864879 -0.00040343136 0.0005478006 -0.0002940517
0.00025983734 -8.4892694e-05 -1.9402432e-05 0.00037532896 0.0012607018 0.00030751157 0.00039995616 3.1411968e-05
0.0005090707 9.804325e-05 -3.409118e-05 -0.00023085499 5.6960875e-05 -0.00019325448 0.00024774554 -0.00017371788
-0.00070936815 -0.0022613455 0.006551674 0.001727357 0.00019939979 -0.00047487675 0.00076174026 -0.00018211144
0.00061720423 -3.7773003e-05 4.5111814e-05 0.0005389998 0.0030780942 -3.4266035e-05 0.00059554214 -6.6237735e-05
0.0015157736 0.00020282411 -7.3620846e-05 -0.0010290676 -0.00011817613 0.00011550021 -5.4430466e-06 -0.00018168056
-0.003089497 0.0010787277 0.0027290045 -0.0015137278 -0.00021862828 0.00018695844 0.0003090436 -0.00016424504
-2.8616781e-05 -3.6338348e-05 3.5241905e-05 0.00011916207 -0.0006352263 -0.00014164782 -7.666992e-05 -3.6268157e-05
-0.0009102421 0.00022049679 -8.618382e-05 0.00024897646 -1.6134809e-05 4.4390446e-05 -0.00022106474 6.912247e-05
0.0016119307 0.0005082797 -0.0026564398 -0.0019905944 -1.2507846e-05 0.00015555008 -0.00051741046 0.00018736793
-0.0007810344 0.00016984227 0.00013868145 -0.0011278718 -0.0025348598 -0.00068671384 -0.0012115666 6.382834e-05
0.0013113869 -0.00082345464 7.993869e-05 0.00027901639 1.08754375e-05 5.8566195e-05 6.854619e-05 -0.00010640238
0.0012595168 -0.0021159751 0.005058016 -0.003418359 4.22305e-05 -5.1463405e-05 0.00019592197 -5.152815e-06
-9.0279675e-05 -9.8269746e-05 5.3864595e-05 -3.229375e-05 0.0012408837 -0.0004965722 -6.225757e-05 3.3749457e-05
0.0002475226 -0.00063439703 1.7986427e-05 -0.00039805233 0.00017797016 -0.00039838933 0.0004681347 -0.00043263024
0.0009516375 -0.0053111645 0.007758216 -0.0026876822 0.00042342508 -0.0010587868 0.0012572646 -0.00073758716
-0.0005865711 -2.4340588e-06 -0.00021995309 0.00047522932 0.0014179994 -0.0009059026 -0.000595861 -6.797644e-05
0.0030440171 -0.0005640451 -0.000109765395 -0.0009039053 -0.00019401331 0.00019076478 -0.00013883217 1.3697852e-05
0.003477964 -0.0007712475 0.0027223313 -0.00017499908 -0.00014725518 0.00033338007 -4.9562263e-05 0.00028227485
-0.0011559385 0.00013103637 0.00018882044 -0.00061960245 -0.0035238832 -0.0013485726 -0.0010349447 7.641927e-05
0.00035444496 -0.00061665574 -9.413264e-05 0.00018850154 0.00025801183 -7.507762e-05 -0.00016995864 -1.5884927e-05
00000000: 3444 3dba 3224 0fb9 877a 74b9 f7a0 0d3a
00000010: ddc8 7c3b 46f1 7cba ec17 53ba 4641 58b7
00000020: 15e3 a93b 3460 bdba 9745 92b6 e322 77ba
00000030: 8fb3 a8b8 ff1d 6836 811d c639 6f1f 16ba
00000040: 8295 9b3b c3c4 04bc 5148 453c 6e6b 1dbb
00000050: a258 8e39 6143 ecb9 e4ca c33a 5cc5 28ba
00000060: e8eb e839 2967 2c38 f3e4 aab7 53e8 fa39
00000070: e223 7e3b 4812 763a 58fc af39 2bd6 1338
00000080: ced2 d93a 1c30 9fb8 f4df 8d38 9ee1 c6b9
00000090: 888f cab8 d176 2139 3ef2 dd38 5dde 9ab8
000000a0: bf53 e3b9 2a2a a239 e56c b23b ea01 6fbb
000000b0: 0656 19b8 1331 1939 060e d039 7426 d7b9
000000c0: 83ea efb9 4114 20b8 db44 7839 0de8 20ba
000000d0: 371c 17bb 789d 78ba 3b8a 63b9 9466 4338
000000e0: 5af7 90ba 4238 cbb7 0684 b1b7 5b35 bd39
000000f0: 0917 b839 79a3 82b9 b044 1337 b99d 35b8
00000100: 6369 8f3b 2c42 a7ba 7e83 ecba 1788 433b
00000110: 59d7 543a 67c7 bab9 ffce 28b6 dfef 0fb7
00000120: 9d59 17ba 4edb 01b5 59bf 3d39 82f6 66ba
00000130: 1509 cfba 547e 21ba 2151 02ba f2ab 9138
00000140: 9f98 2339 8629 2eba ebf9 50b8 02fd 8637
00000150: f54b 8739 b7ad 1ab9 53c0 8f39 a79d 4bb9
00000160: 61ba 8a3b 9072 53bb bfaf 993a 6f2b 13ba
00000170: 89be 193a a483 d3b9 479a 0f3a f32a 9ab9
00000180: c73a 8839 6b08 b2b8 68c2 a2b7 cdc7 c439
00000190: 223e a53a 8139 a139 35b1 d139 58c0 0338
000001a0: 2873 053a 929c cd38 20fd 0eb8 aa11 72b9
000001b0: 46e9 6e38 5ba4 4ab9 d8e3 8139 0a28 36b9
000001c0: e4f4 39ba 1533 14bb 6daf d63b 7c68 e23a
000001d0: f915 5139 e1f8 f8b9 86af 473a 2bf5 3eb9
000001e0: e0cb 213a 746e 1eb8 7136 3d38 aa4b 0d3a
000001f0: dab9 493b e0b8 0fb8 281e 1c3a 1de9 8ab8
00000200: ecac c63a 2fad 5439 e464 9ab8 c7e1 86ba
00000210: 54d5 f7b8 b438 f238 6aa3 b6b6 8181 3eb9
00000220: 2979 4abb 1864 8d3a 19d9 323b 4768 c6ba
00000230: 953f 65b9 460a 4439 2107 a239 3139 2cb9
00000240: 120e f0b7 016a 18b8 b5d0 1338 a6e6 f938
00000250: 5185 26ba 4c87 14b9 dac9 a0b8 a31e 18b8
00000260: 509d 6eba 2835 6739 96bd b4b8 0e89 8239
00000270: 3d59 87b7 e12f 3a38 9dcd 67b9 d8f5 9038
00000280: 6b47 d33a 133e 053a aa17 2ebb a274 02bb
00000290: cad8 51b7 281b 2339 d4a2 07ba 3278 4439
000002a0: 55be 4cba b017 3239 056b 1139 19d5 93ba
000002b0: e41f 26bb 9604 34ba 6ecd 9eba 94db 8538
000002c0: d8e2 ab3a 1bdd 57ba c2a4 a738 f248 9239
000002d0: a675 3637 f9a4 7538 75c0 8f38 5824 dfb8
000002e0: 5f16 a53a 2cac 0abb b7bd a53b 8c06 60bb
000002f0: a720 3138 69da 57b8 6770 4d39 58e6 acb6
00000300: 8854 bdb8 2b16 ceb8 abec 6138 2673 07b8
00000310: 26a5 a23a 652c 02ba 4790 82b8 348e 0d38
00000320: ecc5 8139 aa4d 26ba 8fe1 9637 aeb1 d0b9
00000330: 809d 3a39 e9de d0b9 fa6f f539 a6d2 e2b9
00000340: 5077 793a 4709 aebb a238 fe3b d323 30bb
00000350: 27ff dd39 fdc6 8aba cdca a43a a35a 41ba
00000360: 1fc4 19ba d058 23b6 35a3 66b9 3328 f939
00000370: 2adc b93a 187a 6dba 8e33 1cba 938e 8eb8
00000380: 227e 473b 6ddc 13ba d931 e6b8 0ff4 6cba
00000390: 0d70 4bb9 0808 4839 7a93 11b9 d4cf 6537
000003a0: 8eee 633b 8b2d 4aba 2469 323b f57f 37b9
000003b0: 8368 1ab9 84c9 ae39 13e1 4fb8 4afe 9339
000003c0: dc82 97ba cf66 0939 1afe 4539 d16c 22ba
000003d0: f3f0 66bb 96c2 b0ba fba6 87ba 4843 a038
000003e0: ccd4 b939 11a7 21ba 1469 c5b8 7fa8 4539
000003f0: c345 8739 fe72 9db8 ed36 32b9 9f40 85b7

exp_avg_sq f4 [32, 24]
6.173738e-06 4.3689073e-07 1.2047234e-06 1.1479925e-05 0.00021485251 4.8582733e-05 4.3949863e-06 9.727777e-08
0.00021674592 1.8500046e-05 1.9803024e-07 7.77256e-06 2.3888729e-06 1.2055349e-06 2.2402776e-06 2.0374769e-06
0.0007360396 0.00071196415 0.005312667 0.0034694194 1.25314855e-05 7.619637e-06 2.1504191e-05 1.7026996e-05
1.5991401e-06 5.0228007e-08 9.1444875e-08 1.4005202e-06 6.92395e-05 9.080184e-06 1.2573063e-06 1.3795519e-08
2.0777563e-05 9.01777e-07 3.5543245e-08 1.0892924e-06 3.6830022e-07 4.5081566e-07 2.0696106e-07 2.0866877e-07
0.00011795332 0.00011544064 0.0005962425 0.0006209223 2.0435677e-06 2.2638521e-06 2.405145e-06 2.4649398e-06
3.256015e-06 8.3847986e-08 3.202215e-07 2.215444e-06 6.188678e-05 8.318858e-06 1.80674e-06 2.9460125e-08
1.934822e-05 2.8436727e-06 2.971319e-08 9.085458e-07 1.0828167e-06 5.4252627e-07 6.4098856e-07 6.878896e-07
0.00019560325 0.00014512731 0.00057966314 0.0005195231 5.8542482e-06 2.7955407e-06 4.0270247e-06 3.7257737e-06
8.812382e-06 2.8037354e-07 9.4783667e-07 8.2604665e-06 0.00016721495 1.0339784e-05 4.6745367e-06 1.0330091e-07
1.8180343e-05 5.8231076e-06 2.2324103e-08 9.529084e-07 2.9624227e-06 1.2377703e-06 1.6042653e-06 1.6902801e-06
0.00030980344 0.00021877913 0.00051495916 0.00055152626 1.4583718e-05 6.057623e-06 6.872126e-06 6.6465213e-06
1.3692608e-06 4.033494e-08 1.517894e-07 1.3024948e-06 3.3641332e-05 8.091282e-06 9.79949e-07 8.359622e-09
1.8719915e-05 2.2859078e-06 2.0720393e-08 1.0069582e-06 3.5753368e-07 2.1489008e-07 2.9531373e-07 3.3388008e-07
0.00012577315 8.6517204e-05 0.0004390549 0.0003613809 2.1715814e-06 1.2206135e-06 2.3377147e-06 2.1020508e-06
4.205488e-06 1.3421263e-07 2.7144281e-07 4.4980543e-06 0.0001418915 1.9666644e-05 3.0945744e-06 4.5456428e-08
5.9633316e-05 6.4342203e-06 5.2247426e-08 2.7244007e-06 1.2301982e-06 8.5188606e-07 1.343747e-06 9.870782e-07
0.0004128005 0.0004264384 0.0017449146 0.0015503241 7.212667e-06 5.0962662e-06 1.07166225e-05 6.910344e-06
3.1926015e-07 2.6916789e-08 3.440554e-08 6.3463585e-07 1.3904522e-05 3.7635214e-06 2.6195278e-07 5.96686e-09
5.2221376e-06 5.986615e-07 1.4176463e-08 6.439088e-07 9.897498e-08 7.568037e-08 2.1135878e-07 1.0599749e-07
5.6545203e-05 5.921585e-05 0.000299765 0.00021651441 5.7073544e-07 5.12181e-07 1.7514776e-06 7.704015e-07
1.3102889e-05 4.0959154e-07 1.5688772e-06 1.4319566e-05 0.00023605373 1.3430953e-05 6.9575185e-06 1.4454221e-07
3.0278577e-05 9.0362855e-06 4.2579146e-08 1.5914478e-06 4.373613e-06 1.5225447e-06 1.9326353e-06 2.5325326e-06
0.0004113633 0.00023493577 0.00060499634 0.0005726053 2.203451e-05 6.9745684e-06 8.506042e-06 1.0517921e-05
6.160908e-06 1.4728144e-07 4.918198e-07 4.5715437e-06 0.000120972625 2.1350745e-05 3.7175826e-06 4.4234334e-08
2.7963608e-05 5.9009603e-06 6.419533e-08 2.2107208e-06 1.5470539e-06 7.252764e-07 8.69489e-07 1.0529691e-06
0.00029876747 0.00020992826 0.00070032227 0.0006508676 8.607548e-06 3.817712e-06 4.7520266e-06 5.1510465e-06
4.5628963e-06 1.9556441e-07 5.2714415e-07 6.0793495e-06 0.00014634234 3.1500454e-05 3.269169e-06 5.120036e-08
7.16734e-05 7.2009725e-06 1.336869e-07 3.9226184e-06 1.3620604e-06 8.938782e-07 1.0369408e-06 1.1671566e-06
0.000493166 0.000404267 0.001964722 0.0015830902 8.118875e-06 5.29217e-06 8.324591e-06 8.428439e-06
1.0137135e-05 2.5594875e-07 9.557174e-07 1.1407921e-05 0.00012772057 2.0283032e-05 5.6526096e-06 8.360238e-08
2.6539969e-05 6.4329543e-06 4.4516614e-08 2.122479e-06 2.6178432e-06 1.0270627e-06 1.3549112e-06 1.5354954e-06
00000000: 0128 cf36 ce8d ea34 fbb1 a135 e799 4037
00000010: 084a 6139 50c5 4b38 a578 9336 05e7 d033
00000020: 4a46 6339 8c30 9b37 23a2 5434 e466 0237
00000030: 8650 2036 ddcd a135 ad57 1636 96bb 0836
00000040: c8f2 403a 1ba3 3a3a e215 ae3b 335f 633b
00000050: 523e 5237 2fac ff36 e663 b437 32d5 8e37
00000060: 09a2 d635 47ba 5733 5a60 c433 82f9 bb35
00000070: ac34 9138 1857 1837 b7c0 a835 5601 6d32
00000080: 7a4b ae37 a511 7235 36a8 1833 cd33 9235
00000090: ccba c534 a207 f234 0639 5e34 6f0e 6034
000000a0: b55d f738 b918 f238 284d 1c3a 64c5 223a
000000b0: 3a24 0936 afec 1736 1468 2136 586b 2536
000000c0: e981 5a36 eb0f b433 e8ea ab34 0aad 1436
000000d0: 36c9 8138 3991 0b37 1d7f f235 800f fd32
000000e0: fc4d a237 edd5 3e36 ff3b ff32 cbe2 7335
000000f0: 4c55 9135 1fa2 1135 6610 2c35 6aa7 3835
00000100: d91a 4d39 512d 1839 89f4 173a 9b30 083a
00000110: 9c6f c436 069b 3b36 e11f 8736 4e08 7a36
00000120: e4d8 1337 3f86 9634 d76e 7e35 6f96 0a37
00000130: 6c56 2f39 0979 2d37 f7d9 9c36 47d6 dd33
00000140: fd81 9837 1d64 c336 39c3 bf32 5ecb 7f35
00000150: 09ce 4636 7721 a635 2352 d735 95dd e235
00000160: 1d6d a239 1368 6539 53fe 063a 4d94 103a
00000170: 98ac 7437 9642 cb36 1d97 e636 2f05 df36
00000180: 71c7 b735 bc3c 2d33 8dfb 2234 61d1 ae35
00000190: 1b1a 0d38 cbbf 0737 cb86 8335 029e 0f32
000001a0: b608 9d37 9967 1936 a0fc b132 d226 8735
000001b0: 0ef3 bf34 89bc 6634 9c8b 9e34 2140 b334
000001c0: f9e1 0339 9270 b538 f330 e639 b977 bd39
000001d0: 7cbb 1136 f6d3 a335 a2e1 1c36 f510 0d36
000001e0: de1c 8d36 161c 1034 d1ba 9134 feed 9636
000001f0: b6c8 1439 ccf9 a437 62ac 4f36 df3b 4333
00000200: c91e 7a38 88e5 d736 a766 6033 d9d4 3636
00000210: 4a1d a535 2aad 6435 cc5a b435 c07b 8435
00000220: 256d d839 9893 df39 9eb5 e43a 3f34 cb3a
00000230: 5604 f236 9800 ab36 8bcb 3337 67df e736
00000240: c866 ab34 a536 e732 4bc5 1333 d85b 2a35
00000250: 7847 6937 ce90 7c36 84a2 8c34 0e05 cd31
00000260: d239 af36 b4b3 2035 be8c 7332 13d9 2c35
00000270: 128c d433 b985 a233 dcf1 6234 bda0 e333
00000280: f32a 6d38 895e 7838 c729 9d39 2508 6339
00000290: a434 1935 cf7c 0935 5014 eb35 97cd 4e35
000002a0: 7bd4 5b37 d5e5 db34 3692 d235 113e 7037
000002b0: 3185 7739 8155 6137 a174 e936 7633 1b34
000002c0: c0fe fd37 8d9a 1737 44e0 3633 bb99 d535
000002d0: 0dc1 9236 3d5a cc35 6cb2 0136 94f4 2936
000002e0: 3fac d739 1759 7639 9e98 1e3a e41a 163a
000002f0: c0d6 b837 1607 ea36 2cb5 0e37 2076 3037
00000300: ccb9 ce36 6a24 1e34 9905 0435 4365 9936
00000310: afb2 fd38 601a b337 957b 7936 2afc 3d33
00000320: 6493 ea37 dd00 c636 c2db 8933 e55b 1436
00000330: 5ea4 cf35 9db0 4235 d466 6935 be53 8d35
00000340: e4a3 9c39 3020 5c39 d595 373a fc9e 2a3a
00000350: 2369 1037 e519 8036 9973 9f36 27d7 ac36
00000360: fb1a 9936 56fc 5134 1281 0d35 37fd cb36
00000370: 7973 1939 5b1f 0438 e563 5b36 64e7 5b33
00000380: 5d4f 9638 e29f f136 938b 0f34 099f 8336
00000390: 0ad0 b635 d8f2 6f35 042d 8b35 32a7 9c35
000003a0: cf47 013a ccf3 d339 91c2 003b b17f cf3a
000003b0: 4d36 0837 6593 b136 d9a9 0b37 df67 0d37
000003c0: aa12 2a37 5469 8934 3346 8035 a664 3f37
000003d0: bbec 0539 7b25 aa37 8cab bd36 e588 b333
000003e0: 26a2 de37 a8da d736 8932 3f33 e96f 0e36
000003f0: 34ae 2f36 9bd9 8935 65da b535 3817 ce35

exp_avg f4 [32]
-0.005231252 -0.0018273233 0.0011432774 -0.00032308168 -0.00035811012 -0.0013560331 0.0010410303 -0.0018745475
-0.00041276537 -0.003066707 -0.0005866547 0.0004637294 -0.0028965208 -0.0016682914 0.00037749574 -0.000302563
-0.0015168353 1.2015153e-05 -0.0008955539 0.00016362737 -0.0016893195 0.0025172986 0.0025440524 -2.3520774e-05
0.0011408436 -0.0011832021 -0.0015015466 -0.0011818144 0.0007997885 -0.00069059007 -0.0017766713 -0.0003724925
00000000: ec6a abbb cc82 efba 06da 953a 4a63 a9b9
00000010: bac0 bbb9 ecbc b1ba 2e73 883a 60b3 f5ba
00000020: 6e68 d8b9 cefa 48bb bbc9 19ba b520 f339
00000030: 8ed3 3dbb 92aa daba 9fea c539 52a1 9eb9
00000040: 8cd0 c6ba b094 4937 9bc3 6aba 6393 2b39
00000050: 286c ddba 43f9 243b 1eba 263b 7a4e c5b7
00000060: 5c88 953a ad15 9bba 8bcf c4ba 1ce7 9aba
00000070: e6a8 513a b708 35ba 32df e8ba 194b c3b9

exp_avg_sq f4 [32]
0.00022836705 2.4170387e-05 2.131982e-05 2.3349105e-05 2.0839616e-05 6.45923e-05 5.6840217e-06 3.967641e-05
3.2191685e-05 7.678043e-05 3.34531e-05 2.6520467e-05 5.3296008e-05 3.702162e-05 2.3360533e-05 4.7686233e-05
1.6094162e-05 1.7930199e-05 5.6252862e-05 1.1757509e-05 2.5135345e-05 4.380597e-05 0.00017968846 4.3679147e-06
9.2749e-05 1.8536726e-05 9.724941e-06 1.7536182e-05 1.0723975e-05 6.648196e-05 3.0437006e-05 7.089946e-06
00000000: d075 6f39 83c1 ca37 f7d7 b237 d2dd c337
00000010: bcd0 ae37 ba75 8738 60b9 be36 396a 2638
00000020: 8f05 0738 2e05 a138 fe4f 0c38 4578 de37
00000030: 278a 5f38 a947 1b38 5df6 c337 b402 4838
00000040: f301 8737 cf68 9637 0df1 6b38 1e42 4537
00000050: bed9 d237 4dbc 3738 c16a 3c39 1a90 9236
00000060: 3d82 c238 517f 9b37 4e28 2337 aa1a 9337
00000070: 1feb 3337 3b6c 8b38 f952 ff37 2ce6 ed36
