2026-01-31_00-50-28/model_150.pt (torch, 62651 bytes, 36 tensors)

std f4 [4]
0.08208711 0.092382565 0.16264273 0.15497075
00000000: 491d a83d 1233 bd3d d18b 263e a7b0 1e3e

actor.0.weight f4 [32, 24]
1.3556392 -0.067315325 0.170471 -0.031353857 0.13169782 -0.1337739 2.2800078 -0.33087027
0.16347617 0.16748227 0.4443752 0.010721283 0.06336359 0.41611832 0.05973246 0.0653088
-0.035349157 0.028963797 -0.04279338 0.029786432 0.078189455 0.14800246 -0.02750609 0.02261281
-2.282562 -0.2082993 -0.01369085 -0.105647966 -0.19202562 -0.06971414 -1.1391746 -0.034465984
0.88159484 0.06485506 -0.5877055 -0.0732361 0.029799286 -0.31201583 0.019431736 -0.16807884
-0.012743002 -0.1137433 0.048609175 -0.035425384 0.07719236 -0.07041738 -0.090605006 0.11195971
0.6860204 -0.35997856 0.045740385 0.3392038 -0.11545385 -0.02820264 -0.57909995 -0.9753847
0.09459034 -0.17642279 0.77426153 0.28770456 0.11414909 0.8127967 -0.010018608 0.63404995
0.18991347 0.07610148 -0.06257351 0.06890901 0.052245833 0.34539226 -0.06679621 -0.07103745
1.0432857 -0.17415795 -0.23144108 0.4104369 -0.12665291 0.08509641 0.012327472 -0.9333332
0.1575226 0.52312154 -0.73885304 -0.22200441 -0.03473644 0.57233995 -0.17224914 0.1783435
0.12802823 0.07058095 0.0025931902 -0.052082334 -0.14442831 0.07258712 -0.14768137 -0.0014794187
-0.103258215 0.45178893 0.67140585 -0.32273242 0.2032388 0.18198447 0.6389796 0.9135826
-0.0017003384 -0.50958866 0.81288224 0.39264923 0.47818363 0.53666496 0.61683154 -0.26883933
-0.15756823 0.05561905 -0.00053179107 0.068184026 -0.14557774 0.6880205 0.4780034 0.064832404
-0.77708185 -0.45203778 -0.15193878 0.032374047 0.12232611 -0.25315467 0.5545985 0.23618668
0.06089685 -0.5133692 -0.15910575 0.40556404 0.24817221 -0.7562328 -0.023443101 -0.31599838
-0.134924 -0.1753727 -0.07484721 -0.030741934 0.18964508 -0.2754179 -0.07581143 0.28503668
-0.4686545 -0.010593459 1.6462889 0.19218358 -0.22921069 -0.07537987 -0.4229932 -0.59108126
0.20151442 -0.18235956 0.9103892 0.12781069 0.61580056 -1.0116621 0.166907 0.1126843
0.09457285 -0.014515259 -0.07507036 -0.02106114 0.5091779 -0.5534051 0.09022331 -0.42987037
0.8467647 -0.27173817 0.312791 0.2084804 0.28386196 0.25777847 0.6130835 -0.5585465
0.61915994 0.5895483 -0.21454567 0.0062683644 -0.22587399 0.18859525 -0.0812695 0.40383443
-0.061515138 -0.03581383 -0.021733843 0.0315881 -0.2901758 0.22961435 -0.05371488 0.13201289
0.4713319 0.47328272 -0.22959107 -0.29605907 -0.1992279 -0.08261432 0.23637173 0.98888713
-0.1148527 0.45512074 0.21412371 0.03453697 0.3409898 1.2405037 0.116220966 0.6460634
0.11290075 -0.11047099 -0.0043015215 -0.04367768 0.20165823 0.77398044 -0.04330194 0.15756601
1.2769573 0.45524827 0.49395612 -0.02918465 0.11795571 0.020166555 2.0090487 -0.14703546
0.19449146 0.011928927 -0.6446622 -0.02762777 0.039954793 -0.2837876 0.13301289 -0.20352945
-0.011263681 0.04309948 -0.0014408345 0.028294792 -0.1860769 -0.10405884 0.016804866 0.10633549
0.6650132 0.5579775 0.5742566 0.13786389 -0.041468717 0.08327091 0.6940121 -0.0072793528
0.07782344 -0.58083296 -0.492163 -0.21456605 -0.40480524 -0.4476877 -0.4104527 -0.22868332
00000000: 9685 ad3f 9edc 89bd f38f 2e3e e76c 00bd
00000010: cbdb 063e 06fc 08be a6eb 1140 d467 a9be
00000020: 4c66 273e 7980 2b3e 2585 e33e 52a8 2f3c
00000030: c5c4 813d 760d d53e 06aa 743d 9fc0 853d
00000040: 47ca 10bd 7c45 ed3c 1c48 2fbd ad02 f43c
00000050: cb21 a03d f58d 173e 7454 e1bc 803e b93c
00000060: 7f15 12c0 694c 55be 964f 60bc f65d d8bd
00000070: 5da2 44be 49c6 8ebd 79d0 91bf 342c 0dbd
00000080: 33b0 613f bbd2 843d de73 16bf cffc 95bd
00000090: a21d f43c 8ac0 9fbe 4e2f 9f3c dc1c 2cbe
000000a0: 06c8 50bc 3ff2 e8bd 6a1a 473d 351a 11bd
000000b0: 0717 9e3d fd36 90bd 1e8f b9bd 224b e53d
000000c0: 089f 2f3f 1c4f b8be 455a 3b3d 1fac ad3e
000000d0: 1173 ecbd 3909 e7bc e53f 14bf d0b2 79bf
000000e0: 95b8 c13d 2da8 34be 0136 463f 034e 933e
000000f0: 00c7 e93d 7213 503f 1625 24bc 1951 223f
00000100: ad78 423e 18db 9b3d 8a26 80bd 2b20 8d3d
00000110: baff 553d 41d7 b03e 74cc 88bd 157c 91bd
00000120: 638a 853f 7656 32be e4fe 6cbe c924 d23e
00000130: 4db1 01be 0747 ae3d 2af9 493c edee 6ebf
00000140: 9b4d 213e 4beb 053f 7925 3dbf 2055 63be
00000150: cc47 0ebd df84 123f 1462 30be ae9f 363e
00000160: d519 033e bf8c 903d 83f2 293b 4954 55bd
00000170: 04e5 13be 8ea8 943d c939 17be 0ee9 c1ba
00000180: 0b79 d3bd e150 e73e 41e1 2b3f 2f3d a5be
00000190: d51d 503e 235a 3a3e 2b94 233f 8de0 693f
000001a0: e4dd deba 6774 02bf 0d19 503f 5209 c93e
000001b0: 7cd4 f43e e062 093f ace8 1d3f 4fa5 89be
000001c0: 9159 21be cdd0 633d e567 0bba 11a4 8b3d
000001d0: 5512 15be 1d22 303f ddbc f43e dac6 843d
000001e0: d6ee 46bf 7f71 e7be d795 1bbe a69a 043d
000001f0: 1d86 fa3d 7d9d 81be 2bfa 0d3f ecda 713e
00000200: fa6e 793d 2a6c 03bf 9eec 22be 17a6 cf3e
00000210: db20 7e3e 7998 41bf bf0b c0bc 8aca a1be
00000220: 8429 0abe e794 33be 7e49 99bd 82d6 fbbc
00000230: 5232 423e 9303 8dbe 0643 9bbd 54f0 913e
00000240: 7cf3 efbe 3090 2dbc 98b9 d23f c6cb 443e
00000250: 35b6 6abe c360 9abd 9192 d8be 1a51 17bf
00000260: cc59 4e3e 77bc 3abe 440f 693f cee0 023e
00000270: 1ba5 1d3f 257e 81bf abe9 2a3e 07c7 e63d
00000280: 69af c13d 69d1 6dbc 7dbe 99bd 6988 acbc
00000290: 7c59 023f f5ab 0dbf 00c7 b83d f817 dcbe
000002a0: 92c5 583f 4421 8bbe 2426 a03e e37b 553e
000002b0: 5b56 913e 8afb 833e 0af3 1c3f e7fc 0ebf
000002c0: 4481 1e3f a3ec 163f dcb1 5bbe da66 cd3b
000002d0: 834b 67be 1d1f 413e a070 a6bd 63c3 ce3e
000002e0: 4cf7 7bbd 86b1 12bd 2c0b b2bc 8662 013d
000002f0: ec91 94be 0620 6b3e 2204 5cbd 632e 073e
00000300: 6a52 f13e 1d52 f23e ec19 6bbe 0e95 97be
00000310: 6602 4cbe b231 a9bd 6e0b 723e b527 7d3f
00000320: e437 ebbd 9605 e93e 3f43 5b3e a376 0d3d
00000330: 3796 ae3e d3c8 9e3f 4205 ee3d 6964 253f
00000340: 8238 e73d 9d3e e2bd c7f3 8cbb 5ee7 32bd
00000350: 7f7f 4e3e 9523 463f 605d 31bd fc58 213e
00000360: 5673 a33f 4d16 e93e d1e7 fc3e a614 efbc
00000370: c392 f13d 5534 a53c 4194 0040 7790 16be
00000380: c528 473e 8c71 433c 9508 25bf a253 e2bc
00000390: a3a7 233d 9c4c 91be 8834 083e 066a 50be
000003a0: 4d8b 38bc 1589 303d 62da bcba 7bca e73c
000003b0: f18a 3ebe cd1c d5bd 5caa 893c 6cc6 d93d
000003c0: 4e3e 2a3f 9dd7 0e3f 7b02 133f 312c 0d3e
000003d0: 1adb 29bd f089 aa3d c7aa 313f a387 eebb
000003e0: e561 9f3d 78b1 14bf cafc fbbe 34b7 5bbe
000003f0: a242 cfbe 5237 e5be db26 d2be f62b 6abe

actor.0.bias f4 [32]
0.17802863 -0.48237416 -0.26622653 -0.13603796 -0.07527259 -0.094621345 -0.19973484 -0.038240492
0.17585717 0.19288431 -0.18363193 -0.1577949 -0.219095 -0.112135656 -0.0062024035 -0.11114022
0.1432061 -0.108128734 -0.34218708 -0.1457131 -0.08280915 -0.17774415 -0.16223493 0.023233024
0.068633944 -0.1190195 -0.062734075 -0.17116615 -0.30418518 -0.22930224 -0.19140074 -0.23641281
00000000: 234d 363e bff9 f6be d84e 88be 894d 0bbe
00000010: 8428 9abd d6c8 c1bd 4a87 4cbe 10a2 1cbd
00000020: e713 343e 7783 453e 020a 3cbe fc94 21be
00000030: 715a 60be 61a7 e5bd 883d cbbb 7c9d e3bd
00000040: 9fa4 123e 9972 ddbd 2533 afbe d135 15be
00000050: d897 a9bd 9002 36be ea20 26be 2f53 be3c
00000060: f48f 8c3d 7fc0 f3bd b97a 80bd 2e46 2fbe
00000070: 29be 9bbe 35ce 6abe 8efe 43be 3316 72be

actor.2.weight f4 [32, 32]
0.09272718 -0.043843463 -0.03601128 -0.17851847 -0.08085949 0.11519906 0.168202 0.1315443
-0.07454373 0.107428014 0.12762316 -0.07040383 0.11194443 -0.044933736 -0.04422406 -0.18747367
-0.11355326 -0.2207684 0.1077113 0.071782954 0.20719771 0.07768592 -0.09230012 0.07790039
-0.012240767 0.16267902 0.30078137 0.214629 -0.08622235 0.3707624 -0.16268796 -0.16204454
-0.10854699 -0.0040705563 0.24199831 0.23338792 -0.18706474 -0.045607325 0.05653802 0.1454057
0.17643945 -0.24670449 -0.15459026 0.032445278 0.18276356 -0.095484205 -0.029537747 0.31503844
-0.15151934 -0.18254277 0.029369395 -0.0884771 0.030799387 -0.07303213 -0.20442516 -0.080468304
0.104723595 0.17994961 -0.023142489 0.02508452 -0.017763583 -0.23064154 0.13324624 0.18738097
-0.036080603 0.0139656225 0.2608333 0.1798859 0.18137981 0.15087397 0.10038911 0.033450108
-0.15562215 -0.028826736 0.11850395 0.025423959 0.1543648 -0.14083368 0.017972214 0.18659462
-0.06632481 -0.005927863 0.24011897 -0.070517674 -0.030131599 -0.10913258 0.084882945 -0.10392474
0.012855746 0.15591502 0.114661455 0.0040833913 0.0775685 -0.12850894 0.2048678 -0.030129028
0.17280059 -0.07321511 0.04635936 0.15308924 -0.15219116 -0.0496628 -0.049690593 0.09420774
0.04401201 0.103041016 -0.06351374 -0.17852435 -0.022193516 0.039679527 -0.096742064 -0.032736123
0.079003505 -0.30160776 0.12689118 0.20973931 0.08666585 -0.08099374 -0.15072756 0.2730879
-0.033565834 -0.04109518 -0.13680077 0.19754322 0.005958572 0.3222091 0.14063746 -0.15583369
0.06729081 -0.1308898 -0.1679424 -0.13867258 -0.13287236 0.08577862 -0.08777937 -0.007076728
-0.0024530713 -0.14576855 0.050243597 -0.1353543 0.0018606517 -0.0567539 -0.110544235 -0.10475105
0.0715705 -0.072352596 0.10580918 0.033400245 0.16887376 -0.11099352 0.045246348 -0.063450545
-0.09360466 -0.024208184 -0.102268 -0.15784457 0.08410854 0.18442337 0.16754416 0.04374483
0.09813101 0.21797055 -0.13462238 0.105540864 0.035405967 0.18116227 -0.19088341 0.15350132
-0.08066509 -0.07232062 -0.15571402 -0.3414343 0.052391328 -0.011302477 0.010248708 -0.21268235
-0.17119658 0.14380275 0.12965295 0.132072 0.012867844 0.11811688 0.05927446 -0.2525703
-0.07327447 -0.18959218 -0.10302774 -0.19038698 0.017743332 -0.17005496 -0.1117664 -0.07449959
-0.16317688 -0.14973128 -0.011148748 -0.08599848 0.011252886 0.22376789 0.042538796 -0.15745713
-0.5132388 -0.10627492 0.13115071 0.15670119 0.029802322 0.069553584 0.1073789 -0.010444001
0.09858312 0.049993437 0.03506686 0.20871328 -0.11597267 0.008309237 0.0062080757 0.029642228
0.014711089 0.14271788 0.29724604 0.1245955 0.010918886 -0.12015979 -0.0050287945 0.091244884
-0.053851083 0.19232515 0.069740444 -0.057589117 -0.23360413 0.0005253115 0.24887572 -0.08646024
-0.37856683 0.13341998 -0.19820751 -0.1900916 0.16742867 -0.02516479 -0.09419568 0.04862676
-0.25738814 0.092055194 -0.05656784 0.12668774 -0.07043862 -0.04076606 -0.32700464 -0.07539702
-0.12091946 0.124164976 0.28008133 0.032734733 0.073511735 -0.20855808 0.15832895 0.059127156
00000000: bfe7 bd3d 3495 33bd 9080 13bd 8ccd 36be
00000010: a999 a5bd 7ced eb3d 253d 2c3e 8db3 063e
00000020: 62aa 98bd 3803 dc3d a5af 023e e22f 90bd
00000030: 1f43 e53d 700c 38bd 4a24 35bd 19f9 3fbe
00000040: 9d8e e8bd 1d11 62be be97 dc3d f102 933d
00000050: a32b 543e cc19 9f3d d807 bdbd 3d8a 9f3d
00000060: 7f8d 48bc 5495 263e 0400 9a3e b4c7 5b3e
00000070: 5895 b0bd 92d4 bd3e ac97 26be 01ef 25be
00000080: e24d debd 4d62 85bb 68ce 773e 3efd 6e3e
00000090: e68d 3fbe bfce 3abd 6994 673d 3be5 143e
000000a0: 8bac 343e 1aa0 7cbe e94c 1ebe 57e5 043d
000000b0: 5f26 3b3e 398d c3bd 25f9 f1bc b84c a13e
000000c0: e327 1bbe 7eec 3abe 1698 f03c 7b33 b5bd
000000d0: ff4e fc3c df91 95bd d454 51be 91cc a4bd
000000e0: 5379 d63d b644 383e 5195 bdbc 0d7e cd3c
000000f0: ef84 91bc 4c2d 6cbe b471 083e cce0 3f3e
00000100: 41c9 13bd 11d0 643c f18b 853e 0234 383e
00000110: a1bb 393e b57e 1a3e ce98 cd3d fb02 093d
00000120: 6a5b 1fbe 0c26 ecbc 33b2 f23d e845 d03c
00000130: ce11 1e3e b436 10be 773a 933c a912 3f3e
00000140: 4dd5 87bd 853e c2bb bfe1 753e 926b 90bd
00000150: 8bd6 f6bc e780 dfbd 1cd7 ad3d 7ed6 d4bd
00000160: e8a0 523c 30a8 1f3e a0d3 ea3d f8cd 853b
00000170: 3cdc 9e3d d997 03be ddc8 513e 27d1 f6bc
00000180: a3f2 303e cef1 95bd 50e3 3d3d 6dc3 1c3e
00000190: 00d8 1bbe 386b 4bbd 5d88 4bbd fdef c03d
000001a0: f045 343d 2b07 d33d 7e13 82bd 16cf 36be
000001b0: 2dcf b5bc 0087 223d b420 c6bd 5016 06bd
000001c0: 97cc a13d 556c 9abe c3ef 013e e7c5 563e
000001d0: dd7d b13d 0ce0 a5bd 5358 1abe 2dd2 8b3e
000001e0: 547c 09bd 6b53 28bd 8015 0cbe c548 4a3e
000001f0: 2040 c33b 97f8 a43e 4403 103e de92 1fbe
00000200: c4cf 893d fa07 06be 18f9 2bbe 2f00 0ebe
00000210: b10f 08be b3ac af3d acc5 b3bd e6e3 e7bb
00000220: b5c3 20bb 5a44 15be 3bcc 4d3d 519a 0abe
00000230: 1ce1 f33a c776 68bd 0465 e2bd b887 d6bd
00000240: 8e93 923d 992d 94bd 7cb2 d83d b2ce 083d
00000250: 3eed 2c3e 9250 e3bd 3c54 393d 5cf2 81bd
00000260: cdb3 bfbd 3e50 c6bc e371 d1bd 02a2 21be
00000270: 1941 ac3d 7bd9 3c3e b290 2b3e c72d 333d
00000280: e9f8 c83d ac33 5f3e 73da 09be cf25 d83d
00000290: d905 113d 9a82 393e f176 43be 732f 1d3e
000002a0: bd33 a5bd d51c 94bd 7f73 1fbe 7ad0 aebe
000002b0: 4a98 563d 062e 39bc 32ea 273c 67c9 59be
000002c0: 284e 2fbe 0741 133e bec3 043e e23d 073e
000002d0: a6d3 523c 43e7 f13d c7c9 723d e550 81be
000002e0: ed10 96bd 7424 42be 3500 d3bd cef4 42be
000002f0: 775a 913c e322 2ebe c8e5 e4bd 3e93 98bd
00000300: d717 27be 2853 19be 3da9 36bc f91f b0bd
00000310: 065e 383c 6923 653e 293d 2e3d 713c 21be
00000320: 9e63 03bf aaa6 d9bd 5f4c 063e 4776 203e
00000330: 0024 f43c 1c72 8e3d 78e9 db3d 511d 2bbc
00000340: f2e5 c93d ebc5 4c3d 45a2 0f3d efb8 553e
00000350: 1483 edbd 7723 083c 1d6d cb3b 42d4 f23c
00000360: c806 713c a324 123e a230 983e ed2b ff3d
00000370: 21e5 323c 5616 f6bd 96c8 a4bb 99de ba3d
00000380: f492 5cbd e2f0 443e 14d4 8e3d 91e2 6bbd
00000390: ec35 6fbe 0fb5 093a 47d9 7e3e 1112 b1bd
000003a0: 83d3 c1be 3f9f 083e e9f6 4abe 5fa7 42be
000003b0: 6c72 2b3e 6426 cebc aae9 c0bd da2c 473d
000003c0: 61c8 83be 6f87 bc3d aeb3 67bd 6eba 013e
000003d0: 2042 90bd 50fa 26bd 276d a7be c169 9abd
000003e0: 9fa4 f7bd 354a fe3d d266 8f3e db14 063d
000003f0: 528d 963d 4090 55be fc20 223e 512f 723d

actor.2.bias f4 [32]
-0.1757324 -0.0805144 -0.24142897 -0.090329036 0.004723732 -0.029614326 0.072516404 0.018718516
-0.037534676 -0.17927052 0.07482646 -0.1392258 -0.28848255 -0.10694846 -0.025687506 0.037717834
-0.119130574 -0.05358311 -0.14374593 -0.09790292 -0.2156443 -0.051302377 0.020789273 -0.12818474
0.059577964 -0.23218141 -0.16749363 -0.03203034 -0.04709924 0.07508722 -0.15679936 -0.13111518
00000000: 32f3 33be bce4 a4bd 2839 77be 6efe b8bd
00000010: 89c9 9a3b be99 f2bc 7b83 943d 9357 993c
00000020: f6bd 19bd b192 37be 9d3e 993d 3591 0ebe
00000030: fcb3 93be cb07 dbbd 9b6e d2bc 047e 1a3d
00000040: bbfa f3bd f779 5bbd 2232 13be 5381 c8bd
00000050: dcd1 5cbe 7122 52bd 444e aa3c dc42 03be
00000060: 0608 743d f7c0 6dbe 7383 2bbe 3f32 03bd
00000070: 22eb 40bd 54c7 993d 0390 20be 0f43 06be

actor.4.weight f4 [4, 32]
-0.15294597 -0.1072171 -0.14864077 -0.09489913 -0.01635515 0.101258285 -0.0536454 0.061802886
0.12863766 -0.0005163243 0.06730243 0.016438063 -0.14414993 -0.022432987 -0.16996674 -0.1119022
-0.034300894 -0.11785855 -0.100474045 0.06096987 -0.033648122 0.018784497 0.013430807 0.06958087
-0.15307479 -0.18359897 0.19620816 0.009723231 -0.08275726 0.042609755 0.05233788 0.028182456
-0.069782965 0.07642887 0.064892635 0.06811599 0.011543574 -0.017990468 -0.093204595 -0.14661504
-0.10240482 0.11843423 -0.02343298 -0.015441531 0.1244378 0.0004031151 -0.03134492 -0.073648766
0.011529184 0.1723508 -0.053159975 0.04934231 0.014549827 0.0060883574 -0.06466672 0.019294064
0.14056596 0.23838751 -0.17982931 -0.00084650837 0.004230441 0.012445076 0.1051186 0.009712333
-0.10478035 0.19018121 0.0619489 -0.09942682 -0.07775481 -0.2089191 0.06782149 -0.14143723
0.22537063 0.13044569 -0.034070753 0.23272355 -0.058524482 -0.117441334 0.12996173 -0.3880195
0.14016102 -0.046056382 -0.124835685 -0.057933446 -0.13111526 -0.0023042164 -0.081481986 0.21688223
-0.10206919 -0.31306762 0.15111403 0.007355222 0.06367667 -0.048790183 -0.11745357 -0.19911224
-0.11325199 0.31188777 0.06593406 -0.040328614 0.010001508 -0.016108897 0.040860116 -0.161389
-0.21994391 -0.14918223 0.05052799 0.1051953 0.05133453 0.05942964 -0.18517858 -0.12379813
0.015002792 0.118818566 -0.056040082 0.058369685 0.050077736 -0.06502488 0.07982744 0.089545004
0.19713391 0.2997254 -0.1265933 -0.015917277 -0.084459364 0.20618545 -0.13549945 -0.25127745
00000000: de9d 1cbe a494 dbbd 4935 18be 7a5a c2bd
00000010: 3cfb 85bc 8160 cf3d 47bb 5bbd 0625 7d3d
00000020: 97b9 033e f059 07ba dbd5 893d 1ea9 863c
00000030: 0a9c 13be 62c5 b7bc c30b 2ebe fb2c e5bd
00000040: 187f 0cbd d35f f1bd 56c5 cdbd 8bbb 793d
00000050: 9dd2 09bd f2e1 993c e30c 5c3c 6a80 8e3d
00000060: a3bf 1cbe 5e01 3cbe cbea 483e 304e 1f3c
00000070: a37c a9bd 9187 2e3d 3f60 563d e5de e63c
00000080: 5fea 8ebd bd86 9c3d 6ee6 843d 6580 8b3d
00000090: 4221 3d3c bf60 93bc 0de2 bebd 4122 16be
000000a0: 9eb9 d1bd a58d f23d 85f6 bfbc 7afe 7cbc
000000b0: 3fd9 fe3d 3159 d339 8863 00bd 2ad5 96bd
000000c0: e7e4 3c3c ba7c 303e 46be 59bd 291b 4a3d
000000d0: 6662 6e3c d880 c73b fc6f 84bd 960e 9e3c
000000e0: 86f0 0f3e db1b 743e 2d25 38be 37e8 5dba
000000f0: 839f 8a3b 6fe6 4b3c 6c48 d73d 7a20 1f3c
00000100: 1597 d6bd ddbe 423e 21be 7d3d 4aa0 cbbd
00000110: ea3d 9fbd e3ee 55be fee5 8a3d ecd4 10be
00000120: 8fc7 663e 8e93 053e c68d 0bbd 154f 6e3e
00000130: 5eb7 6fbd 1585 f0bd b014 053e 7eaa c6be
00000140: 5f86 0f3e 9ea5 3cbd daa9 ffbd 9f4b 6dbd
00000150: 1443 06be 5602 17bb 07e0 a6bd 6016 5e3e
00000160: a709 d1bd 664a a0be a3bd 1a3e 1304 f13b
00000170: ea68 823d 37d8 47bd 7f8b f0bd 14e4 4bbe
00000180: a9f0 e7bd c1af 9f3e 7008 873d 9e2f 25bd
00000190: 5ddd 233c cef6 83bc f05c 273d 2843 25be
000001a0: fa38 61be 3ac3 18be 70f6 4e3d a270 d73d
000001b0: 2844 523d 7f6c 733d 749f 3dbe e089 fdbd
000001c0: 45ce 753c 2657 f33d 498a 65bd 0d15 6f3d
000001d0: 501e 4d3d c42b 85bd 927c a33d 5f63 b73d
000001e0: 79dd 493e 9c75 993e ada1 01be f364 82bc
000001f0: 08f9 acbd 4722 533e 5ec0 0abe 70a7 80be

actor.4.bias f4 [4]
-0.007915137 -0.0557466 -0.0935391 -0.013652646
00000000: 7eae 01bc 8c56 64bd 6d91 bfbd 59af 5fbc

critic.0.weight f4 [32, 24]
-0.53264654 0.0014635922 -0.09429994 -0.084874816 0.025989465 0.0053888927 -0.3858806 0.37999377
-0.14266095 -0.0695754 0.83397156 -0.18673615 -0.047212344 -0.091887385 0.28311074 -0.18552014
0.068363816 -0.072092 -0.030384012 -0.01816087 -0.13534072 0.16095875 0.17707458 -0.04311522
0.30948615 -0.31990373 -0.31695792 0.18360998 0.13355224 -0.007827749 -0.011181688 0.12362685
-0.41518563 0.34099093 0.30336478 0.04771505 0.1948364 -0.0676535 0.2944648 -0.15077607
0.0011450056 0.03129032 -0.023233503 0.023451203 -0.019670134 -0.14900948 0.393672 -0.31189537
0.7156387 -0.061031472 0.5650122 0.019903596 0.014089345 0.00091218564 2.8029647 -0.5860177
0.35030273 1.2031051 -0.17068924 -0.13507326 -0.26978597 0.44077075 -0.25282055 0.30607975
-0.0019416643 -0.007522562 -0.0016430223 -0.00019595526 -0.21598847 0.36745036 -0.12807341 0.11067034
0.1815428 0.24105632 -0.23495033 -0.008509992 0.016900325 -0.0647127 0.25039092 -0.0032487053
-0.14162391 -0.05239992 -0.13228329 -0.31967077 0.08883579 -0.16930677 0.31066746 0.023051333
0.05203439 0.063865595 -0.016180547 0.025535356 0.0602841 -0.14314738 0.11754145 -0.06282642
-0.24080217 -0.01902638 -0.6839462 -0.086474866 0.09925201 -0.13950941 -0.20167574 0.093790166
0.080643624 0.27563116 -0.11570378 0.017451756 -0.103267565 0.066885576 -0.040709417 -0.20065399
-0.05876773 -0.1228935 -0.060408454 0.023472864 -0.036812793 -0.120420694 -0.060553912 -0.2164234
-0.4291018 -0.34902155 -0.34927478 0.18029281 -0.098986246 -0.065079175 -0.7140524 -0.18577425
0.19672607 0.033634145 1.136188 -0.0037857168 -0.12817352 -0.03360698 -0.1474252 0.3218599
0.06624066 -0.012722288 -0.04242164 -0.036992427 0.0436057 -0.1561678 0.23547252 0.092055395
0.13438785 0.052190073 -0.251306 0.00019532553 0.07893271 0.07322681 0.14512832 -0.040902838
-0.20688622 0.20733237 -0.892572 -0.044065457 -0.3365631 0.17631346 -0.39456445 -0.018055242
0.026507238 0.045979995 -0.005437905 0.012746722 -0.23428147 0.17709075 -0.21747926 0.26457578
0.18827912 0.13058542 0.262843 -0.092427395 0.12290285 0.06703748 -0.19400194 -0.00450832
-0.2276549 -0.13413447 -0.028726129 -0.20089218 -0.010155811 0.0015832052 0.03330642 0.2994321
-0.09270352 -0.0429203 -0.006445432 0.022543758 0.20401283 0.033078574 -0.06990254 -0.09423189
0.0940317 -0.033238135 -0.5232353 0.023232259 0.051148865 0.0041266005 -0.6575496 0.13776775
-0.13021696 -0.2325641 -0.21601778 -0.08352611 0.018601405 0.16481857 -0.042084355 0.3723463
-0.079235926 0.002389197 0.016612494 -0.016585778 0.12524602 0.027789477 -0.31032947 0.09768724
0.16808777 0.058491703 0.06734599 -0.15141264 0.099229515 0.09737361 -0.040620346 0.16208738
-0.026336454 -0.08537849 0.12819676 -0.08755427 0.23582654 0.1570231 0.19008778 0.081368975
-0.045425743 0.09785555 -0.04782986 -0.11969218 0.043966215 0.049362827 0.090827875 0.07781773
-0.8721205 0.0862922 -0.4674657 -0.023881698 -0.01676045 -0.0004219209 -1.7274417 0.4049646
-0.10110828 1.4482293 -0.17435196 -0.04205737 0.11875063 -0.2671603 0.12969883 -0.12225299
00000000: 865b 08bf 01d6 bf3a 5420 c1bd d9d2 adbd
00000010: dce7 d43c 4f95 b03b 2492 c5be 8b8e c23e
00000020: b615 12be 8c7d 8ebd 297f 553f c337 3fbe
00000030: bb61 41bd 742f bcbd e4f3 903e fef8 3dbe
00000040: 5402 8c3d f8a4 93bd e4e7 f8bc 1bc6 94bc
00000050: c296 0abe 5fd2 243e 0a53 353e 9699 30bd
00000060: f874 9e3e 6cca a3be 4f48 a2be 4104 3c3e
00000070: ebc1 083e f53f 00bc 6633 37bc 1330 fd3d
00000080: 3693 d4be 5d96 ae3e a152 9b3e db70 433d
00000090: 3183 473e eb8d 8abd 17c4 963e 0b65 1abe
000000a0: 0314 963a 472a 003d 3054 bebc bd1c c03c
000000b0: 4323 a1bc f195 18be 608f c93e c0b0 9fbe
000000c0: 1934 373f 23fc 79bd a4a4 103f de0c a33c
000000d0: ffd6 663c be1f 6f3a c663 3340 4205 16bf
000000e0: e15a b33e 59ff 993f 29c9 2ebe a550 0abe
000000f0: 6321 8abe b4ac e13e b271 81be 7cb6 9c3e
00000100: 717f feba d37f f6bb ae5a d7ba 5779 4db9
00000110: 152c 5dbe 7422 bc3e ad25 03be 22a7 e23d
00000120: 5be6 393e 78d7 763e d296 70be 7e6d 0bbc
00000130: 8d72 8a3c 1888 84bd 3d33 803e 3be8 54bb
00000140: dc05 11be 4ca1 56bd 4575 07be e3ab a3be
00000150: 8aef b53d c15e 2dbe ce0f 9f3e 26d6 bc3c
00000160: 0322 553d f7cb 823d 118d 84bc 862f d13c
00000170: 76ec 763d 3a95 12be 92b9 f03d 23ab 80bd
00000180: d894 76be 36dd 9bbc 1917 2fbf bc19 b1bd
00000190: a344 cb3d 8edb 0ebe 1684 4ebe 0f15 c03d
000001a0: 7c28 a53d 871f 8d3e 1af6 ecbd fcf6 8e3c
000001b0: f27d d3bd 4efb 883d ebbe 26bd 3d78 4dbe
000001c0: 6eb6 70bd 96af fbbd db6e 77bd 2a4a c03c
000001d0: 03c9 16bd 209f f6bd 6107 78bd 199e 5dbe
000001e0: 3bb3 dbbe f4b2 b2be 25d4 b2be ae9e 383e
000001f0: 4db9 cabd 3b48 85bd 23cc 36bf 9b3b 3ebe
00000200: 8f72 493e f5c3 093d 9c6e 913f ca19 78bb
00000210: eb3f 03be 79a7 09bd a2f6 16be d2ca a43e
00000220: 2fa9 873d 2571 50bc 50c2 2dbd 5f85 17bd
00000230: e49b 323d 74ea 1fbe b51f 713e 8a87 bc3d
00000240: f89c 093e 42c5 553d 2eab 80be 4cd0 4c39
00000250: 79a7 a13d f0f7 953d 859c 143e bc89 27bd
00000260: fbd9 53be f04e 543e 997f 64bf fb7d 34bd
00000270: 0052 acbe 848b 343e 5a04 cabe 96e8 93bc
00000280: b525 d93c 8555 3c3d 7430 b2bb a1d7 503c
00000290: 7be7 6fbe 4757 353e e2b2 5ebe 7a76 873e
000002a0: 3ecc 403e 2fb8 053e 5c93 863e 934a bdbd
000002b0: 7db4 fb3d f24a 893d 72a8 46be 87ba 93bb
000002c0: 5e1e 69be 8c5a 09be 0f53 ebbc aeb6 4dbe
000002d0: 8f64 26bc 8d83 cf3a 506c 083d 2a4f 993e
000002e0: 58db bdbd 32cd 2fbd 3434 d3bb b0ad b83c
000002f0: bde8 503e 667d 073d 1029 8fbd a6fc c0bd
00000300: b193 c03d b624 08bd c0f2 05bf 9451 be3c
00000310: 7981 513d 6f38 873b 2c55 28bf fd12 0d3e
00000320: 9857 05be 4925 6ebe c433 5dbe bd0f abbd
00000330: f961 983c 33c6 283e a560 2cbd 2da4 be3e
00000340: 7246 a2bd 1394 1c3b ed16 883c e6de 87bc
00000350: 7e40 003e c2a6 e33c 81e3 9ebe 3f10 c83d
00000360: 331f 2c3e ff94 6f3d b2ec 893d ea0b 1bbe
00000370: d838 cb3d d16b c73d 8561 26bd 3cfa 253e
00000380: 8cbf d7bc ebda aebd 0346 033e a74f b3bd
00000390: 837c 713e aaca 203e 5fa6 423e c7a4 a63d
000003a0: 5810 3abd 7e68 c83d 3ee9 43bd 2c21 f5bd
000003b0: eb15 343d ad30 4a3d f703 ba3d e75e 9f3d
000003c0: 4a43 5fbf f7b9 b03d aa57 efbe 8da3 c3bc
000003d0: 364d 89bc 4435 ddb9 cf1c ddbf 8557 cf3e
000003e0: dc11 cfbd 945f b93f 5289 32be 5944 2cbd
000003f0: 8833 f33d 3cc9 88be c5cf 043e c75f fabd

critic.0.bias f4 [32]
0.12177738 -0.2784851 -0.49327925 0.2017758 0.006196995 0.25594258 -0.09079349 0.048807446
0.034083325 -0.024985136 -0.6427585 -0.51401967 0.21972036 0.07675196 -0.06933272 0.15708058
-0.23302527 -0.08138469 0.46141118 0.20316465 -0.6766863 -0.18603498 -0.41942558 0.034681268
-0.07201315 -0.4697092 0.18966562 0.07628295 -0.032695953 0.13171156 0.008850551 -0.12953569
00000000: 6b66 f93d 9995 8ebe 198f fcbe 519e 4e3e
00000010: 2910 cb3b e80a 833e f0f1 b9bd 51ea 473d
00000020: f59a 0b3d a1ad ccbc d28b 24bf cb96 03bf
00000030: 60fe 603e 2230 9d3d 50fe 8dbd bbd9 203e
00000040: 2d9e 6ebe 04ad a6bd 163e ec3e 650a 503e
00000050: 503b 2dbf f47f 3ebe f3be d6be f20d 0e3d
00000060: a17b 93bd b97d f0be b437 423e 3c3a 9c3d
00000070: 31ec 05bd 65df 063e e701 113c 01a5 04be

critic.2.weight f4 [32, 32]
0.12484864 -0.12321685 -0.028618868 -0.0141725 -0.004262704 0.14067538 0.12037634 -0.046595562
-0.1630013 -0.13884239 -0.19242063 -0.029125635 0.05945762 -0.1810973 0.16826746 -0.06629621
0.14557867 0.12165668 0.13903032 -0.03995418 -0.030583307 0.07304894 -0.15017179 0.009216117
0.123234145 -0.060295913 -0.14123884 0.008240975 -0.0031571947 0.07131149 0.021673786 0.0040226257
-0.031348757 -0.02196881 0.14214517 -0.0071101743 -0.020692684 0.019655444 -0.041284736 -0.16028145
0.109833226 -0.016257139 0.052602027 0.15295163 0.070927784 -0.11803953 -0.06930187 -0.0515378
-0.086889826 0.07299789 0.008444781 -0.0077117127 0.037085067 -0.110304646 0.13405566 0.05386429
0.16075493 0.054392815 -0.024124416 0.016374946 0.19051166 -0.06811371 0.058267903 -0.186142
0.04169489 -0.10416942 0.0040291077 0.017626276 -0.005360409 0.0048394115 -0.00341709 -0.025701938
0.09126556 0.10049571 -0.112161994 0.016353741 0.050659552 0.02946799 0.041627012 -0.00081088213
-0.16747244 -0.038463995 -0.092464395 0.13175792 -0.12320076 0.04795684 0.033948045 0.06629121
0.0041700117 -0.046102732 -0.06467257 0.12471784 0.027193509 0.1147796 0.025682021 0.13708863
0.03995804 -0.063111454 -0.20544985 -0.026494864 0.110399455 0.0013388561 0.2979017 0.052407116
-0.1797578 -0.11310937 -0.9478547 -0.31687778 0.0039427266 -0.062256802 0.10610364 -0.22933263
-0.08902033 -0.1548536 0.11884912 -0.15161143 -1.2384304 0.072748564 -0.19506022 0.06522757
-0.22760707 0.100088865 0.46996686 0.025665032 0.059289414 0.052319214 0.05676215 -0.116986796
-0.04532348 -0.09764162 -0.05685553 -0.025538879 0.050170165 -0.09445888 -0.10491949 -0.03283369
0.1507191 -0.08967783 -0.11403304 0.103786364 -0.014854481 -0.036857754 -0.17023802 -0.07395027
0.083530016 0.075667426 -0.105684 -0.05893822 0.062766865 0.16571763 -0.050360844 -0.2021824
0.1471999 -0.13907437 -0.092779785 -0.124867916 0.054319516 0.09811483 0.17657684 0.025714077
-0.13324913 0.09638029 0.0845807 0.025088461 0.037154168 -0.08097403 -0.012261027 0.13052224
0.01565999 -0.1440386 0.10489559 0.10063905 0.13240874 0.08166041 0.14331108 0.11035183
0.051908087 -0.09870962 -0.017480755 0.06427241 -0.16795844 -0.12609386 -0.115915135 -0.120636545
0.07016448 0.09039505 -0.12151888 -0.11142694 0.093683265 -0.07717768 -0.033149093 -0.046342064
0.1494405 -0.16590719 0.052562036 -0.05482653 -0.12747023 0.0437268 0.061269104 0.16939116
-0.08404185 -0.01302097 -0.1716202 -0.08673907 -0.017787758 0.104933515 -0.055685878 0.18374409
0.009758178 -0.09007299 0.021495335 0.14685299 0.061791185 -0.06785 -0.098692045 0.14096107
0.15840234 0.1285464 -0.1066243 -0.1344167 -0.16307613 0.06341391 0.16318576 -0.07059441
-0.20347033 -0.15063396 -0.032353155 0.08774444 -0.032753583 0.0317258 -0.10339137 -0.121553786
-0.09765968 0.09174272 -0.14553526 -0.11578489 -0.03610309 0.053872563 -0.09402974 -0.067245685
0.0032191218 0.005245276 0.087245606 -0.15699305 -0.22853513 -0.104194544 0.14188743 -0.11340685
-0.110465184 -0.11092774 0.07742641 -0.09021158 -0.09927697 0.013842275 -0.07637156 0.12980099
00000000: a5b0 ff3d 1e59 fcbd 1e72 eabc c633 68bc
00000010: 27ae 8bbb 350d 103e df87 f63d fdda 3ebd
00000020: d0e9 26be b32c 0ebe ea09 45be e298 eebc
00000030: d589 733d 9271 39be 4e4e 2c3e 4fc6 87bd
00000040: 9312 153e 2327 f93d f75d 0e3e ffa6 23bd
00000050: d889 fabc af9a 953d a2c6 19be 32ff 163c
00000060: 2f62 fc3d d9f8 76bd eaa0 10be 2805 073c
00000070: f0e8 4ebb c20b 923d 398d b13c 3bd0 833b
00000080: 8e67 00bd eff7 b3bc 818e 113e 77fc e8bb
00000090: b483 a9bc 7404 a13c 2f1a 29bd d220 24be
000000a0: 3ef0 e03d b12d 85bc 3975 573d 5a9f 1c3e
000000b0: 9642 913d b6be f1bd 24ee 8dbd 4d19 53bd
000000c0: 4bf3 b1bd eb7f 953d fb5b 0a3c 89b2 fcbb
000000d0: 83e6 173d 67e7 e1bd e345 093e cda0 5c3d
000000e0: f19c 243e 00cb 5e3d 91a0 c5bc c024 863c
000000f0: 7d15 433e 337f 8bbd 53aa 6e3d 029c 3ebe
00000100: 43c8 2a3d c756 d5bd 9b06 843b fb64 903c
00000110: 5fa6 afbb ed93 9e3b 42f1 5fbb df8c d2bc
00000120: 70e9 ba3d b2d0 cd3d 30b5 e5bd 48f8 853c
00000130: 6480 4f3d db66 f13c 1681 2a3d 6191 54ba
00000140: e57d 2bbe 6c8c 1dbd f95d bdbd 8ceb 063e
00000150: ae50 fcbd 646e 443d 1b0d 0b3d b0c3 873d
00000160: 98a4 883b 38d6 3cbd 0d73 84bd 116c ff3d
00000170: ecc4 de3c 9111 eb3d 1a63 d23c f660 0c3e
00000180: 0bab 233d 9440 81bd 7261 52be c20b d9bc
00000190: 1c19 e23d 8e7c af3a 9286 983e d8a8 563d
000001a0: 6e12 38be e3a5 e7bd 9ba6 72bf ce3d a2be
000001b0: fd31 813b fd00 7fbd dd4c d93d 2cd6 6abe
000001c0: 4a50 b6bd f191 1ebe 2b67 f33d 0740 1bbe
000001d0: e384 9ebf 33fd 943d debd 47be 0896 853d
000001e0: d411 69be 64fb cc3d 7f9f f03e 793f d23c
000001f0: 75d9 723d ac4c 563d 6e7f 683d c696 efbd
00000200: 1da5 39bd 54f8 c7bd 58e1 68bd e936 d1bc
00000210: 3b7f 4d3d a873 c1bd 08e0 d6bd 9f7c 06bd
00000220: 1c56 1a3e 03a9 b7bd 288a e9bd f28d d43d
00000230: 3660 73bc 28f8 16bd e052 2ebe 3d73 97bd
00000240: c911 ab3d 86f7 9a3d da70 d8bd 3469 71bd
00000250: ea8b 803d e2b1 293e 2c47 4ebd e708 4fbe
00000260: 92bb 163e 8369 0ebe 5403 bebd c0ba ffbd
00000270: 247e 5e3d 6ef0 c83d 8fd0 343e 54a6 d23c
00000280: 7672 08be 0863 c53d a538 ad3d 5186 cd3c
00000290: f82e 183d b6d5 a5bd 79e2 48bc 9fa7 053e
000002a0: 6149 803c db7e 13be 80d3 d63d d91b ce3d
000002b0: 2896 073e 933d a73d 24c0 123e 2400 e23d
000002c0: 939d 543d 4528 cabd cd33 8fbc 41a1 833d
000002d0: 4cfd 2bbe c01e 01be ea64 edbd 4b10 f7bd
000002e0: 65b2 8f3d 0a21 b93d e4de f8bd cf33 e4bd
000002f0: 03dd bf3d 550f 9ebd 58c7 07bd 2dd1 3dbd
00000300: ee06 193e 93e3 29be 4a4b 573d c991 60bd
00000310: 8e87 02be df1a 333d 50f5 7a3d e074 2d3e
00000320: 221e acbd e855 55bc 35bd 2fbe 41a4 b1bd
00000330: a2b7 91bc 62e7 d63d e016 64bd 6927 3c3e
00000340: c4e0 1f3c 3078 b8bd fc16 b03c a160 163e
00000350: c118 7d3d f1f4 8abd 0e1f cabd 1958 103e
00000360: 3934 223e aba1 033e d75d dabd 88a4 09be
00000370: 6efd 26be 27df 813d 2b1a 273e cd93 90bd
00000380: 875a 50be ca3f 1abe be84 04bd 5bb3 b33d
00000390: 9f28 06bd eaf2 013d dbbe d3bd 31f1 f8bd
000003a0: cc01 c8bd 9be3 bb3d 3207 15be a120 edbd
000003b0: d5e0 13bd 7aa9 5c3d aa92 c0bd 1bb8 89bd
000003c0: e7f7 523b 90e0 ab3b d3ad b23d c9c2 20be
000003d0: 1d05 6abe f363 d5bd f04a 113e da41 e8bd
000003e0: 923b e2bd 152e e3bd bd91 9e3d d9c0 b8bd
000003f0: b951 cbbd b6ca 623c b168 9cbd 8dea 043e

critic.2.bias f4 [32]
-0.15574959 -0.0076637035 -0.06934104 0.22316776 -0.09337871 -0.14386515 -0.13940562 0.06521863
-0.068869784 -0.17243342 0.03207559 0.38279536 0.03755956 -0.051795747 -0.022108614 0.067173265
0.20860882 0.050471593 -0.08807238 -0.11500877 0.09944885 0.11691765 0.13125199 0.17160793
-0.004933427 -0.022044083 -0.043511502 -0.022907682 0.03995334 -0.086720884 0.049704228 0.46999243
00000000: d27c 1fbe ce1f fbbb ad02 8ebd 1786 643e
00000010: 563d bfbd 6351 13be 59c0 0ebe 5891 853d
00000020: 9a0b 8dbd 6392 30be b261 033d c1fd c33e
00000030: 0ed8 193d c727 54bd 201d b5bc 2392 893d
00000040: 8d9d 553e 4dbb 4e3d 4b5f b4bd b889 ebbd
00000050: d7ab cb3d 8572 ef3d ec66 063e fdb9 2f3e
00000060: 96a8 a1bb cb95 b4bc 1e39 32bd e4a8 bbbc
00000070: 1da6 233d b89a b1bd a996 4b3d d9a2 f03e

critic.4.weight f4 [1, 32]
-0.011528788 -0.020633314 0.056082122 0.33562103 -0.030800246 -0.011162989 -0.05557028 0.10947848
0.028102277 0.00044534248 0.052321054 0.055931177 0.055421624 -0.01614323 0.054791998 0.002194291
-0.0715925 -0.08606086 0.15862636 -0.0813546 -0.012669356 0.07817715 -0.007489333 0.035545472
0.00029014703 0.0380214 0.055047087 -0.01306715 -0.096280485 0.10052009 -0.036328785 0.36313787
00000000: 3ee3 3cbc 3207 a9bc 5eb6 653d 85d6 ab3e
00000010: cc50 fcbc f8e4 36bc a99d 63bd 4136 e03d
00000020: bf36 e63c db7c e939 9a4e 563d 1718 653d
00000030: c901 633d cf3e 84bc 936d 603d 18ce 0f3b
00000040: 179f 92bd ad40 b0bd f36e 223e 3e9d a6bd
00000050: 2193 4fbc 571b a03d 1469 f5bb 2198 113d
00000060: e01e 9839 54bc 1b3d 0e79 613d 9917 56bc
00000070: b42e c5bd 7add cd3d 7ecd 14bd 35ed b93e

exp_avg f4 [4]
0.024996541 -0.040305723 0.004991731 -0.002053218
00000000: 8cc5 cc3c 9d17 25bd ad91 a33b 488f 06bb

exp_avg_sq f4 [4]
0.008357241 0.008135766 0.0019365276 0.0017547155
00000000: cfec 083c e04b 053c 15d3 fd3a 7bfe e53a

exp_avg f4 [32, 24]
-0.00035040875 -0.00042720276 -0.00032783998 -0.0030450355 -0.011563848 0.006805787 0.0007074993 0.00037469092
-0.00639871 0.00018307632 0.00029663622 -0.0052929916 -0.0015007805 -0.00021957776 -0.0015659152 -0.00068148173
-0.023308199 0.005314032 0.0043234304 -0.01072108 -0.0034955544 6.0532842e-05 -0.0033984405 -0.002509463
0.00032450547 0.0001471295 -0.00031975342 -0.0009456054 -0.0023103256 0.0020656686 -0.00036216213 -9.282462e-06
-0.0006828917 -0.00037416496 0.0001131057 -0.00032342572 -0.0005393097 0.0004924094 -0.0008288282 0.0004203965
0.00035751212 0.002302488 0.0022490644 0.0027194396 -0.0010701523 0.0010860056 -0.0013379579 0.0007293712
-5.0044302e-05 -0.00021125999 -0.00027019647 -0.00012570414 -0.0013287372 -0.000112804366 0.0003315457 -2.8272449e-05
0.00011969857 0.00036140968 -9.950809e-05 0.0002593636 0.00024877055 -0.000125083 0.00025228848 -0.0003307706
2.3969464e-05 0.00042961357 -0.0021693506 0.004210064 0.0004070797 -0.00022453377 -0.0002435158 -0.00047570557
-0.00030846582 -0.00014016352 -6.377475e-05 -0.00013641873 -0.003325476 -0.0006599093 0.00018355764 8.956559e-05
-0.0003769832 0.00028051034 -0.000149671 0.00014646955 -0.00020074993 -8.9123e-05 8.297154e-05 -0.00048501237
-0.0042600464 0.0012889149 5.2641786e-05 0.0035100265 -0.0004172907 -2.4791396e-05 -0.00013047869 -0.0003973401
8.653997e-06 3.4520253e-05 -0.00022346129 -0.0006062069 -0.0022585457 0.0005585455 -0.00025103625 5.4974524e-05
-0.0014873699 -0.00027057415 -0.00011045641 -0.0023932806 -0.0003867426 0.00011753754 -0.00042611037 0.0005769643
-0.0038124053 -0.0013539428 0.008460902 0.0070825466 -0.0006983384 0.00033012812 -0.00011394064 0.0010868402
0.0001445187 0.00015142614 -1.2383971e-06 -0.00020173851 -0.0016639658 0.0001923564 -3.7920818e-05 2.9024375e-05
-0.00062358635 0.0002162508 9.689442e-05 -0.0003269539 -0.00021168987 -0.00013735933 -0.00016385416 -1.9722484e-05
-0.0057775322 1.46424345e-05 0.000602714 0.0002656906 -0.0005756158 -0.00015052146 0.0001785474 -9.512405e-05
-1.7229298e-05 0.00012716057 0.00015769793 -0.00066520023 0.002203747 -0.00033857743 0.00018449515 -5.4120366e-05
-1.5829557e-05 -0.00027800992 0.000310129 0.0002907253 8.1832026e-05 -0.00016522426 -2.7527723e-05 -9.43829e-05
0.003970265 0.0006810947 0.0022623853 -0.00914409 0.00014992456 -0.00030558347 0.00028919987 -0.0005290503
0.00011971474 7.194923e-05 -0.00038904703 0.0003177759 -0.0017023293 -0.0004274333 -0.00037821967 1.3100552e-05
0.00042169492 -0.00030877188 0.00013547804 -0.0006429425 -0.00018033334 6.253661e-05 -0.00014681368 2.7669195e-05
0.0011864109 -0.0013118793 0.0017785644 0.007753051 -0.00038807225 0.00021229571 3.40226e-05 0.000579742
-0.00025549557 -0.00012286894 -0.00029131654 -0.00043884644 0.002910131 -0.0030196256 -2.5177907e-05 0.00014002525
0.0018693088 0.00019385637 -5.25428e-05 -0.0007049371 -0.00044331158 7.6596814e-05 -6.645861e-05 0.00018654592
0.003916075 -0.00537527 0.008998398 0.025858147 -0.0005253082 0.0001736107 0.00053630804 0.0018491386
-0.00012374792 -9.394833e-05 0.00047682825 -0.0028091888 -0.0065642754 0.0046357843 0.00057194196 0.00012618573
-0.0042061233 -0.00013095124 2.417388e-06 -0.002119009 -0.0006763599 -0.00018495324 -0.001107423 -0.00054735324
-0.0130705815 0.010061389 -0.0006141144 -0.026645374 -0.0016416162 -0.0001274783 -0.0029786937 -0.0025006323
-0.000100080775 -9.530272e-05 0.00010789972 1.01072055e-05 -0.001059621 -6.2058134e-05 0.0003415625 2.9305504e-05
0.0007261102 9.643109e-05 -0.00015400682 0.0006633399 0.00027629902 -5.0030303e-05 0.00035666832 -0.00036443333
00000000: 11b7 b7b9 2ffa dfb9 f0e1 abb9 388f 47bb
00000010: 4b76 3dbc 1403 df3b 7977 393a 2a72 c439
00000020: 45ac d1bb 2df8 3f39 d785 9b39 d570 adbb
00000030: d6b5 c4ba 753e 66b9 653f cdba 77a5 32ba
00000040: d6f0 bebc 5521 ae3b 90ab 8d3b 78a7 2fbc
00000050: ac15 65bb a5e4 7d38 5fb8 5ebb ce75 24bb
00000060: 6322 aa39 c646 1a39 94a4 a7b9 81e2 77ba
00000070: d568 17bb 2b60 073b 94e0 bdb9 dfbb 1bb7
00000080: 1604 33ba 922b c4b9 2933 ed38 7791 a9b9
00000090: 7660 0dba 0915 013a b845 59ba aa68 dc39
000000a0: 7770 bb39 57e5 163b 0a65 133b a038 323b
000000b0: 5a44 8cba 4d58 8e3a 6b5e afba 4633 3f3a
000000c0: a9e6 51b8 ac85 5db9 28a9 8db9 73cf 03b9
000000d0: 0629 aeba 6291 ecb8 50d3 ad39 9f2a edb7
000000e0: ae06 fb38 967b bd39 00af d0b8 31fb 8739
000000f0: 6b6d 8239 b628 03b9 9645 8439 476b adb9
00000100: 0812 c937 c23d e139 aa2b 0ebb 94f4 893b
00000110: 506d d539 d370 6bb9 4658 7fb9 1f68 f9b9
00000120: 95b9 a1b9 dcf8 12b9 cfbe 85b8 a00b 0fb9
00000130: 3bf0 59bb c3fd 2cba 6179 4039 29d5 bb38
00000140: d4a5 c5b9 7611 9339 01f1 1cb9 9f95 1939
00000150: 6680 52b9 8ce7 bab8 0201 ae38 4249 feb9
00000160: dc97 8bbb cff0 a83a b0cb 5c38 7908 663b
00000170: cfc7 dab9 1ef7 cfb7 1bd1 08b9 1652 d0b9
00000180: a230 1137 d7c9 1038 ef50 6ab9 dbe9 1eba
00000190: 1c04 14bb 5b6b 123a 849d 83b9 7294 6638
000001a0: daf3 c2ba d9db 8db9 d5a4 e7b8 96d8 1cbb
000001b0: b7c3 cab9 7c7e f638 9167 dfb9 6b3f 173a
000001c0: 8cd9 79bb c876 b1ba 989f 0a3c b514 e83b
000001d0: b210 37ba 0c15 ad39 6af3 eeb8 4e74 8e3a
000001e0: f189 1739 25c8 1e39 0037 a6b5 c589 53b9
000001f0: 6d19 daba 47b3 4939 2b0d 1fb8 5f79 f337
00000200: 2c78 23ba 62c1 6239 cc33 cb38 026b abb9
00000210: 11f9 5db9 1d08 10b9 44d0 2bb9 b671 a5b7
00000220: 7451 bdbb c7a8 7537 74ff 1d3a 644c 8b39
00000230: ece4 16ba 4cd5 1db9 7438 3b39 567d c7b8
00000240: a387 90b7 6856 0539 b75b 2539 d560 2eba
00000250: bd6c 103b 1883 b1b9 0a75 4139 4dff 62b8
00000260: b7c9 84b7 dcc1 91b9 cf98 a239 7d6c 9839
00000270: 3c9d ab38 0d40 2db9 56eb e6b7 6fef c5b8
00000280: ff18 823b 7e8b 323a 8744 143b 18d1 15bc
00000290: 1135 1d39 b836 a0b9 c09f 9739 f7af 0aba
000002a0: 5d0f fb38 73e3 9638 02f9 cbb9 299b a639
000002b0: b120 dfba 2019 e0b9 c94b c6b9 71ca 5b37
000002c0: ef16 dd39 a9e2 a1b9 1c0f 0e39 248b 28ba
000002d0: dd17 3db9 1626 8338 fff1 19b9 251b e837
000002e0: 5881 9b3a 5df3 abba b81e e93a 4e0d fe3b
000002f0: 2d76 cbb9 b29b 5e39 7db3 0e38 d4f9 173a
00000300: 09f4 85b9 61d6 00b9 d8bb 98b9 f914 e6b9
00000310: e5b7 3e3b e9e4 45bb 2535 d3b7 bed3 1239
00000320: 9803 f53a ec45 4b39 6761 5cb8 87cb 38ba
00000330: 466c e8b9 9aa2 a038 b25f 8bb8 8a9b 4339
00000340: 6b52 803b 0823 b0bb 046e 133c 77d4 d33c
00000350: d6b4 09ba 440b 3639 0697 0c3a cc5e f23a
00000360: 54c2 01b9 2006 c5b8 cefe f939 5e1a 38bb
00000370: 2219 d7bb c7e7 973b 60ee 153a b950 0439
00000380: 85d3 89bb f54f 09b9 693a 2236 12df 0abb
00000390: bf4d 31ba 02f0 41b9 f326 91ba 417c 0fba
000003a0: fe25 56bc 86d8 243c 85fc 20ba 6647 dabc
000003b0: 802b d7ba b2ab 05b9 3036 43bb a6e1 23bb
000003c0: 75e2 d1b8 42dd c7b8 3948 e238 1e92 2937
000003d0: fbe2 8aba 3525 82b8 be13 b339 17d5 f537
000003e0: 6e58 3e3a 0c3b ca38 e47c 21b9 fde3 2d3a
000003f0: 3adc 9039 a1d7 51b8 36ff ba39 6a11 bfb9

exp_avg_sq f4 [32, 24]
1.5638885e-05 5.7752386e-06 1.6663289e-05 0.00027588804 0.004422414 0.0015020759 0.0001424393 8.8713045e-07
0.0035876923 0.00029184483 6.863629e-06 0.00031011566 9.6409385e-05 0.00017161448 0.00021588418 0.00024747007
0.01827437 0.012145132 0.074085 0.065089315 0.00040940053 0.00069515995 0.0009223798 0.0009348141
1.9751546e-06 3.3335996e-07 2.3553403e-06 1.4840552e-05 0.0001698251 5.1393446e-05 9.91368e-06 8.142725e-08
8.2397215e-05 8.53525e-06 2.1501201e-07 8.9099685e-06 8.188145e-06 1.126597e-05 1.4984154e-05 1.0855174e-05
0.00045070297 0.000322052 0.0022935453 0.001990665 3.246751e-05 4.5637087e-05 5.031182e-05 4.215847e-05
1.0637218e-06 2.0955402e-07 2.5698034e-07 1.1254901e-05 9.353702e-05 4.0492094e-05 3.719801e-06 2.6606385e-08
7.655835e-05 6.817589e-06 1.9717122e-07 1.142903e-05 1.9694796e-06 2.7505027e-06 4.1883463e-06 2.8778256e-06
0.0004704488 0.00024358509 0.0015195415 0.0014562809 1.0761737e-05 1.1476853e-05 1.81615e-05 1.0701278e-05
1.9455272e-06 2.1711894e-07 3.3401435e-07 8.143536e-06 0.00011334476 3.3618333e-05 3.4766354e-06 3.8726633e-08
6.149532e-05 6.854525e-06 2.3328228e-07 7.6023534e-06 1.6509149e-06 1.8792978e-06 3.5776775e-06 3.8022906e-06
0.00037390122 0.0003037544 0.0011284344 0.0011958112 8.032399e-06 7.921215e-06 1.6174148e-05 1.676501e-05
1.4659645e-06 2.361694e-07 6.653623e-07 1.1147494e-05 0.00013133345 3.9921986e-05 6.5496515e-06 3.24276e-08
0.00011948888 1.3271595e-05 2.5506e-07 1.47363935e-05 3.265143e-06 5.290702e-06 8.867827e-06 1.1198229e-05
0.0005855702 0.00037827808 0.001987247 0.0018309101 1.1900102e-05 2.0157706e-05 3.6953774e-05 4.226588e-05
1.4411428e-06 1.6791302e-07 3.7770005e-07 7.941038e-06 0.00011938061 3.8736176e-05 5.3896406e-06 2.7967355e-08
9.597435e-05 1.006577e-05 1.8066211e-07 1.0322334e-05 2.5060044e-06 4.2028037e-06 5.718191e-06 6.089346e-06
0.00043948932 0.00032338948 0.0014297137 0.0016311354 1.1604493e-05 1.7511758e-05 2.4725206e-05 2.1657163e-05
8.870444e-07 1.5572017e-07 7.705741e-07 8.31757e-06 9.263471e-05 3.166573e-05 4.901502e-06 2.6081858e-08
6.398194e-05 7.404808e-06 2.0722986e-07 7.5441826e-06 2.6624411e-06 4.3724253e-06 6.1892747e-06 6.827924e-06
0.00031312322 0.00026736248 0.0011884059 0.0012188589 1.1157578e-05 1.7181279e-05 2.5259687e-05 2.7385828e-05
3.719141e-06 3.0689404e-07 7.5743196e-07 1.2331211e-05 0.00015708437 4.2831343e-05 6.2479457e-06 6.369756e-08
7.376803e-05 1.0948218e-05 2.6419153e-07 9.179977e-06 2.7105814e-06 3.6952015e-06 6.8303852e-06 5.852145e-06
0.00047544518 0.00040825488 0.0016431113 0.0018084247 1.2818648e-05 1.6168986e-05 3.1363175e-05 1.9113235e-05
2.7829112e-06 5.629079e-07 8.3237046e-07 2.2021857e-05 0.00028660745 9.8017816e-05 9.339236e-06 6.60388e-08
0.0001974734 2.08419e-05 6.5452383e-07 2.6511208e-05 5.590478e-06 7.671018e-06 1.0461943e-05 1.087673e-05
0.0012772772 0.0009442452 0.0053511728 0.004712837 2.838244e-05 3.296987e-05 4.636397e-05 4.687736e-05
7.371623e-06 2.817388e-06 7.4999143e-06 0.00013018835 0.0018013633 0.0006809694 5.9492315e-05 4.2181526e-07
0.0014103167 0.00011597411 3.0975598e-06 0.00012267099 4.2424323e-05 7.3672374e-05 8.777922e-05 0.0001017949
0.008250047 0.0053417445 0.03255485 0.028397221 0.00018592937 0.0003003623 0.00036389157 0.00039531244
2.5608279e-06 2.0916366e-07 4.0231828e-07 7.802497e-06 8.545731e-05 3.0033525e-05 3.8993944e-06 3.549666e-08
4.8091235e-05 5.586823e-06 1.7781203e-07 6.3347684e-06 1.7039861e-06 2.1640406e-06 2.867241e-06 4.206602e-06
00000000: 4030 8337 ecc8 c136 24c8 8b37 11a5 9039
00000010: e6e9 903b 4ee1 c43a c25b 1539 2423 6e35
00000020: 7d1f 6b3b c002 9939 204e e636 0597 a239
00000030: 652f ca38 69f3 3339 f85e 6239 dfbe 8139
00000040: 22b4 953c 60fc 463c e0b9 973d 8c4d 853d
00000050: cfa4 d639 653b 363a dccb 713a 500e 753a
00000060: e68c 0436 a5f8 b234 7010 1e36 affb 7837
00000070: 1413 3239 4b8f 5738 ee52 2637 1bdd ae33
00000080: abcc ac38 9f32 0f37 0dde 6634 067c 1537
00000090: d15f 0937 f902 3d37 7464 7b37 9e1e 3637
000000a0: 544c ec39 16d9 a839 4e4f 163b d175 023b
000000b0: b92d 0838 736a 3f38 e805 5338 50d3 3038
000000c0: 34c5 8e35 c501 6134 1cf7 8934 6fd3 3c37
000000d0: 4e29 c438 0ed6 2938 b2a1 7936 0f8c e432
000000e0: f48d a038 a5c2 e436 03b6 5334 4fbf 3f37
000000f0: 672b 0436 4795 3836 9f89 8c36 ab20 4136
00000100: 92a6 f639 e06a 7f39 5a2b c73a aee0 be3a
00000110: 4f8d 3437 b58c 4037 8659 9837 a489 3337
00000120: e78f 0236 3321 6934 9552 b334 39a0 0837
00000130: 81b3 ed38 6901 0d38 2450 6936 6254 2633
00000140: 0cf7 8038 ecff e536 257c 7a34 b817 ff36
00000150: 0195 dd35 2e3c fc35 0818 7036 db2a 7f36
00000160: 2c08 c439 3a41 9f39 fae7 933a c4bc 9c3a
00000170: e4c2 0637 5ce5 0437 b8ad 8737 96a2 8c37
00000180: 28c2 c435 c095 7d34 599b 3235 1f06 3b37
00000190: 8eb6 0939 e871 2738 14c5 db36 8646 0b33
000001a0: 1b96 fa38 11a9 5e37 2eef 8834 543c 7737
000001b0: bb1e 5b36 c986 b136 07c7 1437 07e0 3b37
000001c0: f380 193a a053 c639 793c 023b 26fb ef3a
000001d0: 8da6 4737 5818 a937 d0fe 1a38 a546 3138
000001e0: 4a6d c135 944b 3434 b3c6 ca34 803a 0537
000001f0: fa5b fa38 a778 2238 a9d8 b436 dd3c f032
00000200: d645 c938 27e0 2837 06fc 4134 162e 2d37
00000210: d42c 2836 cf05 8d36 e3de bf36 1553 cc36
00000220: 426b e639 9a8c a939 3b65 bb3a d2cb d53a
00000230: ebb0 4237 37e6 9237 fa68 cf37 67ac b537
00000240: 3a1d 6e35 0934 2734 73d9 4e35 b18b 0b37
00000250: e244 c238 d2d0 0438 9577 a436 9d0a e032
00000260: 0b2e 8638 d176 f836 e982 5e34 0924 fd36
00000270: 64ac 3236 d9b6 9236 77ad cf36 6c1b e536
00000280: b02a a439 c92c 8c39 49c4 9b3a 1ec2 9f3a
00000290: 6f31 3b37 8420 9037 c4e4 d337 9eba e537
000002a0: 5b96 7936 32c3 a434 5452 4b35 26e2 4e37
000002b0: 04b7 2439 cea5 3338 72a5 d136 1bca 8833
000002c0: e9b3 9a38 3dae 3737 35d6 8d34 b303 1a37
000002d0: 6fe7 3536 14fb 7736 9030 e536 8b5d c436
000002e0: 2c45 f939 0b0b d639 ab5d d73a aa08 ed3a
000002f0: ad0f 5737 a2a2 8737 f48b 0338 5c55 a037
00000300: 0dc2 3a36 bd1a 1735 1070 5f35 94bb b837
00000310: cd43 9639 ea8e cd38 b7af 1c37 37d1 8d33
00000320: dd10 4f39 a4d5 ae37 89b2 2f35 6364 de37
00000330: d795 bb36 c5b2 0037 b485 2f37 337b 3637
00000340: 506a a73a 3987 773a e458 af3b 246e 9a3b
00000350: d316 ee37 2149 0a38 ef76 4238 2f9e 4438
00000360: c259 f736 5b12 3d36 c6a7 fb36 2b83 0839
00000370: b91b ec3a 1583 323a 6387 7938 d975 e234
00000380: 60da b83a 2037 f338 acdf 4f36 3ea1 0039
00000390: c5f0 3138 8e80 9a38 1c16 b838 b97a d538
000003a0: 352b 073c cd09 af3b 3c58 053d 4aa1 e83c
000003b0: 09f6 4239 f279 9d39 b3c8 be39 f041 cf39
000003c0: b0da 2b36 7896 6034 34fe d734 78e7 0237
000003d0: 8b37 b338 81f0 fb37 8bd7 8236 fe74 1833
000003e0: 92b5 4938 7276 bb36 99ec 3e34 3f8f d436
000003f0: 84b4 e435 ef39 1136 d36a 4036 7026 8d36

exp_avg f4 [32]
0.0052810414 -1.2755998e-05 -0.00038958425 0.0001863769 0.00140417 0.00066713104 9.97139e-05 -0.00076671166
-0.0020953424 0.003803516 -0.00074395095 0.0027210924 0.0009225418 0.001054686 0.0011211784 5.4017197e-05
0.000934755 0.0016159008 -0.0015715249 -0.00045546843 -0.0014979229 -0.001714674 -0.000776987 0.0001166197
-0.0021663413 -8.662478e-05 0.00069300033 0.0006173605 0.00021796674 -0.0010790767 0.00085927313 0.00083547464
00000000: 960c ad3b 9802 56b7 1d41 ccb9 2b6e 4339
00000010: 200c b83a 68e2 2e3a 7e1d d138 26fd 48ba
00000020: 0352 09bb 6944 793b b405 43ba 5b54 323b
00000030: bbd6 713a 643d 8a3a 81f4 923a 8690 6238
00000040: 590a 753a a2cc d33a a0fb cdba f0cb eeb9
00000050: f455 c4ba eabe e0ba b7ae 4bba ba91 f438
00000060: 2df9 0dbb 53aa b5b8 77aa 353a 5dd6 213a
00000070: 008e 6439 ce6f 8dba d840 613a c103 5b3a

exp_avg_sq f4 [32]
0.0038672485 9.919625e-05 8.2372484e-05 6.6269145e-05 0.00013065967 0.000104993254 7.142978e-05 8.225401e-05
0.00020958569 0.0015253011 5.3732223e-05 0.00016289041 8.8982524e-05 0.00013758602 0.0001537932 6.313618e-05
8.1846316e-05 0.00014057843 5.925071e-05 5.1960043e-05 3.616321e-05 6.681798e-05 0.00045809394 3.3180542e-05
0.00015107573 3.988871e-05 7.864942e-05 1.6579053e-05 1.6794276e-05 0.00019126725 0.0001540879 5.7321497e-05
00000000: aa71 7d3b 9507 d038 64bf ac38 faf9 8a38
00000010: b001 0939 d32f dc38 92cc 9538 c97f ac38
00000020: 3bc4 5b39 9dec c73a 895e 6138 90cd 2a39
00000030: 219c ba38 f744 1039 8c43 2139 fb67 8438
00000040: e8a4 ab38 3c68 1339 f783 7838 acef 5938
00000050: f3ad 1738 a120 8c38 542c f039 562b 0b38
00000060: 156a 1e39 2d4e 2738 96f0 a438 3f13 8b37
00000070: 6fe1 8c37 e98e 4839 a892 2139 7d6c 7038
