2026-01-31_00-50-28/model_250.pt (torch, 62651 bytes, 36 tensors)

std f4 [4]
00000000: cf76 843d ffc3 943d 760b e83d 4670 e93d
0.064679734 0.07263946 0.11330311 0.113983676

actor.0.weight f4 [32, 24]
00000000: fbbf ad3f 0c4a 3cbd 4e97 353e 3c70 3ebd
00000010: bd5f 043e c66d 16be 405d 1340 af3d bbbe
00000020: d8a3 3b3e 224c e13d a4f0 e33e 2735 e4bb
00000030: 60c9 a03d 89da cb3e 6571 d13d 61e1 193d
00000040: 5c16 f7bc 2739 5d3c ea9b 34bd 8c0d 0d3d
00000050: 41f3 873d 99c9 1b3e 21c5 e7bc a7f4 083d
00000060: 089b 11c0 1f74 15be 733e e43b 0d9d 3dbe
00000070: 27c5 1bbe 365d 75bd 3898 8ebf 4273 78bd
00000080: bbdd 673f b194 b63b 6bf8 10bf 107e 07be
00000090: 33f1 423d 6350 9cbe 6698 8f3c f404 21be
000000a0: f6ad 2ebc e266 a7bd 35bc 2e3d b147 27bd
000000b0: d9f8 a73d 49df 71bd 1f0e 02be 6840 cd3d
000000c0: 3279 253f 3434 c9be 71ef e93d b827 b93e
000000d0: c110 d1bd 80c7 bcbd ee83 18bf 737c a0bf
000000e0: 4ea2 d83d b7f4 4bbe 043d 483f d23e 903e
000000f0: 4605 3a3e fde3 473f c655 5a3d 08cb 2d3f
00000100: 1d12 493e cecd e73d f294 9cbd 0e15 333d
00000110: a53a d63d 08aa 9b3e 466a 633c dbb0 34bd
00000120: dfb5 723f 399f 1fbe 802d 97be 351d f83e
00000130: cff3 10be 596a d43d 7039 79bd 8218 a1bf
00000140: ca45 2c3e 132c e93e 5634 51bf f3be bcbe
00000150: 735e 89bb 8b53 1a3f 42df 6dbe 7342 4b3e
00000160: bc1a 3d3e ef1e 8c3d ff34 47bc e668 b0bd
00000170: 4aeb f0bd b9dd d23d 2c22 5fbe 90a6 7cbb
00000180: 7413 22be 9548 e23e 96c2 4a3f fbad a0be
00000190: 5445 233e 97c8 3d3e a121 183f e519 8e3f
000001a0: 6994 af3c 1046 0dbf a347 603f e908 d23e
000001b0: fc98 a43e 33a2 163f 8b47 173f bd90 a0be
000001c0: 0a84 2fbe b04e 563d 5222 d43c 8614 d23d
000001d0: 3ac5 aebe da41 463f 3504 ec3e 233f e33d
000001e0: 6a78 44bf 4a1a febe c0f5 08be 3c09 af3d
000001f0: 0bee 033e ceb1 85be 1771 163f 9d65 9b3e
00000200: 82ac 823d 20bf febe f132 7abe 2eb5 d13e
00000210: 2df5 843e 8eca 46bf 9b4c 0f3c 3762 b2be
00000220: ae75 ecbd d98d 32be 4117 5ebd 7a8c 74bc
00000230: e268 4c3e c4db 8fbe 01b1 7bbd 446d 8a3e
00000240: 9d36 eabe f49c 75bd 7061 d73f 63ea 7f3e
00000250: db46 94be 117e 8cbd b4ef cebe 3368 02bf
00000260: 25d5 503e 11fd 0fbe 1184 673f 5a75 533e
00000270: 6b67 293f 51d8 84bf b090 383e beea 0b3e
00000280: 4ba0 ac3d de81 94bc f75a 9bbd 35c7 1ebd
00000290: 0c97 0f3f 8f78 16bf cfa3 8b3d 9380 d6be
000002a0: c050 573f e426 afbe 5c8a bd3e cf66 3b3e
000002b0: b1f1 963e cd39 823e b3d5 203f 257e c1be
000002c0: 7527 233f d9a0 ee3e 319f a6be 96e5 1ebd
000002d0: f435 87be 8ceb 893e ac95 3abe dd40 f73e
000002e0: 580c 06bd d565 8b3c 7c62 bcbc a384 d83c
000002f0: 26c2 95be d0b8 963e 6a63 a8bd 28b0 163e
00000300: 40c9 993e fd2b 023f ceec f9bd 48b9 9cbe
00000310: a3c8 5fbe a127 c2bd 81cf 303e ea0c 8e3f
00000320: 5a2d 00be dbbe ab3e 4c4f 163e 8b79 46bd
00000330: f86f 9f3e 633c a83f 578d a73c be40 353f
00000340: 27a2 b23d a9e0 c9bd be28 de3c 5cd2 13bd
00000350: 975b 2c3e b98a 533f 056e a5bd be8c 333e
00000360: 0b8e a93f 227b f23e bcb4 e93e f7c5 5dbd
00000370: ef1e fe3d 2966 ec3c 8a20 0340 0fc0 65be
00000380: d467 5d3e 5b79 96bc c747 24bf 6715 95bd
00000390: 1cdc 823d 8562 a2be 339b 513e ce14 6dbe
000003a0: cc92 63bc 7e85 d23c cd13 803b 4113 143d
000003b0: 5aac 40be 4c14 e4bd bb64 1f3d 114e 043e
000003c0: 780d 243f 029d 1a3f 07eb fd3e 2aac 903d
000003d0: bd2d 98bc af2b 163d a046 2b3f 805c 69be
000003e0: ba23 a93d 12b5 26bf 8c07 00bf 2f42 c4be
000003f0: 1b6e bbbe 950f ebbe 9ced cebe b02d 51be
1.3574213 -0.045969054 0.177335 -0.046493754 0.12927146 -0.14690313 2.3025665 -0.36570498
0.1832422 0.11000849 0.44519532 -0.006964344 0.07850909 0.39815167 0.102267064 0.037568454
-0.030162029 0.013502396 -0.044094004 0.034436747 0.06638194 0.15213622 -0.02829224 0.033436444
-2.2750874 -0.14595078 0.0069654523 -0.18516941 -0.15211926 -0.059903346 -1.1140203 -0.060656793
0.9057271 0.0055719246 -0.56629056 -0.13231683 0.047593307 -0.3053008 0.017528724 -0.15724546
-0.010661593 -0.0817392 0.042659957 -0.040839855 0.08201761 -0.059050832 -0.127007 0.1002205
0.64638054 -0.3929764 0.11422623 0.36163116 -0.10208274 -0.09217739 -0.5957631 -1.2537979
0.10577832 -0.1991757 0.782181 0.28172928 0.18166074 0.7808226 0.053304456 0.67887926
0.19635816 0.11318551 -0.076455966 0.04372125 0.10460404 0.3040316 0.013880318 -0.044113975
0.94808763 -0.15588082 -0.295269 0.48459783 -0.14155506 0.10371847 -0.060845792 -1.2585604
0.16823497 0.45541438 -0.81720483 -0.36864433 -0.0041921674 0.60283726 -0.23229697 0.19849567
0.1846723 0.068418376 -0.012158631 -0.08613758 -0.11763628 0.102961965 -0.2179038 -0.0038551427
-0.15827733 0.44196 0.79203165 -0.31382737 0.15944415 0.1853355 0.59426314 1.1101652
0.021433072 -0.5518503 0.8760931 0.41022423 0.32147968 0.58841246 0.5909354 -0.31360427
-0.17140213 0.052321136 0.025895271 0.10257821 -0.34134847 0.7744423 0.4609696 0.11096027
-0.7674624 -0.49629432 -0.13374996 0.08546683 0.12883775 -0.26112217 0.5876631 0.30350962
0.063805595 -0.49755192 -0.24433495 0.40958542 0.25968304 -0.77652824 0.0087462915 -0.34840557
-0.11545883 -0.17436923 -0.054221395 -0.01492607 0.19961885 -0.28097355 -0.0614481 0.27036488
-0.45744792 -0.059964135 1.682661 0.24991755 -0.28960308 -0.06859983 -0.40417254 -0.50940245
0.20393808 -0.14061381 0.9043589 0.20650235 0.6617343 -1.0378515 0.18023944 0.13663766
0.08429011 -0.018128332 -0.075857095 -0.038764197 0.56089854 -0.5877771 0.068183534 -0.4189497
0.8410759 -0.3420936 0.37019622 0.18300937 0.2948127 0.25434723 0.6282608 -0.37791553
0.6373208 0.46607092 -0.32543328 -0.03879317 -0.2640835 0.2693752 -0.18221158 0.48291674
-0.032726616 0.01701633 -0.02299618 0.026430434 -0.29249686 0.29437876 -0.08222087 0.14715636
0.30036354 0.5084837 -0.1220337 -0.30610108 -0.2185388 -0.09480215 0.17266656 1.1097691
-0.125173 0.3354405 0.14678687 -0.048455756 0.31140113 1.3143429 0.020453138 0.70801914
0.08722334 -0.09857304 0.027119037 -0.036089286 0.16831814 0.8263355 -0.08077625 0.17534158
1.3246473 0.47359568 0.45645702 -0.054143872 0.12408244 0.028857308 2.048861 -0.22436546
0.21621639 -0.018368414 -0.64172024 -0.07279473 0.06389639 -0.3171579 0.2046936 -0.23152468
-0.01388998 0.02569842 0.0039086104 0.036151174 -0.18815747 -0.11136684 0.038914423 0.12920405
0.6408305 0.60395825 0.49593374 0.07064088 -0.018576497 0.036662754 0.6690464 -0.22789192
0.082587674 -0.6512004 -0.50011516 -0.38331744 -0.3660744 -0.45910326 -0.40415657 -0.20427585

actor.0.bias f4 [32]
00000000: e770 273e c6b4 01bf 8731 8dbe d42c 0ebe
00000010: 39a0 c4bd 2545 cbbd 2536 53be 3b38 5cbd
00000020: c410 3d3e bbb4 353e 0673 3abe d800 32be
00000030: f56a 68be e8b2 ecbd 5d56 ecbb 336f bfbd
00000040: 6cf8 083e 70cc cebd 3411 a4be 8f3b 2bbe
00000050: 9914 b6bd 3def 27be 8986 12be 454f 0a3c
00000060: f477 a03d a7b7 d3bd 8e1b 4ebd ee36 31be
00000070: f825 99be 976b 4fbe 9e67 4abe f88b 64be
0.16351663 -0.50666463 -0.2757685 -0.13884288 -0.096008725 -0.09925298 -0.20626123 -0.053764563
0.18463427 0.17744724 -0.1820794 -0.17383134 -0.22697051 -0.11557561 -0.0072124437 -0.093473814
0.13376015 -0.10097587 -0.32044375 -0.16721939 -0.088906474 -0.16399856 -0.14309134 0.008441751
0.07835379 -0.10337763 -0.050319247 -0.1730611 -0.2991178 -0.20255886 -0.1976609 -0.22319019

actor.2.weight f4 [32, 32]
00000000: 5a16 ff3d f27f e3bc 21f0 7dbc ebe8 2fbe
00000010: 17a1 94bd e633 ea3d 1d8e f63d 17fb 133e
00000020: 3164 94bb 2088 083e ea54 593e 8aff 00bd
00000030: cbe7 0e3e 4c57 2fbd 40f9 6ebc 276c 28be
00000040: e236 09be 7713 6abe d7e1 013e 4bdb a63d
00000050: 2625 5d3e 4685 993d 9cbc 92bd 2318 e93d
00000060: 433e 6c3c d62b 483e 721d 953e 4628 803e
00000070: 4bc4 adbd 9e59 d63e 3fb3 1ebe e5db 3bbe
00000080: c21a 14be d628 713c 2023 753e 6302 333e
00000090: 03a1 6abe 199d 5b3c 6e3d 953d d839 203e
000000a0: fc62 f23d 51b8 a3be 15d2 3cbe 6576 453c
000000b0: 3450 343e 95a8 d8bd 81ff f6bc a0c0 9e3e
000000c0: 45b4 1dbe c8b7 6abe da02 a83c 3cfc 11bd
000000d0: 4c26 6f3c ed6b 3abd 3694 71be 1b31 dbbd
000000e0: 5327 f33d 15eb 323e 5219 563c dfc3 7e3c
000000f0: c392 553b 6e22 6bbe d56a 173e 3309 363e
00000100: 65b4 3abd d4aa 103d 0554 a03e 3f9b 363e
00000110: e006 2b3e 573e 0e3e 73d3 af3d 0995 2e3d
00000120: cbd0 36be 3cac 46bd 8278 943d fd73 0f3d
00000130: 3a2f 213e 3976 07be d12f 103d 37a1 443e
00000140: 0156 27bd 5490 acbb 0f5e 7a3e 8d0b 51bc
00000150: ac19 08bd a9fc fdbd 2845 033e 68eb 02be
00000160: 1870 f53c edaf 2b3e 3e94 fc3d 4289 013c
00000170: c05f 183d 5ccc cfbd 347d 5c3e 6c0f 37bd
00000180: 1463 4f3e 56ae 9abd 6812 803d afe9 ce3d
00000190: d96b 30be 6b0b d0bc 2c26 54bd 9733 693d
000001a0: 33b6 023d 3c2c df3d aa71 afbb 2d84 2abe
000001b0: 469f b0bc 492f 66bc 629b b4bd f631 dcbc
000001c0: 4885 013d 89d0 a2be b1ca f13d fb53 4c3e
000001d0: f8fe 9c3d 44a9 ddbd 53c6 35be e447 913e
000001e0: 2e7b 42bd 9950 7bbd 8cf2 bbbd 0093 3f3e
000001f0: 99cf 023d f58e a23e dab6 163e a190 24be
00000200: c6a2 d23d 40cc 00be b558 1fbe cc3a 40be
00000210: f280 30be a670 b53d b109 a1bd fa60 5ebc
00000220: ac50 773c 32eb 1fbe e976 8f3d 28e0 19be
00000230: d0a8 443b 426e 76bd 3fb2 10be 32f1 d6bd
00000240: 1388 0a3d f14b 61bd 881f ea3d debc 223d
00000250: a254 383e 2310 f7bd 9225 133d fab1 babd
00000260: a24f bfbd 9c3e 2abd 5e73 5abd 8795 30be
00000270: 4353 b73d e51d 2a3e b435 3d3e e80f 0f3d
00000280: 582a b43d 11b4 683e 963c 35be ceb1 e63d
00000290: 80e6 453d fabc 063e c513 8abe 3350 233e
000002a0: 43ac 4dbd 3c59 8bbd cea2 09be a557 abbe
000002b0: abc9 af3d 8c56 edbb 1da1 303d ba6a 52be
000002c0: a2cb 16be 0ddd 1d3e d534 153e 728c 093e
000002d0: cd0e a73c 7df8 993d d15c 9e3d ccaa 8dbe
000002e0: cfa3 96bd b82c 4cbe 3e6f e1bd 780b 39be
000002f0: c5d3 4fbc 0f39 34be 92b2 e7bd 8fcc 24be
00000300: b3da 2dbe 1f18 0bbe 959d b03c df1a ccbd
00000310: 85eb 81ba 26e1 853e 42c8 2f3d f7ac 17be
00000320: ed9e 07bf 584a f2bd b1c4 ea3d 3d10 0a3e
00000330: e48d 1a3d 036b bb3d 9f2c dc3d d10e 75bc
00000340: b7eb 5b3d 6091 c23c ae8e 003d 09c4 633e
00000350: e9a4 14be ebff 583c cd8c 4d3b 84bb db3c
00000360: 7461 f83c 2d7a 1e3e 6b5d 923e 75ff 143e
00000370: 1ad3 b1b9 47c3 c9bd ac43 0ebc 2263 d33d
00000380: fb81 b8bc 34c6 473e 3bef b83d bfc4 d2bc
00000390: 4a63 5dbe 6002 d63c cf9b 893e 4c5d d4bd
000003a0: ef50 bcbe 0444 3a3e f8b7 32be c1e9 1dbe
000003b0: 9e9c 2e3e 1002 c3bc f1a4 aebd 7d6a 6d3d
000003c0: 4d1a 99be bd1f a73d 9397 68bd 0081 a83d
000003d0: d8cc b6bd d49a 42bd 5360 b0be 9fbd 0cbd
000003e0: 4c85 1dbe 1943 003e 172c 8e3e 2073 823d
000003f0: 0db1 bb3d 29c5 60be 37bb 223e 039c f33d
0.12455435 -0.02777097 -0.015499146 -0.17178695 -0.07257288 0.1143568 0.12038825 0.14451252
-0.0045285453 0.13333178 0.21223798 -0.0314937 0.1395561 -0.042807862 -0.014585793 -0.16447507
-0.13399842 -0.22858988 0.12683807 0.081472956 0.21596202 0.07496123 -0.07164881 0.11381557
0.014419141 0.19547972 0.29124027 0.25030726 -0.084847055 0.41865247 -0.15498064 -0.18345602
-0.14463332 0.014719209 0.2393918 0.17481379 -0.22912984 0.013404154 0.072871074 0.15647066
0.11835286 -0.3197656 -0.18439515 0.012052153 0.1760872 -0.105790295 -0.03015113 0.31006336
-0.15400799 -0.2292167 0.020509172 -0.03564094 0.014596533 -0.045513082 -0.23591694 -0.107027255
0.11872735 0.17472489 0.01306756 0.015549629 0.0032588698 -0.22962353 0.14786847 0.17776947
-0.045582194 0.035319164 0.31314102 0.17832659 0.16701841 0.13890968 0.085852526 0.0426226
-0.17853086 -0.0485041 0.072495475 0.035022724 0.15740672 -0.13228692 0.03520185 0.19202124
-0.040853504 -0.0052662287 0.24449943 -0.012759102 -0.033227608 -0.12401707 0.1281935 -0.12785113
0.029960677 0.16766329 0.123329625 0.00790626 0.03720069 -0.101464 0.21532136 -0.04469244
0.20252639 -0.07552783 0.06253511 0.10103165 -0.1722864 -0.02539607 -0.051794216 0.056933966
0.03191204 0.10897109 -0.005354126 -0.16651984 -0.021560322 -0.01404936 -0.088186994 -0.026879292
0.031621248 -0.31799725 0.118062384 0.19953911 0.07665819 -0.108233005 -0.17751436 0.2837516
-0.047480755 -0.06135616 -0.091771215 0.1870842 0.03193626 0.31749693 0.1471819 -0.16070797
0.10284953 -0.12577915 -0.15561183 -0.18772429 -0.17236689 0.088593766 -0.078631766 -0.013572926
0.015094917 -0.15617064 0.07005102 -0.15026915 0.0030007847 -0.060163744 -0.14130495 -0.10495223
0.033821177 -0.055004064 0.11431795 0.0397309 0.18001035 -0.12063625 0.0359245 -0.091159776
-0.09341361 -0.041563615 -0.05333268 -0.1724454 0.08951428 0.16612966 0.18477517 0.03492728
0.08797139 0.2272494 -0.17698893 0.11264382 0.048315525 0.13158026 -0.26968208 0.15948562
-0.05021311 -0.068041295 -0.13441011 -0.33465305 0.08583387 -0.007242983 0.0431224 -0.20548525
-0.14726117 0.15416355 0.14570935 0.13432482 0.0203928 0.075180985 0.07732547 -0.2766937
-0.07355463 -0.19938934 -0.11007546 -0.18070781 -0.012684767 -0.17599891 -0.113133565 -0.16093658
-0.16977958 -0.1358342 0.021559516 -0.09966063 -0.0009912109 0.26148337 0.04291559 -0.14812075
-0.52976876 -0.11830586 0.11463297 0.13482757 0.037732974 0.0915127 0.10750698 -0.014957146
0.053691592 0.02375096 0.03138607 0.2224275 -0.14516033 0.013244609 0.0031364441 0.026822813
0.030319907 0.15476294 0.28586897 0.14550574 -0.00033917354 -0.09851699 -0.008683126 0.103216425
-0.022522917 0.19509202 0.090300046 -0.025728581 -0.21619907 0.02612418 0.26876685 -0.103693575
-0.36780497 0.18190008 -0.17452991 -0.15421201 0.17051932 -0.023804694 -0.08527554 0.057962883
-0.29902878 0.081603505 -0.056785177 0.0822773 -0.089257896 -0.047510937 -0.3444849 -0.034360524
-0.1538288 0.12525596 0.27768013 0.063696146 0.09164629 -0.2195021 0.1589173 0.11894991

actor.2.bias f4 [32]
00000000: 9933 3dbe 1ada bebd 0cd1 7ebe a056 b9bd
00000010: 5fd1 90bb 4de0 28bd 6225 7d3d 1b5a 643c
00000020: 4827 04bd 6f7f 43be e1ff 773d 12db 1ebe
00000030: 7cd4 93be b273 e3bd 3dde d2bc d85b e63c
00000040: 1803 f1bd 55a5 7dbd 8949 08be b5fe a7bd
00000050: bc5a 67be ed74 3bbd 2363 ba3b aae5 13be
00000060: 9cb1 2f3d 61b2 68be 5a1f 39be d1c9 14bd
00000070: abfe 56bd 799a 4c3d a0bc 1abe 5f77 00be
-0.18476714 -0.09318943 -0.24884433 -0.090497255 -0.00441949 -0.041229535 0.06180323 0.013937498
-0.032264024 -0.19091581 0.06054676 -0.15513256 -0.2887305 -0.111060515 -0.025740737 0.028119966
-0.11768168 -0.06192525 -0.13309301 -0.082028784 -0.22593206 -0.045765806 0.0056880875 -0.14443079
0.04289399 -0.22724296 -0.18078366 -0.03632528 -0.052488964 0.049952004 -0.15111017 -0.12545536

actor.4.weight f4 [4, 32]
00000000: d47e 1fbe 1d6a cdbd 936f 1abe 6c4c babd
00000010: efc9 11bc 346e d23d 8bf9 11bd 8814 783d
00000020: 946c 0e3e 432e bb3b 7129 9a3d 3cb7 173d
00000030: 599b 19be 9493 c7bc d33c 21be 015f 0abe
00000040: 0621 1fbd 642a f0bd f48a b0bd 0d8a d43d
00000050: b898 2dbd e8ad a83c bcd2 a03b 460f aa3d
00000060: 5bcb 1fbe 5abb ffbd 67a1 3e3e d096 a63c
00000070: ca11 97bd 46b9 cf3c 9bbf 673d 9fcc 423d
00000080: 3fba 98bd beac 983d b682 7a3d ee34 6c3d
00000090: b14e 5d3d 7852 cbbc ff4f bbbd 97c1 29be
000000a0: 971e 7dbd f5d3 e43d c9f1 ecbc 1796 cdbc
000000b0: 213e 023e 7bc4 093b 0b82 29bd d3b5 cebd
000000c0: 9786 93bc 96f9 243e af9e 91bd 1291 9e3d
000000d0: 2d96 123c 29a3 c73b ad02 92bd d5a1 443d
000000e0: 1180 063e c016 5f3e ebac 53be 31a2 ee3b
000000f0: 0685 b43c 57ce 42bc 59fe c73d 1789 273d
00000100: e4e1 10be 8b62 5d3e 6e2f 6d3d 0123 86bd
00000110: 014c 1bbd d04a 60be 41d1 a23d 8939 00be
00000120: 2afe 643e 795d 1b3e 2d77 b5bc d8ed 5d3e
00000130: d00a 76bd 2817 03be 0926 0b3e 59f3 cbbe
00000140: 642f d23d 1c72 6fbd 0162 eebd f365 d4bc
00000150: 5d81 0abe 090e b03c 3f48 a7bd f064 643e
00000160: 7f90 eebd c6a9 85be f374 ea3d 4dff 2e3c
00000170: 4b2f 603d b6c8 9fbd 973f fcbd 9f51 4abe
00000180: 97fd c5bd f397 9e3e d6c5 963d e51b 89bd
00000190: cb53 473d 1bc6 91bc 9cc7 5a3d cf11 21be
000001a0: 17ea 61be cc73 16be 7730 263d 4135 d23d
000001b0: c438 423d 0339 943d d528 4ebe abd0 54be
000001c0: 406f 1e3b 0ac3 0d3e 0493 afbd 46ad a13d
000001d0: 0a15 6d3d bbdb 38bd 6b8a 613d 8453 ee3d
000001e0: 4717 5c3e c4a2 943e b116 d6bd fd7b 05bd
000001f0: c9cc 7fbd ecd6 203e a61b cfbd 6655 85be
-0.15575725 -0.10030005 -0.15081625 -0.090966076 -0.008898242 0.10274926 -0.035638373 0.060566455
0.13908607 0.005712302 0.075274356 0.03703998 -0.15000667 -0.024362363 -0.15745859 -0.13512804
-0.038849853 -0.11726835 -0.08620253 0.103778936 -0.042381972 0.020590737 0.004907934 0.083036944
-0.15604918 -0.12486906 0.18616258 0.020335585 -0.0737644 0.0253569 0.056579214 0.047558423
-0.074573986 0.07454823 0.061159812 0.057667665 0.054030124 -0.024819598 -0.091461174 -0.16577755
-0.06179675 0.1117324 -0.028923886 -0.025095982 0.12719013 0.0021021653 -0.041383784 -0.10093274
-0.018008513 0.16110834 -0.071103446 0.07742514 0.0089469375 0.0060924483 -0.071294166 0.048005898
0.13134791 0.21786022 -0.20671432 0.0072825183 0.022036087 -0.011890016 0.0976531 0.040902223
-0.1414867 0.21619622 0.05790656 -0.06549645 -0.03791428 -0.21903539 0.07950068 -0.12521948
0.22362581 0.15172376 -0.022151554 0.21672761 -0.060068905 -0.12801802 0.13588728 -0.39834097
0.10262945 -0.058458433 -0.116397865 -0.02592752 -0.1352591 0.021491067 -0.08168077 0.2230413
-0.11648654 -0.2610609 0.114480875 0.010680986 0.054732602 -0.078019544 -0.12316816 -0.19757698
-0.09667509 0.30975303 0.07361953 -0.066947736 0.048663896 -0.01779466 0.05341302 -0.1572945
-0.22061954 -0.1469261 0.040573563 0.102640636 0.047417417 0.072374366 -0.20132764 -0.20782726
0.0024175197 0.13843933 -0.08572963 0.078943774 0.057881393 -0.045131426 0.055063646 0.11637023
0.21493255 0.2903043 -0.10453547 -0.032588948 -0.062451158 0.15706986 -0.101126954 -0.26041716

actor.4.bias f4 [4]
00000000: 31b0 f2ba f8ea 67bd bfa3 b1bd c234 09bd
-0.0018515644 -0.056620568 -0.0867381 -0.03349758

critic.0.weight f4 [32, 24]
00000000: e0ae 04bf 432e 37bc 17f5 d8bc dd20 63bd
00000010: c982 743c e8dc 4c3c 3e5a b5be 585b 463e
00000020: 1ee8 08be 703e 83bd 895a b13f ed8f 45be
00000030: 0104 b5bd 2d73 cabd 9c97 863e a4b7 54be
00000040: 71bb 373d b25e 87bd 7017 ccbc cf58 5bbc
00000050: 6e45 29be 42f8 1b3e 00be 293e 8f4d d4bc
00000060: 1c03 ed3e 065e eebe cb07 9abe 47e6 963e
00000070: 20fa 173e 7a4c 82bb 9c86 543e dc15 69bd
00000080: 3684 f0be 87e8 763e e3b3 fa3e b7c1 b33d
00000090: bfa0 c63e a9de 4fbe 7ba5 ed3e 5936 65be
000000a0: 3768 8ebc 619c 383d 510c debc b23c d43c
000000b0: 3349 df3d f3b2 60be 926b f63e 9a5d a9be
000000c0: c8fc 373f 21d9 7fbd 69c9 ed3e 6fee d13c
000000d0: 3e7a 10bc c1f9 bbbb 90fc 2a40 51fe f6be
000000e0: c256 e53e dbf6 993f 208f b53d 2fce e7bd
000000f0: be38 bbbe 520d ed3e 2f82 b2be d3c9 ac3e
00000100: 5607 e13b 04fe 19bc 35fa 4a3b 0b23 54bb
00000110: 195e 91be 76e2 c13e 35ac 4abe bfac ea3d
00000120: 1766 ce3e 8a1c 1b3e 681c 0abf 72c3 b2bc
00000130: 364a 4e3d 9193 07be 921d 3e3e b573 f9bd
00000140: 6973 33be 6a11 15be ac18 41bf 8fd3 3dbe
00000150: 5632 513e 4b28 d2bd 9941 9a3e 7de6 793d
00000160: 1263 6e3d 5b29 683d 1d8e 0bbc 8864 dc3c
00000170: a251 003e 3aa1 7abd 680a b83d 08e5 88bd
00000180: 0b31 57be 62bf 8bbd 6847 3fbf cbfc a3bb
00000190: 452a e13d 5f0e 11be 26b1 4cbe 40b1 f23d
000001a0: 621b 8e3d 29ca 993e 353a 6dbf de44 473e
000001b0: 6ac1 91bd 14f7 083e fe26 af3b 4a7b adbd
000001c0: 34d9 75bd 3246 f0bd 41cf 39bd 7b73 363c
000001d0: bafc 1fbc 4ad5 cfbd 011a d9bc 8ced 4ebe
000001e0: a0ab e1be 1a6a b7bd 8d04 08be 3560 a03d
000001f0: 8074 e7bd 2fbd 77bd 90c7 30bf 2109 463e
00000200: 9c38 683e 87fa f93d ebd3 b03f 049f 07bd
00000210: 9dc2 24be 9349 55bd 79d4 08be 8b4b a53e
00000220: 2927 163d c344 9fbc 1217 eabc 103e 07bd
00000230: 5629 083d de19 63be 6fc1 793e bb45 b63d
00000240: 417e 423e 8e4e 983d 5b72 c8bd bf85 01bc
00000250: 1074 c13d 8434 563d 6bf2 913d 9f3e 263e
00000260: ceb8 80be c011 533e 9c9b 03c0 39e1 82bd
00000270: 9301 95be bf02 5b3e 9079 98be caf3 a53d
00000280: cf1d cc3c dced 423d e660 05bc 0073 cd3c
00000290: 144b 46be 1eb5 7e3e 0f4c f5bd 26c9 8e3e
000002a0: 53db 3a3e af27 12bc 508b 9d3e b685 803c
000002b0: 9180 ef3d a61a bb3c d484 8fbe 6e22 5dbe
000002c0: 3b00 52be c7cf efbd 0dc8 843d 8e9a 38be
000002d0: 0c21 11bd 0d4a 873d cd90 88bd dd50 883e
000002e0: f2f4 babd 6ba3 39bd 3f99 10bc 4250 b73c
000002f0: 5a90 383e 07bd 7f3d daa1 09be 79dd 05be
00000300: 275f f4bc 0ba8 973c 35ff 07bf cdef 94bd
00000310: 3d07 583d 96e6 823b 7b5e 3bbf d9aa 253c
00000320: e9f8 5cbe 2c4b e2be 9471 1dbf 1ed4 3bbe
00000330: 24d2 1b3e 9607 4d3e 58b8 0a3d 3b81 cf3e
00000340: ec9e 6bbd b278 6e3c c19b c13b 5467 c03a
00000350: 3747 363e 32ed 013e c025 a5be dbd6 073e
00000360: 6dc5 363e 001b 4c3d 5428 833d 4630 14be
00000370: ce2a d43d 703c bc3d 0eab 14bd 0016 d03d
00000380: f985 c0bc e01b d7bd 74f4 483f 1e04 7fbe
00000390: d366 573e 1a44 053e 76a9 2a3e f7c3 753d
000003a0: 5508 52bd d21e c83d 2fee 32bd f75b e0bd
000003b0: fb6d cd3c eae3 0e3d 6085 8c3d 064e c43d
000003c0: 27e6 46bf ea2d 7b3d 5731 9dbe 1037 4dbc
000003d0: e8a0 61bb 4b1a 98b8 cee0 debf 27d7 633e
000003e0: c107 35bd b10e bf3f 1a2f ebbe abf6 22bd
000003f0: a007 fe3d e7cd acbe 369d 273e 9a2e 0bbe
-0.5182934 -0.011180463 -0.026484055 -0.055451263 0.01492376 0.01250384 -0.35420412 0.19370782
-0.13369796 -0.064083934 1.3855754 -0.19293185 -0.08838654 -0.09885249 0.26287544 -0.20773178
0.044856492 -0.066098586 -0.02491352 -0.013387873 -0.16530392 0.15231422 0.16576385 -0.02591589
0.46291435 -0.4655611 -0.3008407 0.29472563 0.14841509 -0.003976402 0.20754474 -0.056905612
-0.4697587 0.2411214 0.48965368 0.087771825 0.38794515 -0.20299782 0.46415314 -0.22384013
-0.017383678 0.04507101 -0.027105482 0.025907848 0.109026335 -0.21943264 0.48128945 -0.33079225
0.7187009 -0.06246293 0.46442726 0.02562639 -0.008818207 -0.00573656 2.6716652 -0.48240903
0.44792753 1.2028459 0.088651896 -0.11318623 -0.36566728 0.46299225 -0.34864947 0.3374773
0.0068673296 -0.009398941 0.003097189 -0.003236952 -0.28392103 0.37868088 -0.19792254 0.1145873
0.40312263 0.15147606 -0.53949594 -0.021821711 0.05036374 -0.13239886 0.18565968 -0.121802725
-0.17524494 -0.14557424 -0.7542827 -0.18537734 0.20429358 -0.102615915 0.30128172 0.061010826
0.05819995 0.056680065 -0.008517769 0.026903406 0.1253114 -0.061188914 0.0898636 -0.06684309
-0.21014802 -0.06823613 -0.7471833 -0.0050045005 0.109943904 -0.14165638 -0.19989452 0.11850214
0.069388166 0.30037048 -0.9266694 0.19459864 -0.07116969 0.13375503 0.0053452244 -0.08470781
-0.060021594 -0.11732139 -0.04536367 0.011135931 -0.009764845 -0.101481035 -0.026501657 -0.20207804
-0.44076252 -0.08955784 -0.13282986 0.0783085 -0.113015175 -0.060483154 -0.6905451 0.1933942
0.22677845 0.122059874 1.3814672 -0.033110633 -0.16089864 -0.05207212 -0.13362302 0.32284197
0.03665844 -0.019441968 -0.028575454 -0.03301817 0.033242546 -0.22177836 0.24390195 0.08900019
0.18993475 0.07436858 -0.097874366 -0.007905423 0.09445965 0.052296177 0.07126316 0.16234826
-0.25140995 0.2061224 -2.0563726 -0.06390614 -0.29102764 0.21387766 -0.29780245 0.0810314
0.024916558 0.04759012 -0.008140778 0.02507925 -0.19364578 0.24873778 -0.11977398 0.2788784
0.18247728 -0.008920594 0.3077035 0.015688758 0.11694444 0.022839855 -0.28031027 -0.21595165
-0.205079 -0.11709552 0.06483469 -0.18027708 -0.035431907 0.06605921 -0.066682436 0.26624194
-0.09128751 -0.045321863 -0.008825599 0.022377137 0.18023816 0.06243613 -0.13440648 -0.13072766
-0.029830528 0.018512746 -0.5312379 -0.07272301 0.052741278 0.003994773 -0.7319104 0.010111534
-0.21579327 -0.44197977 -0.6150143 -0.18342635 0.15216881 0.20022425 0.03386721 0.40528283
-0.057524607 0.014555143 0.00590846 0.0014679232 0.17800604 0.12688139 -0.32255363 0.13265555
0.1784875 0.049830437 0.06404176 -0.1447154 0.10359727 0.09191215 -0.036295943 0.10160446
-0.023501383 -0.105033636 0.78498006 -0.24903914 0.21035318 0.1301426 0.16666207 0.06000134
-0.051277477 0.097715035 -0.04368418 -0.10955041 0.025076857 0.034885325 0.06861377 0.09585194
-0.77694935 0.061323084 -0.30701706 -0.012525335 -0.0034428183 -7.252822e-05 -1.7412355 0.22250043
-0.044196848 1.4926358 -0.45934373 -0.039786022 0.12403798 -0.3375084 0.16368565 -0.13591996

critic.0.bias f4 [32]
00000000: b73d f63d 1b74 8abe 9768 19bf 627a 453e
00000010: 5a73 c33c d783 883e ab5d 89bd 4736 b23c
00000020: 4d80 873d ece4 dfbc 2d46 39bf 2da3 07bf
00000030: c61c 853e 29e5 903d e925 b4bd e785 543e
00000040: ed5d 86be 625b 11bd 27d9 f33e a4bb 513e
00000050: 6599 42bf 4359 2dbe c951 e8be 3065 213d
00000060: c41b 82bd 2362 0dbf c497 3d3e b88a 933d
00000070: 69a3 e5bc 6377 f03d 6b8e 033d 23c9 f5bd
0.1202349 -0.27041706 -0.59925216 0.19284967 0.023858715 0.26663086 -0.06707319 0.021754397
0.06616268 -0.027330838 -0.72372705 -0.5298336 0.25998515 0.07074959 -0.08796293 0.20754205
-0.26243535 -0.03548754 0.47626612 0.20481735 -0.7601531 -0.16928582 -0.45374897 0.03940314
-0.06352952 -0.5522787 0.18514925 0.07204193 -0.028032022 0.11741521 0.032118242 -0.120012544

critic.2.weight f4 [32, 32]
00000000: 4372 1e3e 6907 07be 4696 85bd ccad fbbc
00000010: aab6 a5bc 6d9c 203e 8f0a 643d 9a95 37bd
00000020: d7af 10be 9c95 09be 1459 5fbe f9fe 05bc
00000030: 1b5c a13d c335 3abe 92e2 253e 63c6 6fbd
00000040: b769 563e 951c 063e 0198 323e 9fd5 12bd
00000050: 61b2 20bc 482e 943d c917 13be 77c7 5dbc
00000060: 7aeb e73d 228a bebd 56e0 0cbe 62de c13b
00000070: 041e 0dbc 8a5d 8b3d efbf b1bc d822 41bb
00000080: a67f a3bc 9075 81bc 9783 253e c406 3fbc
00000090: 5b3a 38bc 3a87 593d 8bdf 9cbd 2d89 26be
000000a0: 4c96 ef3d ef1c a2bc 24fc e13d a41b 1c3e
000000b0: 32a3 8b3d f2e8 f2bd c12a 8cbd 5359 bfbc
000000c0: e66d bdbd c910 833d e79e b33c aa0d 89bc
000000d0: 1e30 3b3d 98a9 c3bd 49a0 323e fe43 853d
000000e0: 0cf7 323e 4b1f c63d 3126 a6bc 7a19 38bc
000000f0: 0ae0 3e3e 0e5d 7bbd 515d 543d aaa6 38be
00000100: 9a74 053d 9ca1 dbbd 8e5e 0c3c 9917 b53c
00000110: 3dd5 d639 4cef 5d39 1228 823c b277 d9bc
00000120: 1bf7 ac3d f59d c83d ac65 b1bd 2bc5 933c
00000130: 9f72 213d ef83 f73c cb32 2d3d a98a c1bb
00000140: 0289 2dbe 722a 1ebd f017 d2bd b23f 083e
00000150: 532a fdbd 9a70 3e3d da95 dc3c fb3a 7f3d
00000160: d967 df3b 17df 2cbd 7f8e 6dbd cf3f 023e
00000170: 5c4a 003d 6bf1 e83d 94a9 1e3d 13c8 0e3e
00000180: 31a1 1aba 7034 c2bd 1b4d 54be 3868 bebc
00000190: 0eef 083e 9bad da3a 9fb3 b33e 1a59 333d
000001a0: 3ca5 5cbe 92d5 f9bd 87d0 74bf 5f9d a1be
000001b0: f716 02bc eb5e 74bd 614c da3d 06ce 7ebe
000001c0: ad67 1bbe fc20 0fbe 0307 d03d a41a 08be
000001d0: 6ce5 a0bf 643f 5f3d 8fdf 91be c9ac 493d
000001e0: a973 76be 10d6 8a3d 6b38 f43e 6ea4 c13c
000001f0: 0bda 913d c3fb 0f3d 8463 853d 08e7 ddbd
00000200: cba1 f3bc 2c6f d0bd 60f0 6dbd 77d2 fcbc
00000210: aac4 453d 97d7 98bd 746f 1ebe 4a32 11bd
00000220: d2ef 243e a980 bbbd e2b2 00be 061f d43d
00000230: 0fa2 213c 197c 07bd 2991 31be 2994 8ebd
00000240: 510a 0f3e 2d7b b33d 8205 b0bd 9758 75bd
00000250: 3616 843d 3825 2c3e 2b6d 50bd 5206 70be
00000260: fde9 243e 55a4 16be 247e adbd 6dad 04be
00000270: 0cac 5a3d 877e bc3d b2f1 263e 49c9 d03c
00000280: fe49 08be a5fe ca3d 3997 b03d 6880 d33c
00000290: 130a 183d 124f acbd fd39 7cbc a416 063e
000002a0: 4d67 813c 2cc9 13be a365 da3d 875b cd3d
000002b0: 3d4e 063e 5f5c a53d 8af5 113e f167 de3d
000002c0: 6856 693d dce6 cfbd 384a 8cbc 8457 7e3d
000002d0: f034 2dbe fda2 febd cf52 eabd 1092 f5bd
000002e0: fa11 963d bee0 bc3d be03 f9bd 24fe d6bd
000002f0: 139d bb3d c6f5 97bd 43e0 fbbc 4470 3dbd
00000300: 7fae 273e 0349 2ebe 08bf 8a3d ac82 87bd
00000310: 123e 07be f0f9 ad3d 1420 c93b ece6 2b3e
00000320: 51d3 9dbd 074c 40bc 0b4d 4fbe 02a7 9fbd
00000330: 98d5 52bc 2913 dc3d ebf7 68bd 3271 503e
00000340: a560 65bc 2625 ccbd 0905 0c3d 6e88 173e
00000350: fe85 933d 88f5 74bd 361a 9abd da68 203e
00000360: 5a95 223e 6b16 0c3e 6f5d fabd e2c6 21be
00000370: da4a 37be 48dd 903d 99f4 083e e2df 90bd
00000380: 621c 62be 9827 2bbe e425 3fbd 5e6c bb3d
00000390: fa1e b9bc 79ba fd3c 18af a5bd d42d 01be
000003a0: 8650 e0bd e28f c03d d111 16be b98a e5bd
000003b0: f1be 4cbd 0d82 713d d573 afbd e17f 9dbd
000003c0: 1001 47bd 8980 d63b c56f 9c3d a5ca 16be
000003d0: 84c6 72be edcb dabd 681c 053e 7847 edbd
000003e0: 7694 d6bd f9db fbbd 7e8a aa3d 829a acbd
000003f0: 6394 b1bd 39d6 2b3c f2cf 7cbd f57f 0b3e
0.15473275 -0.1318642 -0.06522803 -0.030722521 -0.020228703 0.15684672 0.055674132 -0.044820406
-0.14129578 -0.13435978 -0.21811324 -0.008178466 0.07878896 -0.18184571 0.16199711 -0.058538806
0.20938765 0.1309684 0.17440797 -0.035848256 -0.009808154 0.0723539 -0.14364542 -0.013536326
0.113242105 -0.093036905 -0.13757452 0.0059164027 -0.008613113 0.068049505 -0.021697966 -0.0029470231
-0.019958328 -0.015803128 0.16163479 -0.011659328 -0.011244382 0.053107478 -0.07659825 -0.16263266
0.11698589 -0.019789187 0.1103442 0.15244919 0.068182364 -0.11860837 -0.06844092 -0.023358023
-0.09249477 0.06399686 0.021926356 -0.016730148 0.045700185 -0.09553832 0.17443956 0.06507109
0.17477053 0.096739374 -0.020281883 -0.011236543 0.18640152 -0.06136804 0.051846806 -0.18032327
0.032581903 -0.10724184 0.0085674655 0.022105979 0.00040976136 0.00021165347 0.015888248 -0.026546333
0.08445569 0.09795753 -0.086619705 0.018038353 0.03941595 0.030214278 0.042284768 -0.005906422
-0.16946796 -0.038614698 -0.10258472 0.13305548 -0.12361588 0.046494104 0.026926924 0.062312108
0.0068177995 -0.042204943 -0.057997223 0.12719654 0.031320915 0.11374172 0.03873594 0.1394351
-0.0005898653 -0.09482658 -0.20732538 -0.023243055 0.13372442 0.0016683819 0.35097978 0.043786146
-0.21547407 -0.121989384 -0.9563069 -0.31565377 -0.007940046 -0.059660833 0.10659099 -0.24883279
-0.15176268 -0.13977426 0.101575874 -0.13291413 -1.2570014 0.054503813 -0.28490874 0.049237046
-0.24067558 0.067791104 0.47699293 0.023637976 0.071216665 0.035152208 0.06513122 -0.10835081
-0.029740235 -0.10177454 -0.058090568 -0.030862076 0.048283257 -0.074629955 -0.15472203 -0.03544835
0.16107109 -0.09155399 -0.12568238 0.1035748 0.009865298 -0.033077333 -0.1734053 -0.06961853
0.13968779 0.08763728 -0.085948005 -0.05989894 0.06449549 0.16811073 -0.05088536 -0.23439911
0.16104884 -0.14711125 -0.08471325 -0.12956782 0.053386733 0.09203821 0.16303137 0.025486605
-0.13309476 0.09911851 0.086225934 0.025818065 0.037118983 -0.08413519 -0.015394685 0.13094574
0.015796328 -0.1443221 0.10663917 0.10027223 0.13115783 0.08074259 0.14253822 0.10859669
0.05696717 -0.10151455 -0.017125234 0.06209518 -0.16914725 -0.12433431 -0.11441576 -0.1199075
0.073276475 0.09222554 -0.12158917 -0.10497692 0.09160819 -0.074199244 -0.030746585 -0.046249643
0.16375159 -0.1702004 0.067747176 -0.066167206 -0.13207272 0.084949374 0.006137857 0.16787308
-0.07706321 -0.011736876 -0.20244233 -0.07795526 -0.0128683075 0.10745842 -0.056877058 0.2035568
-0.014000093 -0.09968023 0.03418449 0.14798138 0.07203291 -0.05980447 -0.075245306 0.15664998
0.15877286 0.13680427 -0.12224852 -0.15798524 -0.17899647 0.07073456 0.13374557 -0.07073952
-0.2208114 -0.16714323 -0.046666995 0.09151529 -0.022597779 0.030972706 -0.08090037 -0.12615138
-0.109528586 0.094024435 -0.14655234 -0.112081 -0.049986783 0.058961917 -0.08567015 -0.076904066
-0.048584998 0.0065460843 0.07638506 -0.1472574 -0.2370854 -0.10683427 0.12999117 -0.11585897
-0.104775354 -0.12297816 0.083271965 -0.084279075 -0.08670881 0.010488086 -0.06172175 0.1362303

critic.2.bias f4 [32]
00000000: ab11 24be 5f7b acbb 4c1a 8fbd f6b0 5f3e
00000010: 7ee8 b6bd 6487 11be b9d6 10be 1f1d 7f3d
00000020: 1bda cfbd 81cc 2cbe 785f 083d f776 c13e
00000030: 8684 0e3d b12c 47bd 861e ccbc 6178 713d
00000040: fc5d 633e 27d0 703d 8493 d3bd 8d4a f8bd
00000050: e8bb db3d 839d e73d e235 f53d 1ca4 263e
00000060: 34af efba d90c d2bc 412a 4cbd 612f 5abc
00000070: 8e47 083d dd6d dabd 1a27 513d a2e8 eb3e
-0.16022365 -0.0052637304 -0.069874376 0.21844849 -0.08931063 -0.14211804 -0.1414441 0.06228363
-0.10149022 -0.16874887 0.03329417 0.37786075 0.034794353 -0.048626605 -0.024916898 0.058952693
0.22203821 0.05879226 -0.10330871 -0.121235944 0.107292 0.1130934 0.11973168 0.1627354
-0.0018286468 -0.025640892 -0.049844984 -0.01331696 0.033271365 -0.10665486 0.05106268 0.46075922

critic.4.weight f4 [1, 32]
00000000: e204 a8bc 6a8a 06bd 787f 683d fd75 b13e
00000010: b585 02bd be32 5cbb ab93 91bd 5b05 db3d
00000020: a1b6 863d 9d01 ed3b 1f54 903d aa85 803d
00000030: c6fd 6f3d d258 f0bc b5ce 843d c81a c839
00000040: 3db0 8fbd 3d00 b4bd e864 263e f2a6 0cbe
00000050: f2e4 3fbd 730d 8f3d a0d8 35bc c5c0 0b3d
00000060: 54d1 88bc b1ff ff3c b349 6f3d 390a f6bc
00000070: 36ed b9bd bca0 c23d c5f0 10bd 9525 ca3e
-0.02051014 -0.032846846 0.05676219 0.3466033 -0.031865794 -0.003359958 -0.071082436 0.10694381
0.065778024 0.0072328583 0.07047295 0.062754944 0.058591627 -0.029339228 0.06484739 0.00038166926
-0.07016037 -0.08789108 0.1624943 -0.1373556 -0.0468492 0.06984987 -0.011099011 0.034119386
-0.016701378 0.031249853 0.058419894 -0.030034171 -0.090784475 0.09503314 -0.035385866 0.39481798

exp_avg f4 [4]
00000000: f299 b7bb 42da d03b d408 77bc f011 c83b
-0.0056030685 0.0063736746 -0.015077788 0.006105654

exp_avg_sq f4 [4]
00000000: 1868 3d3c ac24 2c3c 853a 513b b840 6a3b
0.011560462 0.01050679 0.003192575 0.0035744142

exp_avg f4 [32, 24]
00000000: 6d15 2638 d7ea de39 f2aa c5b9 4de9 07bb
00000010: 6ec4 b1bb 8b2b 073c 94d7 aa3a aed1 fb39
00000020: e218 ecbb b4b2 cd3a a68b b53a d96c e936
00000030: 3731 093b 82a2 b0ba 9583 dd3a 7e08 1bbb
00000040: a136 10bc eb9b ce39 0590 a9bb ba57 873c
00000050: b106 7a3b 2000 f9ba 5862 343b 62db 98bb
00000060: fb31 ed38 e93a 5438 0b1c f4b8 e66d 0e39
00000070: 36b6 0abb 27f2 10b9 e1b3 4f39 9305 fe36
00000080: 1f3b 1eba 69ec 7939 223c 1337 e585 45b9
00000090: 214e c138 50e4 1bb9 9db9 1339 29bd 16b9
000000a0: bc81 02ba a88b 5b3b 9649 80bb 23f7 5abb
000000b0: 80a6 9139 afe2 91b8 81a8 f139 60a0 8eb9
000000c0: 54e1 9d39 9b11 c339 b967 3239 da03 8fba
000000d0: 361e 09ba 78d1 783a 1b1b 14b8 10c4 5638
000000e0: 06e5 973a 6f8d 8fb9 402e 0437 26dc 03ba
000000f0: d105 5638 89f4 9b39 9f47 35b8 3b98 84b8
00000100: d473 5ebb 6240 833a 23d9 743b 7f0b ae3a
00000110: 5f2d a538 f4be 163a 4bae aab8 0e74 e2b9
00000120: e09b d737 e755 b739 a9fe 0c38 333a 10bb
00000130: 7d6e 2abb 395d 5f3a bdab 6038 f05d 8338
00000140: e388 82ba fd82 d838 e9be d4b6 58cd 79b8
00000150: 2c20 de39 4229 f5b7 184d ab38 921b 17ba
00000160: 81c5 09bb cea2 b73b 690b 7cbb 4191 9fbb
00000170: 4444 333a cd24 d738 0685 81b8 4c3d ffba
00000180: d2bd 0d39 a35b 5539 0a9a 89b8 3df4 81ba
00000190: fc2d 6ebb b637 753b fcde de39 0901 0636
000001a0: 4117 9cba 162c d239 979f 9b39 62e3 30b9
000001b0: 2cab 9039 cca9 ecb7 1b8c 0139 ad46 a3b9
000001c0: f8e3 08bc e199 183b 54ad 6aba ed46 7bba
000001d0: d527 7b39 704d 8139 635e da38 800a 99ba
000001e0: d343 62b8 4828 0f37 01fb 2db9 9ded 9db9
000001f0: f481 b0ba 4b4d 8e3a 6745 4a38 42b5 3938
00000200: 5ee5 ec39 ca5f d638 c465 8339 9473 11b9
00000210: f0ab 34b8 1afa 2537 f050 7c39 7a1f 0cb8
00000220: 2ef6 b1ba 6110 033b 5411 9c3a da50 f03a
00000230: f501 a637 c2a6 1d39 3831 423a 67a1 8739
00000240: 2d80 8e38 613b e0b8 a17c 7cb9 239e 4f3a
00000250: 15fb 713a 0d15 d6ba 7e7a 5038 62f1 0fb8
00000260: 2efd 3a3a 9534 61b9 35c3 3db9 4e50 b1b9
00000270: 18bd 14b9 380d 65b9 fae2 5839 8b2d d039
00000280: d8b8 713b 60e6 6bbb e6c2 c13b b3c1 fa3b
00000290: 3844 1bb9 b00e 16ba bb20 473a 35a5 da3a
000002a0: 37bd 02ba 2d88 9538 dd94 3638 a825 8fb9
000002b0: c524 1d3b 8712 c7ba 4152 01ba ec48 2838
000002c0: e89c d939 3b3f 47ba cfa6 8138 cf69 44ba
000002d0: 2adf f4b9 3afd b239 e16d 81ba cd2a 093a
000002e0: 5a79 bbb9 b7a7 1bbb 372b 4538 0d5a 20bc
000002f0: 2c18 5dba aa66 ec39 6cdc 06bb 4e2d bf39
00000300: b502 5bb8 8d5d 7739 6c86 a539 350a bdba
00000310: 2e03 c6ba 68cf 403a c1bd 2139 5920 8fb8
00000320: fe9f 81b9 5ce5 35b8 5007 d8b9 95dc b0b9
00000330: 4e20 34b8 5b79 8f39 6302 ffb9 f979 13b8
00000340: f420 40bc 97fb 3d3b 643b 66bb 2a9a c5bc
00000350: a205 1dba 3a97 363a f869 b0ba 1c66 11bb
00000360: 20e9 b1b8 0b40 3138 bfb6 c4b9 f7fe 273a
00000370: 1a72 b6ba 7aec 773b 623d e539 2435 a539
00000380: 391b 75bb a14f 393a e43a 9f3a 084c 0f3a
00000390: e917 a63a 1b37 98ba 455c a03a a8d4 97ba
000003a0: c708 3b3c f5a8 b3b9 cb9d 18bc 4aeb ee3c
000003b0: 41be 233b b520 07bb 1a68 d73a d8a9 bcb9
000003c0: 9d78 7ab8 f749 e137 e1bd ac37 1f99 e7b7
000003d0: 160d b43a bf5f 123a 44c1 dbb8 2bb4 3338
000003e0: dfab 87b9 4d5e 2939 29c3 ecb8 cb5f b538
000003f0: 2079 ad38 b818 8235 7701 bd36 98bf ecb8
3.959744e-05 0.0004251811 -0.00037702132 -0.0020738423 -0.0054250276 0.008250128 0.0013034218 0.00048030674
-0.0072051147 0.0015693516 0.0013850823 6.9566127e-06 0.0020933875 -0.0013476165 0.0016900176 -0.0023656185
-0.008802087 0.0003940755 -0.005174639 0.016521323 0.003815096 -0.001899723 0.0027524438 -0.0046648243
0.0001131035 5.0599603e-05 -0.0001164005 0.00013583116 -0.0021165735 -0.00013823119 0.00019808068 7.570439e-06
-0.00060360314 0.0002383456 8.7758835e-06 -0.00018837264 9.21751e-05 -0.00014867005 0.00014088159 -0.00014375582
-0.00049784384 0.003349999 -0.003915022 -0.0033411465 0.00027780607 -6.956362e-05 0.00046092647 -0.0002720384
0.00030113256 0.00037206415 0.00017014043 -0.0010911182 -0.0005230637 0.00094916625 -3.5311194e-05 5.1204173e-05
0.001158864 -0.00027380462 7.8785815e-06 -0.0005030058 5.1026993e-05 0.00029746097 -4.3220465e-05 -6.3226056e-05
-0.003394355 0.0010013694 0.003736087 0.0013278573 7.876264e-05 0.00057505 -8.138696e-05 -0.00043192547
2.5702582e-05 0.00034968482 3.3615772e-05 -0.0022007346 -0.0026005798 0.0008520666 5.3565705e-05 6.264064e-05
-0.0009959008 0.00010324081 -6.340317e-06 -5.9557467e-05 0.0004236711 -2.9225488e-05 8.168275e-05 -0.0005764301
-0.0021022263 0.0056041246 -0.003845895 -0.0048696105 0.00068384805 0.000102588536 -6.175977e-05 -0.0019473224
0.00013517521 0.000203474 -6.561361e-05 -0.0009914708 -0.0036343327 0.003741724 0.00042509276 1.9968159e-06
-0.0011908786 0.00040087168 0.00029682808 -0.00016869375 0.00027593353 -2.821246e-05 0.00012354592 -0.0003114244
-0.008355133 0.0023285078 -0.00089522195 -0.0009585459 0.00023952064 0.00024662493 0.00010412631 -0.0011676103
-5.3945765e-05 8.532843e-06 -0.00016592072 -0.0003012241 -0.0013466463 0.0010856775 4.822519e-05 4.4276247e-05
0.0004518432 0.00010222157 0.00025062088 -0.00013871334 -4.3075474e-05 9.892998e-06 0.00024062744 -3.3407916e-05
-0.0013577396 0.0019998776 0.001190702 0.0018334643 1.9789653e-05 0.00015034809 0.0007407847 0.0002586946
6.794962e-05 -0.000106922125 -0.0002407902 0.00079199875 0.00092308345 -0.0016333178 4.9705144e-05 -3.4318662e-05
0.00071330636 -0.0002147726 -0.00018097165 -0.00033819902 -0.00014184823 -0.00021844066 0.0002068392 0.00039706784
0.0036883857 -0.0035995468 0.0059131263 0.0076524853 -0.00014807365 -0.00057242345 0.0007596125 0.0016681316
-0.00049873017 7.1302384e-05 4.353082e-05 -0.00027303142 0.0023978215 -0.0015188017 -0.0004933216 4.0122235e-05
0.0004150637 -0.00076006696 6.18227e-05 -0.00074925733 -0.00046705577 0.00034139474 -0.0009874665 0.0005232513
-0.00035757833 -0.002375109 4.7008707e-05 -0.009787095 -0.0008434083 0.00045089918 -0.002057816 0.00036464114
-5.221619e-05 0.00023590606 0.00031571405 -0.0014422598 -0.0015107149 0.00073551247 0.00015424845 -6.8247966e-05
-0.00024724 -4.336737e-05 -0.0004120418 -0.00033733682 -4.294543e-05 0.00027365502 -0.00048639168 -3.5161127e-05
-0.011726607 0.002898907 -0.0035130614 -0.024121363 -0.0005989914 0.00069652835 -0.0013459316 -0.0022186106
-8.4834406e-05 4.2259733e-05 -0.0003752019 0.0006408537 -0.0013919503 0.003783016 0.00043724017 0.00031510845
-0.003740026 0.00070690556 0.0012148288 0.00054663466 0.0012671921 -0.0011613102 0.001223453 -0.0011583762
0.011415667 -0.00034267423 -0.0093149645 0.029164929 0.0024985226 -0.002061886 0.0016434223 -0.00035984698
-5.9716975e-05 2.6856533e-05 2.0592417e-05 -2.7608648e-05 0.001373681 0.0005583725 -0.00010478732 4.284472e-05
-0.0002587726 0.00016152226 -0.00011289708 8.6485954e-05 8.271844e-05 9.692949e-07 5.6328095e-06 -0.00011289044

exp_avg_sq f4 [32, 24]
00000000: cbe9 1138 b96a 1437 7c56 4d37 1c68 c539
00000010: a225 1d3b 549a ae3a 3e81 f638 ff64 7135
00000020: bd8c 503b fa48 b939 3505 1a37 6432 af39
00000030: 59ff 9938 f5eb c838 0140 5639 3475 9f39
00000040: 1a81 b73c efbd 283c 20af 573d 69c1 693d
00000050: f009 a039 8bc6 c039 ba0b 6b3a 468f 8d3a
00000060: aa8b 4735 0bd0 8534 d05a 1d35 7345 3c37
00000070: a55f 6238 c23d cc37 efea 4f36 3244 a333
00000080: 464f 1e38 439b 9536 7a4b 2834 b753 8f36
00000090: e6b1 1f36 0111 3036 5681 9f36 0e90 8c36
000000a0: aeed 9239 abf5 1139 2482 803a 06a4 693a
000000b0: ce6e 2337 49fe 3237 266c 8e37 2d0f 9137
000000c0: 6f15 ba35 c92c e734 57dc ef34 01ff a737
000000d0: 5cd4 9a38 1fd1 7b38 ee64 8536 0276 4a33
000000e0: 3281 d438 93df 5537 c68c c734 f8bc 7c37
000000f0: 5f36 4c36 421d 6a36 bdeb b936 3ee2 b336
00000100: df47 7a3a d4c7 a339 883c 013b 42e5 f53a
00000110: b709 9d37 88cd 7537 ff9b a937 b058 8b37
00000120: 1ece d535 d1b4 c534 2e69 db34 7725 5237
00000130: a76e e238 bff7 4238 0edf 7d36 8d6f 3d33
00000140: 2d6d e338 4522 7337 1151 f134 69e8 6137
00000150: 6efe 2f36 35eb 1d36 3f29 a336 f7fa 2637
00000160: 7868 273a 5ebd d639 5d9e cd3a 631b e53a
00000170: 2c53 3837 6e21 1e37 09a8 9537 f3e4 4038
00000180: 8a85 9f36 5aee 5c35 1535 7835 d8fd 0a38
00000190: 3640 4039 1fde bf38 4471 1b37 76ba ba33
000001a0: 24a5 6f39 527d 0738 9760 5a35 e994 f637
000001b0: 9345 8936 9be2 b136 a9aa 8c37 31bc e237
000001c0: aead e13a 92a6 413a 405b 523b c081 6d3b
000001d0: 1c13 6637 e765 9937 c319 a438 5ee6 c638
000001e0: b9ab bf35 0809 7334 6b09 ab34 89fd 1d37
000001f0: 1bfe 8538 3d5e 0938 c850 7536 8305 f532
00000200: bb47 9d38 43ce 3237 be31 9b34 69b3 2b37
00000210: a49b 0336 9980 2d36 5421 a936 d8b6 df36
00000220: ed71 f639 d1d3 5239 b6a7 923a a9ab ab3a
00000230: 74de 1f37 9b6e 2f37 ae87 b137 861e c237
00000240: 26c4 a235 804a 5434 7ee8 d834 5ddb 0537
00000250: f169 7338 cbec d337 1c13 6336 f8f0 d232
00000260: c564 6338 05e0 0737 e08c 7334 4ebe 0937
00000270: c4b4 f835 824a 1d36 278e 8336 8124 d636
00000280: a711 b239 2e60 4b39 40e3 643a 728f 963a
00000290: b88a 0037 a85a 1937 81ca 6e37 7688 e937
000002a0: 3651 7136 c32c d734 bd1c 2835 b49e 5937
000002b0: a100 0639 7479 4138 0b1c c136 8915 8c33
000002c0: a63e e838 47f2 b237 f6a6 de34 9ac8 8237
000002d0: 22a6 1936 be61 4236 98b9 0937 f446 3c37
000002e0: e378 363a f333 b839 016c 083b 718a ee3a
000002f0: 56a8 2837 f632 4437 a104 2938 afc7 0b38
00000300: 7738 af36 ffd7 9035 7810 bf35 1261 2238
00000310: 385e 8b39 a99a 1b39 b16c 5d37 abe3 0b34
00000320: 02b0 a739 20bc 3f38 b1b7 aa35 e51b 1e38
00000330: 98fc 1637 5216 1f37 ff72 9337 e65c dd37
00000340: 8c50 0f3b 90ce 873a 6ea2 cd3b 1eb5 be3b
00000350: 61f9 3738 3c50 2538 defc 8d38 41b3 cf38
00000360: 494e b037 7878 a436 4517 fb36 99e0 4c39
00000370: f227 a33a b860 3a3a a293 9338 3d77 0e35
00000380: 26d7 e53a 4484 5b39 5be8 a836 2b39 4139
00000390: fed7 4638 6542 6e38 2569 e438 c949 3339
000003a0: 32ad 3c3c c9c1 ab3b c65e f43c a254 f83c
000003b0: 54dd 5239 bb4a 6639 a182 e139 6941 243a
000003c0: c391 c335 d856 4634 41b3 8f34 4624 be36
000003d0: 3fc8 4838 16fa a737 b15b 2836 2a1c 1033
000003e0: 32b7 5538 43dc db36 53e2 5834 255d c336
000003f0: 38c7 c535 4607 d735 4413 2736 49f8 af36
3.478843e-05 8.846336e-06 1.2239088e-05 0.00037652336 0.002397873 0.001332114 0.00011754267 8.9926465e-07
0.0031822168 0.00035340321 9.180328e-06 0.00033416145 7.343171e-05 9.5806936e-05 0.00020432474 0.00030414166
0.022400428 0.01029919 0.052657247 0.057069216 0.00030524982 0.0003676902 0.0008966286 0.0010800145
7.4336515e-07 2.4924552e-07 5.861921e-07 1.1221843e-05 5.3971675e-05 2.4347453e-05 3.0982153e-06 7.6026836e-08
3.7743965e-05 4.458621e-06 1.5673677e-07 4.271478e-06 2.3796397e-06 2.6235941e-06 4.753626e-06 4.1890953e-06
0.00028024375 0.00013919796 0.000980441 0.0008912686 9.741356e-06 1.0668832e-05 1.697808e-05 1.7292414e-05
1.3864318e-06 4.3059688e-07 4.4677537e-07 2.0026697e-05 7.382847e-05 6.0037823e-05 3.9754586e-06 4.7139117e-08
0.00010133012 1.2747844e-05 3.7169065e-07 1.5064368e-05 3.0430017e-06 3.4885747e-06 5.540873e-06 5.3609538e-06
0.0009547453 0.00031238666 0.0019719917 0.0018760341 1.8720382e-05 1.4650992e-05 2.0219011e-05 1.661139e-05
1.5929725e-06 3.682567e-07 4.0868457e-07 1.2525698e-05 0.000107971304 4.6483936e-05 3.7829773e-06 4.4106446e-08
0.00010844539 1.4491908e-05 4.4948732e-07 1.3465157e-05 2.622513e-06 2.3531732e-06 4.86258e-06 9.952803e-06
0.00063861115 0.0004095835 0.0015687455 0.0017479475 1.098662e-05 9.425317e-06 1.7840432e-05 4.5989593e-05
4.7541153e-06 8.2303234e-07 9.2464444e-07 3.3138174e-05 0.00018334467 9.148963e-05 9.265092e-06 8.695217e-08
0.00022854336 3.230322e-05 8.1351885e-07 2.9394827e-05 4.0910177e-06 5.3013914e-06 1.676877e-05 2.7028933e-05
0.0017217898 0.00073871866 0.0032097846 0.0036240667 1.3713518e-05 1.8286473e-05 7.824928e-05 9.484285e-05
1.4280587e-06 2.2634424e-07 3.1858085e-07 9.41696e-06 6.389265e-05 3.275111e-05 3.6554866e-06 2.852426e-08
7.499704e-05 1.0657651e-05 2.8907192e-07 1.0234166e-05 1.9611116e-06 2.5853863e-06 5.0404724e-06 6.6672037e-06
0.00047005658 0.00020106068 0.0011188898 0.0013097423 9.528932e-06 1.0456565e-05 2.1163225e-05 2.3140816e-05
1.2127027e-06 1.9771142e-07 4.0402296e-07 7.978492e-06 5.803438e-05 2.5263425e-05 3.383676e-06 2.4556797e-08
5.4214866e-05 8.098786e-06 2.2682389e-07 8.210145e-06 1.853005e-06 2.3438192e-06 3.920653e-06 6.3819466e-06
0.00033963958 0.00019395418 0.00087313727 0.0011486842 7.6616925e-06 9.140618e-06 1.4233055e-05 2.7839309e-05
3.595907e-06 4.007944e-07 6.2626697e-07 1.2971159e-05 0.0001277947 4.6127898e-05 5.755113e-06 6.523175e-08
0.00011074291 2.1332073e-05 4.1472202e-07 1.559062e-05 2.2895479e-06 2.8965146e-06 8.209048e-06 1.1222193e-05
0.00069607625 0.0003513392 0.0020816328 0.0018199218 1.0052774e-05 1.1694376e-05 4.029705e-05 3.3326152e-05
5.22198e-06 1.0791699e-06 1.4235402e-06 3.8714214e-05 0.00026582344 0.00014839567 1.3197933e-05 1.3028209e-07
0.00031983858 4.5713154e-05 1.2719448e-06 3.7696114e-05 8.999508e-06 9.482335e-06 1.7577315e-05 2.6388512e-05
0.0021868078 0.0010361243 0.0062754666 0.0058199307 4.3862852e-05 3.941379e-05 6.770504e-05 9.903918e-05
2.101729e-05 4.9016053e-06 7.483092e-06 0.00019538625 0.0012447818 0.0007109749 7.037005e-05 5.3072637e-07
0.0017535433 0.0002093474 5.03384e-06 0.00018427211 4.7408037e-05 5.6805457e-05 0.00010891472 0.00017098257
0.011515902 0.005241607 0.029830348 0.030313794 0.00020109612 0.00021962349 0.0004301267 0.00062658504
1.4571054e-06 1.847178e-07 2.676625e-07 5.666664e-06 4.787021e-05 2.0024407e-05 2.5087322e-06 3.3553228e-08
5.095377e-05 6.5523504e-06 2.0198904e-07 5.8222963e-06 1.4735624e-06 1.6020865e-06 2.4896153e-06 5.2443106e-06

exp_avg f4 [32]
00000000: 21e6 d83b 143f 0b3a f0a2 95ba 485e 583a
00000010: 339d 933a 0bd8 08ba ccfa 40ba 6f7d 14ba
00000020: 46e1 3b39 62fc 5c3b 9864 9439 8996 913a
00000030: e1a5 3dba 0503 c2b8 02c9 4ab9 3179 bf3a
00000040: 294e 433a bb10 e73a be53 29ba 0329 51ba
00000050: 11d7 05b9 8861 e338 77e1 b3ba 1390 993a
00000060: da9f 82ba 68ae 2aba 5dd0 9fb9 2326 5db7
00000070: e914 033a 9d63 36bb 1f85 5d3a 7c43 0eba
0.0066192304 0.00053118286 -0.0011416357 0.0008253795 0.0011262059 -0.0005220181 -0.00073615904 -0.0005664443
0.0001791763 0.0033719768 0.00028303708 0.0011107485 -0.0007234496 -9.251203e-05 -0.00019339102 0.0014608261
0.00074503064 0.0017628887 -0.0006459317 -0.00079788285 -0.00012763987 0.0001084237 -0.001372381 0.0011715911
-0.0009965852 -0.0006510974 -0.00030482086 -1.3181506e-05 0.0005000369 -0.002783037 0.00084503175 -0.0005426926

exp_avg_sq f4 [32]
00000000: fd4f 5b3b 0fd5 3038 e087 df38 bd55 ee38
00000010: 1dc2 7c39 4d42 a738 bce8 7438 0d3e f838
00000020: f80c b039 5939 f23a fdf9 6338 afe5 8539
00000030: 736f 4238 4086 0639 855a 6d39 3eda 8238
00000040: 1302 f438 5b8d 5139 7139 9838 f2fa fb37
00000050: e549 9938 165e 9438 22bc de39 62f1 7938
00000060: db25 3339 1618 8b38 34da e738 1af6 3238
00000070: cff5 b937 fe75 7039 5433 b338 5a17 a438
0.0033464425 4.2160096e-05 0.00010658777 0.000113646944 0.00024104906 7.97553e-05 5.8390884e-05 0.000118371194
0.00033578998 0.0018480226 5.4353837e-05 0.00025538864 4.6357e-05 0.00012829248 0.00022635802 6.239534e-05
0.00011635213 0.00019984452 7.258624e-05 3.0038387e-05 7.3093724e-05 7.074715e-05 0.0004248331 5.959103e-05
0.00017084873 6.632523e-05 0.00011055582 4.2667707e-05 2.2168182e-05 0.00022932139 8.544946e-05 7.824479e-05
