2026-01-31_00-50-28/model_299.pt (torch, 62651 bytes, 36 tensors)

std f4 [4]
0	0x3d7df531	0.06200141
1	0x3d96ef03	0.073698066
2	0x3dc52d81	0.0962782
3	0x3dca87c5	0.09889177

actor.0.weight f4 [32, 24]
0	0x3faf6088	1.3701334
1	0xbd532bd5	-0.051555473
2	0x3e242088	0.16028035
3	0xbd6571fd	-0.05601691
4	0x3e0892d6	0.13337263
5	0xbe123880	-0.14279366
6	0x40133f41	2.3007357
7	0xbe9127fc	-0.28350818
8	0x3e480861	0.19534446
9	0x3db8e94d	0.090288736
10	0x3ef43bae	0.47701782
11	0xbd042c58	-0.032268852
12	0x3d92f652	0.07175888
13	0x3ec1bfb1	0.3784156
14	0x3dd44a3d	0.10365722
15	0x3d11b750	0.03557521
16	0xbd061f21	-0.03274453
17	0x3c8569ee	0.016285863
18	0xbd420f0c	-0.04737763
19	0x3d10bae0	0.035334468
20	0x3d5f9478	0.05458495
21	0x3e052442	0.13002113
22	0xbcf8cd6a	-0.030371387
23	0x3d16eb5d	0.036845554
24	0xc00fe836	-2.248548
25	0xbe17255e	-0.14760348
26	0x3c7554e9	0.014973857
27	0xbe4dcef7	-0.20098482
28	0xbe3fc000	-0.18725586
29	0xbd0468cd	-0.03232651
30	0xbf8ebd4e	-1.1151521
31	0xbcd50a67	-0.026005937
32	0x3f6a3ec1	0.91502005
33	0x3b0e686c	0.002172972
34	0xbf028995	-0.50991184
35	0xbdccc17f	-0.09997844
36	0x3d5ae0ae	0.053436927
37	0xbe9b3656	-0.30314893
38	0x3c8b7814	0.017025031
39	0xbe117ed5	-0.14208539
40	0xbcb9c503	-0.02267695
41	0xbd6a0500	-0.057133675
42	0x3ce35d95	0.027754584
43	0xbd217f8c	-0.03942828
44	0x3daab0f9	0.08334536
45	0xbd5d9081	-0.054092888
46	0xbe0b2f86	-0.13592348
47	0x3defa140	0.11700678
48	0x3f232a37	0.6373629
49	0xbecd6127	-0.40113184
50	0x3e162538	0.14662635
51	0x3ebc15eb	0.36735472
52	0xbd8b3238	-0.06796688
53	0xbdb689e9	-0.08913023
54	0xbf136c4e	-0.57587135
55	0xbfb0d1c4	-1.3814015
56	0x3dc72521	0.09723879
57	0xbe123b1a	-0.14280358
58	0x3f4561e7	0.7710251
59	0x3e91b1d8	0.28455997
60	0x3e4fbee5	0.20287664
61	0x3f48576a	0.78258383
62	0x3d9f8247	0.0778852
63	0x3f272e52	0.65305054
64	0x3e4e38e2	0.20138887
65	0x3dfec94c	0.12440738
66	0xbd895163	-0.067049764
67	0x3d00fc89	0.031490836
68	0x3dfa2df7	0.12215798
69	0x3e9d1354	0.3067881
70	0x3cea6676	0.02861331
71	0xbda4dd1c	-0.08049986
72	0x3f6dfca0	0.929636
73	0xbe00c4cc	-0.12575072
74	0xbe8385e4	-0.25688088
75	0x3f05882b	0.521609
76	0xbe0fe628	-0.14052641
77	0x3d72b306	0.05925276
78	0xbd89e367	-0.06732827
79	0xbf972454	-1.1807961
80	0x3e325aa0	0.17417383
81	0x3eed64ff	0.46366116
82	0xbf456e79	-0.7712169
83	0xbee797b8	-0.4523294
84	0xbb53f8b1	-0.0032344277
85	0x3f17bf83	0.592766
86	0xbe595727	-0.21224652
87	0x3e3f3b96	0.18675074
88	0x3e332e4c	0.1749813
89	0x3dad2a34	0.08455315
90	0xbc56e80c	-0.013116848
91	0xbdab9c7d	-0.08379457
92	0xbdfa6b34	-0.122274786
93	0x3dc4e759	0.096144386
94	0xbe57b4f1	-0.21065117
95	0xbc41d31a	-0.011830116
96	0xbe31b0cf	-0.17352603
97	0x3ed0989a	0.40741426
98	0x3f4d83b7	0.80279106
99	0xbea57d69	-0.32322243
100	0x3e1f4442	0.15553382
101	0x3e47b1bb	0.19501393
102	0x3f122361	0.57085234
103	0x3f9e7a70	1.2381115
104	0x3d2de2b0	0.042452514
105	0xbf0dab92	-0.5533992
106	0x3f5d80e4	0.86524796
107	0x3ed094c7	0.40738508
108	0x3e86f456	0.2635829
109	0x3f19518f	0.59890074
110	0x3f13099f	0.57436556
111	0xbea02602	-0.31278998
112	0xbe3ea2cc	-0.1861679
113	0x3d00ad42	0.03141523
114	0x3d513e22	0.051084645
115	0x3dc14023	0.09436061
116	0xbed321a5	-0.41236606
117	0x3f48f11c	0.78492904
118	0x3ee8ca90	0.45467043
119	0x3e085cdc	0.13316673
120	0xbf3e9fa4	-0.7446234
121	0xbefe0193	-0.49610576
122	0xbda1db6e	-0.07903181
123	0x3daac333	0.083380125
124	0x3dc3f143	0.095675014
125	0xbe97534e	-0.29555744
126	0x3f1740a8	0.5908303
127	0x3ec7cd08	0.39023614
128	0x3d74a3da	0.059726574
129	0xbf027f4c	-0.5097549
130	0xbe96e175	-0.29468885
131	0x3ed0ec81	0.40805438
132	0x3e84d195	0.25941148
133	0xbf46f346	-0.77714956
134	0x3c0f760a	0.00875617
135	0xbeaf464c	-0.3423332
136	0xbe03516b	-0.12824027
137	0xbe2e906b	-0.17047279
138	0xbd7b2279	-0.061312173
139	0xbbe43980	-0.0069648623
140	0x3e4ad412	0.19807461
141	0xbe8b8492	-0.2724958
142	0xbd819737	-0.0632767
143	0x3e906e88	0.2820933
144	0xbef2e5a2	-0.4744082
145	0xbd4c48ee	-0.04987424
146	0x3fd8090a	1.6877759
147	0x3e876d03	0.26450357
148	0xbea5be46	-0.3237173
149	0xbdd248fc	-0.10267827
150	0xbed4d0cf	-0.41565558
151	0xbf020e00	-0.5080261
152	0x3e534d64	0.20634991
153	0xbdff0b38	-0.12453312
154	0x3f6d8058	0.9277396
155	0x3e6b06b3	0.22951774
156	0x3f2edc55	0.6830495
157	0xbf82e91f	-1.0227393
158	0x3e237286	0.15961656
159	0x3e324316	0.17408404
160	0x3dc8d0ec	0.09805474
161	0xbc5aef09	-0.0133626545
162	0xbd833c20	-0.06407952
163	0xbd44e2f0	-0.048067987
164	0x3f15a7c4	0.58459115
165	0xbf128a9d	-0.5724276
166	0x3d028e15	0.03187378
167	0xbeca0329	-0.39455536
168	0x3f515ee5	0.8178542
169	0xbeb651a3	-0.3560916
170	0x3ed58b91	0.41708043
171	0x3e2d51e6	0.16925773
172	0x3e8a9271	0.2706485
173	0x3e8014cf	0.25015876
174	0x3f239702	0.63902295
175	0xbecb6432	-0.3972488
176	0x3f244b48	0.6417737
177	0x3ed53635	0.4164292
178	0xbeb921c1	-0.36158565
179	0xbd87c8bf	-0.06630086
180	0xbe8a5e24	-0.2702495
181	0x3e8bb1f5	0.27284208
182	0xbe629851	-0.22128417
183	0x3f0233ad	0.508601
184	0xbd19db41	-0.037562612
185	0x3d301345	0.042987127
186	0xbc9f7071	-0.019462796
187	0x3bad4aaf	0.005288444
188	0xbe93bc09	-0.28854397
189	0x3e965e3c	0.2936877
190	0xbddfbaa7	-0.10924273
191	0x3e28505f	0.16436909
192	0x3e816a59	0.2527645
193	0x3f0b43ab	0.5440013
194	0xbdaf412c	-0.085573524
195	0xbe9e2779	-0.3088949
196	0xbe597f51	-0.21239974
197	0xbdc70b3e	-0.09718941
198	0x3e289a37	0.16465078
199	0x3f92c1c6	1.1465385
200	0xbe055dde	-0.13024089
201	0x3eaa5b65	0.33272853
202	0x3e1f6984	0.15567595
203	0xbd5ff947	-0.05468109
204	0x3e983ef6	0.29735535
205	0x3fa8fbe0	1.3201866
206	0x3b22218b	0.0024739231
207	0x3f365853	0.7122852
208	0x3d993022	0.07479884
209	0xbddadd6d	-0.10686765
210	0x3cf699f9	0.030102717
211	0xbd09786b	-0.033562105
212	0x3e205652	0.15657929
213	0x3f523113	0.8210613
214	0xbdc9625a	-0.09833212
215	0x3e31d7c3	0.17367463
216	0x3fae2877	1.3606099
217	0x3eee9939	0.46601275
218	0x3ed0a5f8	0.40751624
219	0xbd8fab55	-0.07015101
220	0x3df71891	0.120652325
221	0x3d0809c3	0.033212435
222	0x400336dc	2.0502234
223	0xbe30e6f6	-0.17275605
224	0x3e68c9d5	0.22733243
225	0xbd3e6447	-0.04648235
226	0xbf179b43	-0.59221286
227	0xbdc2f017	-0.0951845
228	0x3d81d401	0.06339265
229	0xbeacab6c	-0.33724535
230	0x3e5773ad	0.2104022
231	0xbe6bd0ed	-0.23028918
232	0xbc9ca477	-0.019121392
233	0x3ccd067d	0.025027508
234	0x3b9ecd0d	0.0048462213
235	0x3d198381	0.037478928
236	0xbe469438	-0.19392478
237	0xbe05971d	-0.13045926
238	0x3d4f6ba3	0.05063976
239	0x3e0be6e7	0.13662301
240	0x3f2c45d6	0.6729406
241	0x3f2b53ed	0.66924936
242	0x3ee7fbab	0.45309195
243	0x3d406f91	0.046981398
244	0xbc14d20d	-0.009083283
245	0x3ceecb17	0.029149575
246	0x3f30904d	0.68970186
247	0xbe830db9	-0.25596407
248	0x3d8cf024	0.06881741
249	0xbf32c5a8	-0.6983285
250	0xbed6245f	-0.41824624
251	0xbee25b2b	-0.4421018
252	0xbeb9c03d	-0.3627948
253	0xbefcd36b	-0.4938005
254	0xbed18baa	-0.40926868
255	0xbe7341a3	-0.23755507

actor.0.bias f4 [32]
0	0x3e1dd6d7	0.15413986
1	0xbf04b378	-0.5183635
2	0xbe871228	-0.2638104
3	0xbe12bcf3	-0.14329891
4	0xbdedfa8d	-0.116200544
5	0xbdc38750	-0.09547293
6	0xbe5a3229	-0.21308197
7	0xbd6088fd	-0.054818142
8	0x3e3faf57	0.1871923
9	0x3e2cf172	0.16888979
10	0xbe25b4d1	-0.16182257
11	0xbe23c31b	-0.15992396
12	0xbe6a94af	-0.22908281
13	0xbdf69036	-0.12039225
14	0xbbe6d64b	-0.0070445887
15	0xbdccc668	-0.099987805
16	0x3e04ba75	0.12961753
17	0xbde5d804	-0.11222842
18	0xbea07420	-0.31338596
19	0xbe2aaa41	-0.16666509
20	0xbdbe08bc	-0.0927901
21	0xbe15624f	-0.14588283
22	0xbe0a1c3f	-0.13487338
23	0xbbdd694e	-0.006756938
24	0x3daf5a78	0.085621774
25	0xbdc5ca52	-0.0965773
26	0xbd2b7fe5	-0.041870017
27	0xbe29ff0d	-0.166012
28	0xbe9711e2	-0.2950583
29	0xbe4def7d	-0.20110889
30	0xbe52b20c	-0.20575732
31	0xbe5ead28	-0.21745741

actor.2.weight f4 [32, 32]
0	0x3e055efa	0.13024512
1	0xbcc18aa1	-0.023625674
2	0xbc9dff27	-0.019286705
3	0xbe47ff0c	-0.19530886
4	0xbd95456d	-0.072886325
5	0x3e008c9c	0.12553638
6	0x3df29deb	0.11846527
7	0x3e098172	0.13428286
8	0x3d2c5ebe	0.04208254
9	0x3e1687b9	0.14700212
10	0x3e7f13ce	0.24909899
11	0xbc99cf13	-0.018775498
12	0x3e22066c	0.15822762
13	0xbd30576d	-0.043052126
14	0x38266a4a	3.9676474e-05
15	0xbe1be009	-0.15222181
16	0xbe18339c	-0.14863437
17	0xbe555b54	-0.2083562
18	0x3e075ac9	0.13218226
19	0x3dbcc5e9	0.09217436
20	0x3e50fcc5	0.20408924
21	0x3d33324e	0.043749146
22	0xbcd79972	-0.026318286
23	0x3df38f7c	0.11892602
24	0x3cfc7802	0.030818943
25	0x3e5240fd	0.20532604
26	0x3e98ff46	0.29882258
27	0x3e8e5b60	0.2780409
28	0xbdd18594	-0.10230556
29	0x3ed954a8	0.424474
30	0xbe1c6f14	-0.15276748
31	0xbe2ea2f1	-0.17054345
32	0xbe18f0df	-0.14935635
33	0x3c9dbbdd	0.01925462
34	0x3e5641b5	0.20923503
35	0x3e3a8dc7	0.18218146
36	0xbe6d822e	-0.23194191
37	0x3d060258	0.03271708
38	0x3d7e44f3	0.062077474
39	0x3e2c910c	0.16852206
40	0x3db4266a	0.087963894
41	0xbea944b0	-0.33060217
42	0xbe444106	-0.1916543
43	0x3b42cead	0.002972524
44	0x3e3bfc2f	0.18357919
45	0xbdc88245	-0.09790472
46	0xbd3b0645	-0.045660276
47	0x3ea18900	0.31549835
48	0xbe247523	-0.16060309
49	0xbe5825a6	-0.21108112
50	0x3ca0e601	0.019640924
51	0xbc1b47ba	-0.00947755
52	0x3ce0aabc	0.027425162
53	0xbd17f172	-0.037095495
54	0xbe9109bc	-0.2832774
55	0xbde1132b	-0.10989984
56	0x3de9191e	0.11381744
57	0x3e3f007a	0.18652526
58	0x3caf365b	0.021388223
59	0xbbb0aa7d	-0.0053914175
60	0x3c10171f	0.008794575
61	0xbe616869	-0.22012486
62	0x3e28a48a	0.16469017
63	0x3e2e9576	0.17049202
64	0xbd1a9d50	-0.03774768
65	0x3d1738b2	0.036919303
66	0x3e9ed651	0.31022885
67	0x3e3c97d0	0.18417287
68	0x3e32cf80	0.17461967
69	0x3e129d90	0.14317918
70	0x3da6e083	0.08148291
71	0x3d35cbbd	0.044383753
72	0xbe36ca7e	-0.17850682
73	0xbd4849da	-0.048898555
74	0x3da9df1a	0.08294506
75	0x3d27e419	0.040989015
76	0x3e2494c8	0.1607238
77	0xbe0939b0	-0.13400912
78	0x3ce375ca	0.027766127
79	0x3e3df10f	0.18548988
80	0xbd403124	-0.046921864
81	0xbbc18727	-0.005906004
82	0x3e7eea1f	0.24893998
83	0xbbb603fb	-0.0055546737
84	0xbce770f7	-0.028252108
85	0xbdf844e6	-0.12122516
86	0x3df1e930	0.11812055
87	0xbddf8eb6	-0.10915892
88	0x3d1fbbf8	0.03899762
89	0x3e26d95e	0.16293857
90	0x3e021cc4	0.12706286
91	0x3b488c87	0.003060134
92	0x3d1baaa9	0.03800455
93	0xbdc7e5bb	-0.097606145
94	0x3e5984b5	0.2124203
95	0xbd33a392	-0.043857165
96	0x3e4cc954	0.19998676
97	0xbd8e6713	-0.069532536
98	0x3d795eab	0.060881298
99	0x3da64266	0.08118133
100	0xbe275756	-0.1634191
101	0xbd34a335	-0.04410096
102	0xbd726397	-0.059177008
103	0x3d6a90e5	0.05726709
104	0x3d7d9342	0.061908014
105	0x3dda87b8	0.106704175
106	0x3b527277	0.0032111683
107	0xbe1fb4d3	-0.15596323
108	0xbc47609d	-0.0121690305
109	0xbc7093cb	-0.014683674
110	0xbdb4d287	-0.088292174
111	0xbc869088	-0.01642634
112	0x3cd67f9b	0.026183894
113	0xbea3cf60	-0.31994152
114	0x3e008fc1	0.12554838
115	0x3e4931f3	0.1964796
116	0x3da7341e	0.081642374
117	0xbe0ac8b8	-0.1355313
118	0xbe362414	-0.177872
119	0x3e91e6e9	0.28496483
120	0xbcef06ea	-0.029178102
121	0xbd4ee70b	-0.05051331
122	0xbdc0cb2c	-0.09413752
123	0x3e494b4e	0.19657633
124	0x3d044d0e	0.032300048
125	0x3eaa8b3a	0.33309346
126	0x3e1b6c65	0.15178068
127	0xbe350485	-0.17677505
128	0x3dbe2993	0.092852734
129	0xbe088861	-0.13333274
130	0xbe2066df	-0.15664242
131	0xbe4210cd	-0.18951721
132	0xbe282f18	-0.16424215
133	0x3d9938a9	0.0748151
134	0xbda5df15	-0.0809919
135	0xbcb2c054	-0.021820225
136	0x3c2660af	0.010154887
137	0xbe2e8c5b	-0.17045729
138	0x3d66bf82	0.05633498
139	0xbe15d3b3	-0.14631538
140	0xbb3406d6	-0.0027469895
141	0xbd47f3e4	-0.048816577
142	0xbe2c3df2	-0.16820505
143	0xbddfd52e	-0.10929333
144	0x3d288fe5	0.041152854
145	0xbd350712	-0.044196196
146	0x3df74f78	0.12075704
147	0x3d76634e	0.060153298
148	0x3e43a7ad	0.19106932
149	0xbe062ac1	-0.13102247
150	0x3cd39423	0.025827473
151	0xbddad986	-0.106860206
152	0xbdb8c9f8	-0.090228975
153	0xbd1d2c1f	-0.038372155
154	0xbd765d62	-0.06014765
155	0xbe3f290f	-0.18668006
156	0x3daaf042	0.08346607
157	0x3e228a71	0.15873124
158	0x3e40b6d1	0.18819739
159	0x3cbd4746	0.023105275
160	0x3dbff0d6	0.09372108
161	0x3e65caea	0.22440687
162	0xbe2e8337	-0.17042242
163	0x3dadf0fc	0.0849323
164	0x3d75c3fa	0.06000135
165	0x3e1f64e9	0.15565838
166	0xbe8fec7a	-0.28110105
167	0x3e1bcd23	0.15214972
168	0xbd24d1b8	-0.040239066
169	0xbd7afbaf	-0.06127518
170	0xbe15e85e	-0.14639422
171	0xbea771bb	-0.32703957
172	0x3da8f022	0.08248927
173	0xbbc3e7ac	-0.005978545
174	0x3d952898	0.07283133
175	0xbe5059d0	-0.20346761
176	0xbe016023	-0.1263433
177	0x3e2a09b7	0.16605268
178	0x3e16523b	0.14679806
179	0x3e06ab7f	0.13151358
180	0x3cc6cbf6	0.024267178
181	0x3da86789	0.08222873
182	0x3d98ce01	0.07461167
183	0xbe929ae1	-0.28633788
184	0xbda2fd06	-0.07958417
185	0xbe5ad5d2	-0.21370628
186	0xbde9babb	-0.11412569
187	0xbe384cfa	-0.17998114
188	0xbc5eb825	-0.013593708
189	0xbe3f9c16	-0.18711886
190	0xbde25538	-0.110514104
191	0xbe31d396	-0.1736587
192	0xbe1f62f9	-0.15565099
193	0xbe06ae78	-0.13152492
194	0x3c592efd	0.013255832
195	0xbddc9b53	-0.10771813
196	0x3c184024	0.009292636
197	0x3e909477	0.2823827
198	0x3d053573	0.032521676
199	0xbe09bf04	-0.13451773
200	0xbf0748ba	-0.52845347
201	0xbde95e53	-0.11394944
202	0x3e0abe2d	0.13549109
203	0x3e03efb7	0.12884413
204	0x3d4bee08	0.04978755
205	0x3db203ad	0.08692107
206	0x3dfeb435	0.124367155
207	0xbc0a5225	-0.008442436
208	0x3d0e1a69	0.034693155
209	0x3ca3b1f4	0.019982316
210	0x3d24b148	0.04020813
211	0x3e63161e	0.22176406
212	0xbe0f7f4a	-0.140134
213	0x3c3cdb2d	0.011526865
214	0x3d048fbe	0.032363646
215	0x3d497263	0.049181353
216	0x3d2fbae6	0.04290285
217	0x3e22a80f	0.15884422
218	0x3e8ce4e7	0.2751839
219	0x3e28658a	0.16444984
220	0x3bdb5177	0.006693061
221	0xbdade936	-0.08491747
222	0xbc35430b	-0.011063348
223	0x3dd2195f	0.102587454
224	0xbc72e511	-0.0148251215
225	0x3e4bf9dc	0.19919533
226	0x3dcfc09c	0.10144159
227	0xbcdeff2c	-0.027221285
228	0xbe65581f	-0.22396897
229	0x3cc70e25	0.024298737
230	0x3e8da66e	0.27666038
231	0xbdc8409b	-0.097779475
232	0xbeac2f0f	-0.33629653
233	0x3e4022f0	0.18763328
234	0xbe28b2af	-0.16474412
235	0xbe165c30	-0.14683604
236	0x3e2b2402	0.16712955
237	0xbccecf5c	-0.025245361
238	0xbdad2c9d	-0.08455775
239	0x3d84b05f	0.064789526
240	0xbe9b5e43	-0.30345353
241	0x3d8b9cce	0.068170175
242	0xbd536580	-0.05161047
243	0x3d6cd2ec	0.05781834
244	0xbdc22d0d	-0.09481249
245	0xbd2cfeeb	-0.042235296
246	0xbeb698ff	-0.35663602
247	0xbcc23821	-0.023708405
248	0xbe16572a	-0.14681688
249	0x3dfc7fcb	0.12329062
250	0x3e8b820a	0.2724765
251	0x3da423a1	0.08014608
252	0x3de68f08	0.1125775
253	0xbe668145	-0.2251025
254	0x3e1d9064	0.15387112
255	0x3dfe082e	0.12403904

actor.2.bias f4 [32]
0	0xbe3e1fd8	-0.18566835
1	0xbdc1942a	-0.09452088
2	0xbe7d6f02	-0.24749377
3	0xbdc52e4b	-0.0962797
4	0xbad490aa	-0.001621743
5	0xbd35df4b	-0.044402402
6	0x3d741c25	0.059597153
7	0x3c125af3	0.008932817
8	0xbd361d5d	-0.044461597
9	0xbe4251bc	-0.18976492
10	0x3d5e1cb9	0.05422661
11	0xbe25625e	-0.16150805
12	0xbe920641	-0.28520396
13	0xbde1d527	-0.11026984
14	0xbcba8fc1	-0.022773625
15	0x3ccb1c02	0.024793629
16	0xbdf97935	-0.121813215
17	0xbd729630	-0.05922526
18	0xbe0337ca	-0.1281425
19	0xbd9fca89	-0.078023024
20	0xbe648510	-0.22316384
21	0xbd39c366	-0.045352362
22	0x3b0635f7	0.0020478943
23	0xbe1c1743	-0.15243249
24	0x3d372bf0	0.044719636
25	0xbe60918b	-0.2193052
26	0xbe34d267	-0.17658387
27	0xbd1c3785	-0.038138885
28	0xbd565b1e	-0.05233299
29	0x3d4cfab4	0.050043777
30	0xbe203ea5	-0.15648897
31	0xbe097f8b	-0.1342756

actor.4.weight f4 [4, 32]
0	0xbe25b2ff	-0.16181563
1	0xbdcbd2a0	-0.09952283
2	0xbe1871c0	-0.14887142
3	0xbdb2b7f4	-0.087264925
4	0x3a20a35a	0.0006127857
5	0x3dbf8b99	0.09352798
6	0xbd0c12b8	-0.03419754
7	0x3d71fe42	0.05908037
8	0x3e13af31	0.14422299
9	0x3c34bf00	0.011031866
10	0x3d9924d2	0.07477726
11	0x3d299db7	0.041410174
12	0xbe17a77b	-0.14809982
13	0xbcde4d07	-0.027136339
14	0xbe1c3b26	-0.15256938
15	0xbe102a18	-0.14078557
16	0xbd448cb6	-0.047985755
17	0xbdef47e1	-0.11683632
18	0xbdd4c32d	-0.10388789
19	0x3dd163ef	0.10224139
20	0xbd1cff2e	-0.038329296
21	0xbc4b8ac3	-0.01242322
22	0xbaf06945	-0.001834192
23	0x3dc21c40	0.094780445
24	0xbe210d5c	-0.15727752
25	0xbdeb9506	-0.11503033
26	0x3e371ab5	0.17881282
27	0x3cee390f	0.029079942
28	0xbd8de56b	-0.06928524
29	0x3cfbcf77	0.030738575
30	0x3d56d763	0.052451503
31	0x3d58863f	0.052862402
32	0xbd929a56	-0.071583435
33	0x3d8fc27d	0.070195176
34	0x3d791dbf	0.060819384
35	0x3d91311b	0.07089444
36	0x3d93f252	0.07223953
37	0xbd388fe0	-0.045059085
38	0xbdaf624c	-0.085636705
39	0xbe29b543	-0.16573052
40	0xbd841afc	-0.06450459
41	0x3ddab87e	0.1067972
42	0xbd080662	-0.033209212
43	0xbc9dae64	-0.019248195
44	0x3e0b129f	0.13581322
45	0x3bf92a0b	0.007603889
46	0xbcff7642	-0.03118432
47	0xbdceffb0	-0.10107362
48	0xbcbcba67	-0.023038102
49	0x3e2462f5	0.16053374
50	0xbdb4a9b9	-0.088214345
51	0x3d9dc9e2	0.07704522
52	0x3c5ed1de	0.013599841
53	0x3ae4a337	0.0017443661
54	0xbd910f1b	-0.07082959
55	0x3d57c091	0.05267388
56	0x3e09b924	0.13449532
57	0x3e6d5b46	0.2317935
58	0xbe5953fd	-0.21223445
59	0x3cc1ba7b	0.023648491
60	0x3d2aaa04	0.041666046
61	0xbcbfc447	-0.023409022
62	0x3dd3006b	0.10302814
63	0x3d1622f9	0.036654446
64	0xbe0fcef0	-0.14043784
65	0x3e5a7c82	0.21336558
66	0x3d6d920e	0.058000617
67	0xbd30f8b2	-0.043205924
68	0xbc885268	-0.016640857
69	0xbe598b66	-0.21244583
70	0x3d9c6a39	0.07637448
71	0xbdef28cd	-0.11677704
72	0x3e66751b	0.2250561
73	0x3e20bf62	0.15698007
74	0xbc4af697	-0.012387893
75	0x3e5e2e52	0.21697357
76	0xbd5ffd2f	-0.054684814
77	0xbe049feb	-0.12951629
78	0x3e0ef6aa	0.13961282
79	0xbec90699	-0.39262846
80	0x3dde8de3	0.108669065
81	0xbd850714	-0.06495491
82	0xbde6fa3d	-0.11278198
83	0xbb8f93d7	-0.0043816376
84	0xbe0b52f1	-0.13605858
85	0x3c51a5fd	0.012795922
86	0xbdb40850	-0.08790648
87	0x3e6ebd98	0.23314512
88	0xbdeda6e3	-0.11604097
89	0xbe81af92	-0.25329262
90	0x3dcbbaba	0.09947725
91	0x3cc9e122	0.024643485
92	0x3d4755a6	0.048665665
93	0xbdb410d2	-0.08792271
94	0xbdf1c13a	-0.11804433
95	0xbe3eb18a	-0.18622413
96	0xbddcbbae	-0.107779846
97	0x3ea3109b	0.31848606
98	0x3da4a87e	0.0803995
99	0xbd92a352	-0.07160057
100	0x3d4745f4	0.048650697
101	0xbc8b9ab1	-0.017041536
102	0x3d7eaedd	0.06217848
103	0xbe24db95	-0.16099389
104	0xbe542c7e	-0.20720097
105	0xbe234ff2	-0.15948465
106	0x3d09d671	0.033651773
107	0x3dc6acbe	0.09700917
108	0x3d49d7b3	0.049277972
109	0x3d969d7f	0.07354259
110	0xbe535dcd	-0.20641251
111	0xbe6783ad	-0.22608824
112	0x3ca700a7	0.020386053
113	0x3e197f02	0.14989856
114	0xbdba40e7	-0.090944104
115	0x3dc22023	0.09478786
116	0x3d90e4e8	0.070749104
117	0xbd3cf1d4	-0.046129063
118	0x3d255f83	0.04037429
119	0x3dea5f11	0.11443914
120	0x3e64c905	0.22342308
121	0x3e9570cd	0.29187623
122	0xbdc5911d	-0.09646819
123	0xbd33d562	-0.04390467
124	0xbd461b71	-0.048366014
125	0x3e1a8d10	0.15092874
126	0xbdd31a7c	-0.10307786
127	0xbe8ac18d	-0.27100793

actor.4.bias f4 [4]
0	0xbb64071d	-0.003479428
1	0xbd67bf95	-0.05657919
2	0xbdaf8801	-0.085708626
3	0xbd1fc641	-0.03900743

critic.0.weight f4 [32, 24]
0	0xbf08ee6b	-0.53488797
1	0xbd06a4e3	-0.032872092
2	0xbc670422	-0.014100106
3	0xbd11ab41	-0.03556371
4	0x3c20952d	0.009801191
5	0x3bd2b95d	0.0064307884
6	0xbeadc8ce	-0.33942264
7	0x3e0f3c9b	0.13987963
8	0xbe0b41f4	-0.13599378
9	0xbde65d0f	-0.11248218
10	0x3fba3c60	1.4549675
11	0xbe5e7bf3	-0.2172697
12	0xbdab39b6	-0.08360617
13	0xbdbced43	-0.092249416
14	0x3e8b10c5	0.27161232
15	0xbe56a643	-0.20961861
16	0x3d05da7a	0.03267906
17	0xbd7f762e	-0.062368564
18	0xbcdca3f1	-0.026933642
19	0xbc0e9346	-0.008702105
20	0xbe2106c0	-0.15725231
21	0x3e27ff93	0.16406088
22	0x3e2f6b87	0.17130862
23	0xbcb4e656	-0.022082489
24	0x3ef05439	0.46939257
25	0xbef4b2a6	-0.47792548
26	0xbe8c31e5	-0.27381817
27	0x3e9c4170	0.30518675
28	0x3e1b6563	0.15175395
29	0xbbcebc14	-0.0063090418
30	0x3e6102ff	0.21973799
31	0xbd957922	-0.07298495
32	0xbef1d823	-0.47235212
33	0x3e4f624e	0.20252344
34	0x3f0590a2	0.5217382
35	0x3dbd8e60	0.092556715
36	0x3ec5112e	0.3848967
37	0xbe611c7d	-0.21983524
38	0x3eec4cc8	0.4615233
39	0xbe6bbd8c	-0.23021525
40	0xbcaf5da5	-0.021406958
41	0x3d3fc365	0.046817202
42	0xbcdbb8c9	-0.02682151
43	0x3cde1b45	0.027112613
44	0x3dd20956	0.10255687
45	0xbe677d40	-0.22606373
46	0x3ef7b083	0.48376855
47	0xbeac8144	-0.33692372
48	0x3f39126e	0.72293746
49	0xbdb6a074	-0.08917323
50	0x3ed7d0f9	0.4215162
51	0x3d1b9f8a	0.037993945
52	0xbc2c1cb8	-0.010504894
53	0xbb0d2fe5	-0.002154344
54	0x4028615b	2.630942
55	0xbeff55fe	-0.49870294
56	0x3ef75aec	0.48311555
57	0x3f98eec5	1.1947867
58	0x3de4f430	0.111793876
59	0xbe51eb36	-0.20499882
60	0xbeca0ffe	-0.39465326
61	0x3ee7f6b6	0.45305413
62	0xbec1c607	-0.37846395
63	0x3eb50875	0.35358015
64	0x3c1e65ed	0.009667856
65	0xbc16d813	-0.00920679
66	0x3ba6d9ef	0.0050918977
67	0xbb8a6c55	-0.00422434
68	0xbe939d38	-0.28830886
69	0x3ebacb2c	0.36483133
70	0xbe4f1d01	-0.20225908
71	0x3df9e1b0	0.122012496
72	0x3ef536ad	0.47893277
73	0x3e00cd34	0.12578279
74	0xbf0a1248	-0.53934145
75	0xbc9e84d5	-0.019350449
76	0x3d5ea5f3	0.05435748
77	0xbe20af00	-0.15691757
78	0x3e32a7d1	0.1744683
79	0xbe2d91af	-0.16950105
80	0xbe3aeffa	-0.18255606
81	0xbe26da9d	-0.16294332
82	0xbf476775	-0.7789224
83	0xbe3fdea0	-0.18737268
84	0x3e3f42d7	0.18677841
85	0xbdde7973	-0.10863008
86	0x3e809823	0.2511607
87	0x3d89a9eb	0.067218624
88	0x3d8b9ea1	0.068173654
89	0x3d39010d	0.045167018
90	0xbbdf52ca	-0.006815289
91	0x3cbd15f6	0.02308176
92	0x3dc6d582	0.09708692
93	0xbd787550	-0.060658753
94	0x3d889ae9	0.06670172
95	0xbd89b8f3	-0.067247294
96	0xbe5af337	-0.21381842
97	0xbd90a6c7	-0.0706306
98	0xbf482e55	-0.781957
99	0x3c8c7727	0.01714666
100	0x3dd15d10	0.102228284
101	0xbe15b1ef	-0.14618658
102	0xbe5a065b	-0.21291487
103	0x3dffaf60	0.12484622
104	0x3d9a7cd3	0.075433396
105	0x3ea4fc93	0.3222395
106	0xbf744b19	-0.9542709
107	0x3e5b6d8b	0.21428506
108	0xbd98f7a6	-0.0746911
109	0x3e1c7362	0.1527839
110	0x3bf9dd6c	0.0076252725
111	0xbd825abd	-0.06364963
112	0xbd786c5f	-0.060650226
113	0xbde32329	-0.11090691
114	0xbd2479e1	-0.040155295
115	0x3c103297	0.008801124
116	0xbc89abf4	-0.016805626
117	0xbdbd5b1a	-0.09245892
118	0xbd0240ad	-0.03179996
119	0xbe3a751a	-0.18208733
120	0xbeeb41a4	-0.45948517
121	0xbda58506	-0.08082013
122	0xbe1d505b	-0.15362684
123	0x3dace98f	0.08442985
124	0xbdf0aa41	-0.11751223
125	0xbd98021b	-0.074222766
126	0xbf32c221	-0.6982747
127	0x3e8708d9	0.26373938
128	0x3e69ffb3	0.22851448
129	0x3e18e4c9	0.14931025
130	0x3faed35f	1.3658255
131	0xbd72ecf3	-0.059308004
132	0xbe28d119	-0.16486014
133	0xbd1724be	-0.036900274
134	0xbe07f157	-0.13275658
135	0x3ea48870	0.32135344
136	0x3cf8d531	0.030375095
137	0xbcd3d5ac	-0.025858723
138	0xbcf77921	-0.030209126
139	0xbccb8c79	-0.024847256
140	0x3d0fea3b	0.03513549
141	0xbe5ef9ca	-0.21774974
142	0x3e6d7857	0.23190437
143	0x3db72e4c	0.08944377
144	0x3e2a8bb9	0.16654862
145	0x3deb41f7	0.11487191
146	0xbd20d712	-0.039267607
147	0x3bbff392	0.0058578933
148	0x3de497d0	0.111617684
149	0x3d73c0f3	0.059510183
150	0x3d832e25	0.06405286
151	0x3e721c72	0.23643664
152	0xbe76318b	-0.24042337
153	0x3e348120	0.17627382
154	0xc0078684	-2.1175852
155	0x3c91347a	0.017725218
156	0xbe9f2640	-0.3108387
157	0x3e46018e	0.1933653
158	0xbe95183b	-0.2912005
159	0x3dbfb419	0.09360523
160	0x3c9830f3	0.018578028
161	0x3d77e490	0.06052071
162	0xbc752b0c	-0.014963876
163	0x3cdc0292	0.026856694
164	0xbe620c92	-0.22075108
165	0x3e737903	0.23776631
166	0xbdea416f	-0.11438262
167	0x3e91587d	0.28387824
168	0x3e8e00f5	0.27735105
169	0xbdd0f542	-0.10203029
170	0x3eb6bf3b	0.35692772
171	0x3d64368a	0.055716075
172	0x3dd8dd18	0.10589045
173	0x3b9faee7	0.004873145
174	0xbe86a4cb	-0.26297602
175	0xbe9bbb1d	-0.30416194
176	0xbe485c45	-0.19566448
177	0xbdee0205	-0.11621479
178	0x3d63dc06	0.055629753
179	0xbe9b1054	-0.30285895
180	0xbd704d58	-0.05866751
181	0x3d25305a	0.040329315
182	0xbdaba374	-0.083807856
183	0x3e772271	0.24134232
184	0xbdae96ea	-0.08524878
185	0xbd3c0695	-0.045904715
186	0xbc06680b	-0.008203517
187	0x3c9c4f72	0.019080851
188	0x3e2f5326	0.17121562
189	0x3d285f66	0.041106604
190	0xbdf78da4	-0.12087563
191	0xbe1cb7a4	-0.15304428
192	0xbd3b4686	-0.045721553
193	0x3d7d6ad7	0.06186947
194	0xbeff87d7	-0.49908325
195	0xbdd3c60a	-0.10340507
196	0x3d5cfb36	0.05395051
197	0x3b1f4c2b	0.0024306874
198	0xbf37c49f	-0.71784395
199	0x3c8001bb	0.015625825
200	0xbe736e91	-0.23772646
201	0xbf090eb7	-0.5353808
202	0xbf15796b	-0.58388394
203	0xbdd5bdc8	-0.104365885
204	0x3e26475d	0.1623816
205	0x3e3fa540	0.18715382
206	0x3d720c56	0.059093796
207	0x3ecc5756	0.39910382
208	0xbd47274a	-0.048621453
209	0x3c83e2ec	0.016099416
210	0x3b57c98e	0.0032926532
211	0x3b068645	0.0020526808
212	0x3e2e0333	0.16993408
213	0x3e05ac15	0.13053925
214	0xbe96eef6	-0.29479188
215	0x3e01430e	0.12623236
216	0x3e362d9c	0.17790836
217	0x3d45036e	0.048098974
218	0x3d9c3d7e	0.07628916
219	0xbe0774cd	-0.1322815
220	0x3da7bc49	0.081902094
221	0x3d3ceaff	0.046122547
222	0xbd1a61ae	-0.03769081
223	0x3dc178dd	0.09446881
224	0xbd09f4d5	-0.033680756
225	0xbdd4d555	-0.10392252
226	0x3f4e8376	0.80669343
227	0xbed58789	-0.41704968
228	0x3e61efbd	0.22064109
229	0x3dcc0c0a	0.09963234
230	0x3e2cef3b	0.16888134
231	0x3ccf42f5	0.025300482
232	0xbd616fb2	-0.05503816
233	0x3dbd6c5b	0.09249183
234	0xbd07b974	-0.033135846
235	0xbde1caa0	-0.11024976
236	0x3d0d6441	0.034519438
237	0x3ca1f211	0.019768747
238	0x3d9377d2	0.07200588
239	0x3da6a09b	0.08136102
240	0xbf442b04	-0.76628137
241	0x3d7816a6	0.060568474
242	0xbea84e5c	-0.32872283
243	0xbc8ef695	-0.017451564
244	0xbbd82570	-0.00659626
245	0x3b6c5596	0.0036061755
246	0xbfe1743d	-1.7613598
247	0x3e5b203b	0.21399014
248	0xbccb46a0	-0.02481395
249	0x3fc25296	1.5181453
250	0xbee9a794	-0.45635664
251	0xbd75dd97	-0.060025778
252	0x3e05b68c	0.13057917
253	0xbea89aa5	-0.32930484
254	0x3e1db568	0.15401232
255	0xbdf7a850	-0.1209265

critic.0.bias f4 [32]
0	0x3df9ccac	0.12197241
1	0xbe8aaa8e	-0.27083248
2	0xbf228ced	-0.63496286
3	0x3e44bb82	0.19212154
4	0x3ca705b2	0.020388458
5	0x3e8ace94	0.27110732
6	0xbda0f6ed	-0.07859597
7	0x3c53c802	0.012926104
8	0x3da903b9	0.08252663
9	0xbc9338ac	-0.01797136
10	0xbf3fedb3	-0.74972075
11	0xbf066a67	-0.5250611
12	0x3e8720b8	0.2639215
13	0x3d927742	0.07151653
14	0xbdbe9985	-0.09306625
15	0x3e5d45b1	0.21608616
16	0xbe88383e	-0.2660541
17	0xbd049789	-0.032371078
18	0x3ef75f85	0.48315063
19	0x3e5701e7	0.2099682
20	0xbf44b012	-0.7683116
21	0xbe332c6c	-0.17497414
22	0xbeec3be0	-0.4613943
23	0x3d4bdbbf	0.049770113
24	0xbd89af8e	-0.067229375
25	0xbf14f2bb	-0.5818288
26	0x3e3f59a1	0.18686534
27	0x3d90a92f	0.07063519
28	0xbd13019b	-0.035890203
29	0x3df07d3e	0.11742638
30	0x3ce8ff70	0.028442115
31	0xbde6e932	-0.11274947

critic.2.weight f4 [32, 32]
0	0x3e3a41cf	0.18189166
1	0xbe1b5f5b	-0.15173094
2	0xbdc87491	-0.09787858
3	0xbd2bef82	-0.04197646
4	0xbd5ee590	-0.054418147
5	0x3e202693	0.15639715
6	0x3cfd0d00	0.030889988
7	0xbd40320b	-0.046922725
8	0xbdd2e857	-0.102982216
9	0xbdf9d803	-0.12199404
10	0xbe984a4c	-0.29744184
11	0x3bc438d5	0.00598822
12	0x3e112284	0.14173323
13	0xbe27c1ec	-0.16382569
14	0x3e215a50	0.15757108
15	0xbd588cce	-0.052868657
16	0x3e44d734	0.19222718
17	0x3e383653	0.17989473
18	0x3e49a4ca	0.19691768
19	0xbcdaf16c	-0.026726447
20	0xbc26a0d5	-0.010170181
21	0x3d9be040	0.07611132
22	0xbe20023d	-0.15625854
23	0xbd6554e3	-0.055989157
24	0x3dd630f6	0.10458557
25	0xbe3c82f0	-0.18409324
26	0xbe324866	-0.1741043
27	0x3b0c4b5c	0.0021407222
28	0xbd095d87	-0.03353646
29	0x3d489d6d	0.048978258
30	0xbd5a1b18	-0.053248495
31	0xbac51c32	-0.001503831
32	0xbc8db749	-0.017299311
33	0xbc08a7e2	-0.008340808
34	0x3e3c8ae1	0.18412353
35	0xbbc61a0c	-0.0060455855
36	0xbb8e4420	-0.004341617
37	0x3d60cf7a	0.054885365
38	0xbdbeb426	-0.09311704
39	0xbe21bf60	-0.1579566
40	0x3df3e15a	0.11908217
41	0xbc9f1475	-0.019418934
42	0x3e3b44a8	0.18287909
43	0x3e1c2c51	0.1525128
44	0x3d6dddaa	0.058072723
45	0xbdf4c953	-0.11952462
46	0xbd8ccafc	-0.06874654
47	0xbd113052	-0.035446472
48	0xbdcbd93c	-0.099535435
49	0x3d687ff6	0.056762658
50	0x3cb42629	0.021990852
51	0xbc9b828b	-0.018983146
52	0x3d26ee18	0.040754408
53	0xbdc4641b	-0.09589406
54	0x3e47dabd	0.19517036
55	0x3d98c044	0.07458547
56	0x3e3b47c8	0.18289101
57	0x3e0cac55	0.13737614
58	0xbcf033c3	-0.029321557
59	0xbc19c073	-0.009384262
60	0x3e45679e	0.19277808
61	0xbd6bd747	-0.05757835
62	0x3d7ef3ad	0.062244106
63	0xbe2ce8c8	-0.16885674
64	0x3ce41675	0.02784274
65	0xbdd466e0	-0.10371184
66	0x3bf1135e	0.007357045
67	0x3cac98fb	0.02106904
68	0x3bcbecff	0.0062233205
69	0xbaab33ca	-0.0013061699
70	0x3cd1879b	0.025577357
71	0xbcdf039a	-0.027223397
72	0x3da1eb69	0.07906229
73	0x3dc12cfc	0.09432408
74	0xbd9fadb8	-0.07796806
75	0x3c749691	0.014928476
76	0x3cfbeae8	0.03075166
77	0x3cf457e7	0.029827071
78	0x3d30eff6	0.043197595
79	0xbb81072f	-0.003937624
80	0xbe27e64e	-0.16396448
81	0xbd358e5f	-0.04432523
82	0xbdd9f22a	-0.10641892
83	0x3e079498	0.13240278
84	0xbdf986f1	-0.12183941
85	0x3d403f3e	0.046935312
86	0x3cdc9bf1	0.026929827
87	0x3d827f1b	0.063719
88	0x3c1a5b84	0.009421233
89	0xbd0ef6d8	-0.034903377
90	0xbd34a32a	-0.044100918
91	0x3dfe1ade	0.12407468
92	0x3d02c851	0.031929318
93	0x3dea31b5	0.11435262
94	0x3d29de96	0.04147204
95	0x3e0cbc1d	0.13743635
96	0xbc750696	-0.0149551835
97	0xbdc996c8	-0.09843212
98	0xbe5768ed	-0.2103612
99	0xbce5468d	-0.027987743
100	0x3e130573	0.14357547
101	0x3b85e2f3	0.0040858923
102	0x3ebb1a31	0.3654342
103	0x3d0da0c3	0.034577142
104	0xbe68af49	-0.22723116
105	0xbe01ff08	-0.12694943
106	0xbf78b1bf	-0.9714622
107	0xbea10ad3	-0.3145357
108	0xbcff8ce6	-0.031195115
109	0xbd74dc16	-0.059780203
110	0x3de24a46	0.11049323
111	0xbe7ee83a	-0.24893275
112	0xbe106d2e	-0.14104149
113	0xbe275294	-0.16340095
114	0x3dbe0fea	0.09280379
115	0xbe03c815	-0.12869294
116	0xbfa0719c	-1.2534671
117	0x3d551ee5	0.052031416
118	0xbe96b356	-0.29433697
119	0x3d531dbb	0.051542025
120	0xbe7b3cea	-0.24534956
121	0x3d918001	0.07104493
122	0x3efa0a12	0.48835808
123	0x3c822647	0.015887393
124	0x3d995a35	0.07487909
125	0x3d168117	0.036744203
126	0x3d7e9914	0.062157705
127	0xbdf9af6c	-0.12191662
128	0xbcaef58b	-0.021357318
129	0xbddad6d9	-0.1068551
130	0xbd8c96e3	-0.06864717
131	0xbd0e8ae1	-0.034800414
132	0x3d1e2b33	0.038615417
133	0xbd92126a	-0.071324185
134	0xbe3323c5	-0.17494114
135	0xbd265129	-0.040604744
136	0x3e34bc79	0.17650022
137	0xbdbef255	-0.09323565
138	0xbe213820	-0.15744066
139	0x3ddd60ab	0.108094536
140	0x3d4a1e40	0.049345255
141	0xbca41e23	-0.020033902
142	0xbe383668	-0.17989504
143	0xbd86f974	-0.06590548
144	0x3df380d6	0.11889808
145	0x3de55598	0.11197966
146	0xbd994544	-0.074839145
147	0xbd6988d8	-0.05701527
148	0x3d7e872f	0.06214064
149	0x3e2e84ff	0.17042921
150	0xbd5497af	-0.05190247
151	0xbe87570b	-0.26433596
152	0x3e3107bb	0.17288105
153	0xbe292086	-0.16516313
154	0xbddafcdf	-0.106927626
155	0xbe0f28f9	-0.13980474
156	0x3d159971	0.036523286
157	0x3da44c3e	0.080223545
158	0x3e1b99e9	0.15195431
159	0x3cd68099	0.026184367
160	0xbe082eeb	-0.13299148
161	0x3dcda977	0.100420885
162	0x3db1c50c	0.08680162
163	0x3cd8870e	0.026431587
164	0x3d1839f9	0.037164662
165	0xbdae1643	-0.0850034
166	0xbc86da83	-0.016461616
167	0x3e064441	0.13111974
168	0x3c81ba28	0.015835837
169	0xbe1430f9	-0.14471807
170	0x3ddd30ab	0.10800298
171	0x3dcc558a	0.09977253
172	0x3e0624b8	0.13099945
173	0x3da483d4	0.08032957
174	0x3e108cf3	0.14116268
175	0x3dde572e	0.10856472
176	0x3d659aff	0.05605602
177	0xbdcf6f12	-0.10128607
178	0xbc83c97c	-0.016087286
179	0x3d7b81f3	0.061403226
180	0xbe2e3d45	-0.1701556
181	0xbdfda96e	-0.12385832
182	0xbdea30d7	-0.11435097
183	0xbdf57ab3	-0.11986294
184	0x3d9a24c6	0.07526545
185	0x3dbdaa6e	0.092610225
186	0xbdf9c48d	-0.12195692
187	0xbdd18184	-0.10229781
188	0x3dba25f2	0.09089269
189	0xbd973cc9	-0.07384641
190	0xbcead845	-0.028667578
191	0xbd3bdfec	-0.045867845
192	0x3e2bf864	0.16793972
193	0xbe296944	-0.16544062
194	0x3dab48ae	0.08363472
195	0xbd7fdf51	-0.06246883
196	0xbe0ac497	-0.13551556
197	0x3daa44ea	0.083139256
198	0xbcb427b2	-0.021991584
199	0x3e2e64c3	0.17030625
200	0xbd92b2fe	-0.07163046
201	0xbc11da74	-0.008902181
202	0xbe69f5f2	-0.22847727
203	0xbd9bf6dc	-0.07615444
204	0xbc3a4f94	-0.011371512
205	0x3de64c05	0.11244968
206	0xbd7a4235	-0.061098296
207	0x3e3de7ee	0.18545505
208	0xbcb5b1d4	-0.022179522
209	0xbdd43d78	-0.10363287
210	0x3d125d45	0.03573348
211	0x3e16cf1c	0.14727443
212	0x3d8abf2d	0.06774745
213	0xbd6988cc	-0.057015225
214	0xbd90b077	-0.07064908
215	0x3e23af56	0.15984854
216	0x3e2acd13	0.16679792
217	0x3e0aa34d	0.13538857
218	0xbe17b345	-0.1481448
219	0xbe1c13a2	-0.15241864
220	0xbe3ecba6	-0.18632373
221	0x3d8cc06f	0.06872641
222	0x3e0e4a06	0.13895425
223	0xbd6e8f02	-0.05824185
224	0xbe6b4c01	-0.22978212
225	0xbe2da64d	-0.1695797
226	0xbd688183	-0.056764137
227	0x3db0f139	0.086397596
228	0xbc95572c	-0.018230043
229	0x3d059ae7	0.03261843
230	0xbda72ef2	-0.08163251
231	0xbe065147	-0.13116942
232	0xbdf3c45a	-0.119026855
233	0x3dbca4b2	0.09211101
234	0xbe231898	-0.1592735
235	0xbde37f98	-0.11108321
236	0xbd875718	-0.06608409
237	0x3d6cc11b	0.057801347
238	0xbdafbbb8	-0.085807264
239	0xbda7bc01	-0.08190156
240	0xbd22e3be	-0.039767973
241	0xbb8229e3	-0.0039722784
242	0x3d8cf571	0.06882752
243	0xbe13a860	-0.14419699
244	0xbe6e292d	-0.23257895
245	0xbddd7432	-0.10813178
246	0x3e03ff63	0.12890391
247	0xbdf3697c	-0.11885354
248	0xbdd93c78	-0.106072366
249	0xbe011df8	-0.12609088
250	0x3dbd601d	0.09246848
251	0xbdb200eb	-0.08691581
252	0xbdacc91e	-0.084367976
253	0x3c4fa685	0.012673979
254	0xbd7c6357	-0.061618175
255	0x3e0626eb	0.13100784

critic.2.bias f4 [32]
0	0xbe293e4c	-0.1652767
1	0xbbca07c8	-0.0061654784
2	0xbd8c4675	-0.06849376
3	0x3e5c1552	0.21492508
4	0xbdb9838c	-0.09058294
5	0xbe0fe356	-0.14051566
6	0xbe112f72	-0.14178255
7	0x3d711f2c	0.05886762
8	0xbdd334eb	-0.10312828
9	0xbe2a7e1d	-0.16649671
10	0x3d065006	0.03279116
11	0x3ec0d682	0.37663656
12	0x3d0dcbbd	0.034618128
13	0xbd52062c	-0.051275417
14	0xbcd5d3f1	-0.026102038
15	0x3d56f425	0.052478928
16	0x3e67af13	0.2262538
17	0x3d776832	0.060402103
18	0xbddb043a	-0.106941655
19	0xbdf87990	-0.12132561
20	0x3de52eeb	0.111905895
21	0x3de404e7	0.111337475
22	0x3dd9b92d	0.106310226
23	0x3e212a0a	0.15738693
24	0x3abb40d5	0.0014286289
25	0xbcd046f9	-0.025424467
26	0xbd568171	-0.05236954
27	0xbc520e7f	-0.012820839
28	0x3d058984	0.03260185
29	0xbde180c0	-0.11010885
30	0x3d5b86f9	0.053595517
31	0x3eebad3a	0.460306

critic.4.weight f4 [1, 32]
0	0xbd4c65b3	-0.049901675
1	0xbd4347bb	-0.04767583
2	0x3d525232	0.05134792
3	0x3eb24ef3	0.34825858
4	0xbd411fac	-0.047149345
5	0xbc1c7c81	-0.009551168
6	0xbd9b8146	-0.07593016
7	0x3dd45e43	0.103695415
8	0x3dad067d	0.08448503
9	0x3c4af58b	0.012387644
10	0x3d90aa4e	0.07063733
11	0x3d899144	0.0671716
12	0x3d86691b	0.06563016
13	0xbcfe28ef	-0.031025378
14	0x3d86efef	0.065887325
15	0xbac292d8	-0.0014844788
16	0xbd8f572c	-0.069990486
17	0xbdaf1d6e	-0.08550535
18	0x3e27ae32	0.16375044
19	0xbe158e77	-0.14605127
20	0xbd91a9dc	-0.07112476
21	0x3d87c280	0.06628895
22	0xbd21a169	-0.039460573
23	0x3ce8fb7c	0.02844023
24	0xbcc80356	-0.024415653
25	0x3d106a47	0.035257604
26	0x3d72bca9	0.05926195
27	0xbd539fcd	-0.05166607
28	0xbdb2b71f	-0.08726334
29	0x3dc1ee24	0.0946925
30	0xbd00b547	-0.03142288
31	0x3ecc39fe	0.39887995

exp_avg f4 [4]
0	0x3c931290	0.017953187
1	0xbc800a54	-0.015629925
2	0x3bdd83b8	0.006760087
3	0x3c8c7c6b	0.01714917

exp_avg_sq f4 [4]
0	0x3c31bdaf	0.010848447
1	0x3c06c09d	0.0082246335
2	0x3b602bac	0.0034205718
3	0x3b639f36	0.0034732348

exp_avg f4 [32, 24]
0	0x3a5c59c0	0.0008405708
1	0xb9a767e0	-0.00031930115
2	0x3a15f37e	0.0005720182
3	0x3a15a6ce	0.0005708755
4	0xbb05263e	-0.0020316984
5	0xba915518	-0.0011087982
6	0xba5980d1	-0.0008297088
7	0xb92d9cda	-0.00016556997
8	0x39ad999a	0.00033111573
9	0x3a7d3a33	0.00096598564
10	0xb9cf4d83	-0.00039539867
11	0x3b9ad5a9	0.0047251773
12	0xb9d28f83	-0.00040161246
13	0x3a27a7ea	0.00063955656
14	0x392f45e6	0.0001671534
15	0x3a6cd79b	0.0009034813
16	0xbbdcb9c6	-0.006736013
17	0x3b618841	0.003441349
18	0x3bfb8b5d	0.0076765255
19	0xbb16ee64	-0.0023030275
20	0xb9cc512a	-0.00038970384
21	0x3a8291c3	0.0009961653
22	0x3645e619	2.9489222e-06
23	0x3b2a268b	0.0025962915
24	0x38f8bb55	0.00011860455
25	0x37823312	1.552099e-05
26	0x379b41c3	1.8508063e-05
27	0x39b076ec	0.0003365794
28	0x39cf0833	0.00039488226
29	0xb99a54bd	-0.00029436304
30	0x38d8aa06	0.00010331352
31	0x37a93baa	2.0174153e-05
32	0x3a05ce31	0.0005104272
33	0xb93487b8	-0.00017216697
34	0x390286e2	0.00012448014
35	0x399baed0	0.0002969415
36	0x362d206d	2.5797883e-06
37	0x36cb8133	6.064912e-06
38	0x38f55d40	0.000116998795
39	0x390bda9e	0.00013337514
40	0xb8df08cf	-0.00010635109
41	0x39a1f305	0.00030889377
42	0xba007275	-0.0004899868
43	0x3a409975	0.00073470856
44	0x36c65241	5.9104354e-06
45	0xb7e29c45	-2.7014068e-05
46	0x39a22bcc	0.0003093168
47	0x39bb0685	0.00035672277
48	0xb984605d	-0.00025248798
49	0x39021446	0.00012405319
50	0xb9584791	-0.00020626026
51	0x38627af4	5.3997108e-05
52	0xba9b1019	-0.0011830359
53	0x3a42c184	0.0007429349
54	0xba01e349	-0.00049548276
55	0xb86815d4	-5.533344e-05
56	0x3a10b712	0.00055204437
57	0xb9aa2323	-0.00032451106
58	0x382b55c3	4.084945e-05
59	0xba1ebf9f	-0.00060557754
60	0xb9adc7df	-0.00033146047
61	0x39733c2d	0.00023196703
62	0xb98e4e51	-0.000271427
63	0x391b4e64	0.00014811155
64	0x39e5e4dd	0.000438488
65	0xbad165ad	-0.0015975736
66	0x3bae1966	0.0053130863
67	0x3a410a4a	0.0007363899
68	0xb9f1f70d	-0.0004615117
69	0x3a1ab238	0.00059011905
70	0xb92c3c32	-0.00016425623
71	0x399d8df1	0.00030051128
72	0x390b53cb	0.00013287288
73	0x37d22135	2.5049414e-05
74	0xb7338bd0	-1.0701784e-05
75	0xba5dcb4c	-0.00084607746
76	0xba682f31	-0.000885713
77	0x3a39fb26	0.0007094614
78	0xb8910fca	-6.91708e-05
79	0xb8854429	-6.35463e-05
80	0xb9a573af	-0.00031557443
81	0x37937e84	1.7582679e-05
82	0xb971d052	-0.00023061156
83	0x3a2123db	0.00061470055
84	0xb924b160	-0.00015706336
85	0x3906517e	0.00012809594
86	0xb8987e89	-7.271494e-05
87	0xb89e3c0c	-7.545212e-05
88	0xbb9eaa4f	-0.0048420797
89	0x3974ed0f	0.00023357965
90	0xb9584341	-0.00020624419
91	0xbb0ffa90	-0.0021969415
92	0xba03fffb	-0.00050353975
93	0x395c8252	0.00021029383
94	0xb9d3279f	-0.00040274576
95	0xb8fb0a15	-0.000119704906
96	0x3a1a7fd5	0.0005893682
97	0x381eba42	3.78436e-05
98	0xb74b441a	-1.2115599e-05
99	0xb9fa285f	-0.00047713795
100	0xbb45b439	-0.0030167236
101	0x3aa0771e	0.0012242531
102	0x398d20c6	0.00026918034
103	0xb986832d	-0.00025656205
104	0xba772979	-0.0009428482
105	0x39e66ead	0.00043951478
106	0xb924c693	-0.00015714233
107	0x3aefdda9	0.0018300313
108	0x39b25d49	0.00034020309
109	0xb91b122c	-0.00014788721
110	0x37919952	1.7356742e-05
111	0x3939da3d	0.00017724275
112	0xbc078d13	-0.008273381
113	0x3bb68dc5	0.0055710995
114	0xbb93e621	-0.0045135175
115	0xbb0f201a	-0.0021839202
116	0x39f0f6cf	0.00045960254
117	0xb953052a	-0.00020124452
118	0xb96a974a	-0.00022372339
119	0xb983c87b	-0.00025135637
120	0x39d8cf62	0.00041353243
121	0x39bcf9d7	0.000360443
122	0xb985090d	-0.0002537448
123	0xb6ed2d40	-7.068418e-06
124	0xba9c92db	-0.0011945622
125	0xbab8d3fe	-0.0014101265
126	0x39d8952b	0.0004130987
127	0x38783a7e	5.9182283e-05
128	0xb9e55364	-0.00043740415
129	0x3a1ccab7	0.00059811346
130	0xb980e518	-0.0002458475
131	0x3a02a973	0.00049843563
132	0x3905a74e	0.00012746194
133	0xb91c27e9	-0.00014892187
134	0x3995af5d	0.0002855015
135	0xb8b1e6b0	-8.4829866e-05
136	0xbb7fc3f8	-0.0039026719
137	0x3af57c77	0.001872911
138	0x3bceee97	0.006315063
139	0x3af8f5c6	0.0018994145
140	0x3993f593	0.00028220992
141	0xb9cbcb2e	-0.00038870558
142	0x3a1cd191	0.00059821556
143	0xb9d3b07f	-0.00040376556
144	0x393311af	0.00017077358
145	0x38814cc6	6.1654995e-05
146	0x386e98d1	5.6885943e-05
147	0x399af3c6	0.00029554794
148	0xb93cdc16	-0.00018011066
149	0xba4fb32e	-0.0007923123
150	0x39c182b3	0.00036909207
151	0x380b5708	3.3221237e-05
152	0xba0f57c7	-0.0005468097
153	0x3a1f0e39	0.0006067488
154	0x39761da5	0.00023471432
155	0x36834483	3.91208e-06
156	0x3988e588	0.00026110956
157	0xb87bcad9	-6.003198e-05
158	0x39b41969	0.00034351207
159	0xb9bfaf85	-0.0003656113
160	0x3a03a36e	0.00050216063
161	0x3a1da387	0.0006013442
162	0xbb096adb	-0.0020968232
163	0xbb0e0daa	-0.0021675625
164	0x39e059b2	0.00042791438
165	0xb79695a0	-1.7951068e-05
166	0x3a1a37fa	0.0005882975
167	0xba724c96	-0.00092429796
168	0xb96f9fca	-0.00022852342
169	0x382affb7	4.076931e-05
170	0xb80f5148	-3.4169556e-05
171	0xb89b8126	-7.415032e-05
172	0xbab76d50	-0.001399437
173	0xb813f103	-3.527199e-05
174	0xb9abf9e1	-0.00032801836
175	0x38eff33e	0.000114417155
176	0x3a0742ed	0.0005159814
177	0xb997d1b0	-0.00028957194
178	0x39017b0b	0.00012348236
179	0xba0c175f	-0.0005344059
180	0xb9204a51	-0.00015286474
181	0x399c7d8d	0.0002984818
182	0xb9a18991	-0.00030810808
183	0x39ab11d8	0.00032628956
184	0x3af7e82e	0.00189138
185	0x3a7690c0	0.00094057247
186	0xba5de809	-0.0008465057
187	0xbb563e80	-0.0032691061
188	0xb9eddc09	-0.00045368102
189	0x3a317591	0.0006769533
190	0xba282a18	-0.0006414964
191	0x3a471d2a	0.00075955933
192	0x390ec0a5	0.00013613941
193	0xb97bb4ed	-0.00024004625
194	0x39ae059c	0.00033192046
195	0xba1ad197	-0.0005905865
196	0xba541713	-0.00080905965
197	0x3946c82d	0.00018957323
198	0x39d7f28e	0.00041188713
199	0xb795f7ee	-1.7877635e-05
200	0xba8aa002	-0.001057625
201	0x3a471c82	0.00075954956
202	0xb72ce9c6	-1.03064285e-05
203	0xb980fe2b	-0.00024603432
204	0x39fdb476	0.00048390374
205	0xb99bbb6e	-0.0002970355
206	0x39ae8ac4	0.00033291255
207	0xba335687	-0.00068412017
208	0x3aa26723	0.0012390356
209	0xbb515945	-0.0031944078
210	0xbc0ce59b	-0.008599664
211	0xbc0ee727	-0.008722103
212	0x3a12f49e	0.0005605909
213	0xb991c5f7	-0.0002780405
214	0xb820d779	-3.8347647e-05
215	0xbacc0f0a	-0.0015568447
216	0x3a0ff4ce	0.0005491496
217	0xb9950da7	-0.00028429666
218	0x3a2f7c7b	0.0006694269
219	0x388b98b4	6.65648e-05
220	0x3b1c10fb	0.0023813832
221	0xba423ef6	-0.00074098946
222	0xba1589ac	-0.00057044136
223	0xb842c86f	-4.6439873e-05
224	0xb9244f4a	-0.00015669796
225	0x3a343101	0.0006873757
226	0xb89f5728	-7.597945e-05
227	0x3b50490c	0.003178182
228	0xb9850bfc	-0.00025376666
229	0x399f8bd5	0.00030431026
230	0x39c41e84	0.0003740677
231	0xb7f8c1c0	-2.9654126e-05
232	0xbbce7066	-0.00630002
233	0x3ba4ba9c	0.0050271284
234	0x3c8ede3e	0.017439958
235	0xbc054e3d	-0.008136329
236	0xb9e144c1	-0.0004296657
237	0x38d58512	0.00010181418
238	0x3a07f5bd	0.0005186459
239	0x3a973975	0.0011537509
240	0xb9a18f9a	-0.00030815304
241	0xb8a4b6be	-7.854168e-05
242	0x3820ae62	3.830938e-05
243	0x39ae7bb8	0.00033280044
244	0x39bd7602	0.00036136812
245	0xba04a49a	-0.0005059928
246	0xb9e8e01d	-0.00044417466
247	0x387389ab	5.8063928e-05
248	0x3aa4afff	0.0012564658
249	0xba3b12b5	-0.00071362715
250	0xb6b9ce63	-5.537456e-06
251	0xb974a3fb	-0.00023330741
252	0xb9a40cf6	-0.00031290174
253	0x395939ef	0.00020716315
254	0xb8923b79	-6.9729e-05
255	0x3a472682	0.00075969857

exp_avg_sq f4 [32, 24]
0	0x38859679	6.369962e-05
1	0x3715b9fc	8.924395e-06
2	0x378e1d37	1.6941323e-05
3	0x39c39f7d	0.00037312126
4	0x3b00113d	0.0019541525
5	0x3a85bff6	0.0010204304
6	0x392c1c39	0.00016413712
7	0x356a0452	8.717808e-07
8	0x3b3866ee	0.0028137523
9	0x39e86b4c	0.0004433043
10	0x370cc7bc	8.391155e-06
11	0x39948e42	0.0002833475
12	0x38c5aae6	9.425524e-05
13	0x38d9fb56	0.00010394181
14	0x39968355	0.0002870808
15	0x39c6e5df	0.0003793677
16	0x3cb14378	0.021638617
17	0x3bfc4c39	0.007699516
18	0x3d59286a	0.053017057
19	0x3d3cdcf2	0.046109147
20	0x39c6c34f	0.0003791102
21	0x39ccecb8	0.0003908628
22	0x3a9fd43d	0.0012193989
23	0x3aa47190	0.0012546051
24	0x352d6ea9	6.4608554e-07
25	0x342b93d7	1.59794e-07
26	0x34cacab5	3.777292e-07
27	0x3700cdad	7.677282e-06
28	0x38071243	3.2203516e-05
29	0x377ea5ac	1.5178153e-05
30	0x36125e7e	2.1810697e-06
31	0x332a532c	3.9656854e-08
32	0x37d2d7ba	2.5134406e-05
33	0x367f7231	3.806443e-06
34	0x33e1ae46	1.0509079e-07
35	0x363cdc7f	2.8142529e-06
36	0x35d61201	1.5949482e-06
37	0x35d8e4c6	1.6159836e-06
38	0x364a39a2	3.0133892e-06
39	0x367b7107	3.7467705e-06
40	0x3952b054	0.00020092848
41	0x38ad1672	8.2534636e-05
42	0x3a2a1daf	0.00064894086
43	0x3a203ef3	0.0006112896
44	0x36cbdd63	6.0756443e-06
45	0x36dbf61d	6.55536e-06
46	0x37218b3e	9.628768e-06
47	0x378af926	1.65669e-05
48	0x35f357a4	1.8130418e-06
49	0x34c54d16	3.6750197e-07
50	0x352746ef	6.231557e-07
51	0x37a4e78b	1.9658144e-05
52	0x38670208	5.5076584e-05
53	0x3849c5eb	4.810646e-05
54	0x36a04b1a	4.7771146e-06
55	0x332a4fb6	3.9653706e-08
56	0x38a84775	8.024174e-05
57	0x37655b9e	1.3670795e-05
58	0x34a0f794	2.998246e-07
59	0x373ba3e1	1.1184225e-05
60	0x36727c1c	3.6133051e-06
61	0x36690fe8	3.4728964e-06
62	0x36ec7339	7.0467618e-06
63	0x36de1684	6.6187367e-06
64	0x3a609018	0.00085663935
65	0x398131d2	0.00024641916
66	0x3acf9d4f	0.0015839728
67	0x3ae08440	0.0017129257
68	0x37b0d9f8	2.1082335e-05
69	0x376ec353	1.4231383e-05
70	0x37be2581	2.266723e-05
71	0x379f3b15	1.898179e-05
72	0x36037bf8	1.959268e-06
73	0x349ca9b2	2.9180734e-07
74	0x34f5b222	4.5764415e-07
75	0x372b33b6	1.0204434e-05
76	0x3893cad9	7.0472895e-05
77	0x380960dd	3.2753556e-05
78	0x36940287	4.411038e-06
79	0x330f9815	3.34331e-08
80	0x38aa034e	8.106847e-05
81	0x377082f6	1.43356065e-05
82	0x34b62ef6	3.393431e-07
83	0x371f5506	9.496935e-06
84	0x36485b3f	2.9855435e-06
85	0x362d54dd	2.5828406e-06
86	0x36ceb35e	6.1601595e-06
87	0x372b2b56	1.0202484e-05
88	0x3a020695	0.0004960087
89	0x39860edd	0.00025569546
90	0x3a9ea2ff	0.001210302
91	0x3aa05b66	0.001223427
92	0x37504c37	1.2415511e-05
93	0x372a4384	1.0148509e-05
94	0x37ad1d10	2.063674e-05
95	0x383224db	4.247283e-05
96	0x36fc30fe	7.5158887e-06
97	0x35664236	8.5778026e-07
98	0x35ac39ba	1.2831799e-06
99	0x3808aabf	3.2583946e-05
100	0x3925bb9a	0.00015805513
101	0x389aac73	7.3754134e-05
102	0x374e5868	1.22991405e-05
103	0x33aeae64	8.134228e-08
104	0x3954fa10	0.00020311051
105	0x382c8587	4.1132353e-05
106	0x353b4dec	6.977632e-07
107	0x37d9827c	2.5929177e-05
108	0x36ab5da3	5.107098e-06
109	0x36bf79c5	5.7064194e-06
110	0x37b665fe	2.1743585e-05
111	0x380abc57	3.307717e-05
112	0x3add4ff1	0.0016884786
113	0x3a16853a	0.0005741898
114	0x3b4de291	0.0031415562
115	0x3b3afdec	0.0028532697
116	0x37747cce	1.4572592e-05
117	0x379cec65	1.8706729e-05
118	0x38caea2d	9.675729e-05
119	0x38ef796c	0.00011419025
120	0x361e17b0	2.3557623e-06
121	0x34844aca	2.4641332e-07
122	0x350e0d22	5.2918233e-07
123	0x372f3126	1.0442256e-05
124	0x3861799e	5.3757445e-05
125	0x3803e281	3.1443782e-05
126	0x36aeade6	5.2058485e-06
127	0x330ca9e2	3.2750798e-08
128	0x38964d14	7.166914e-05
129	0x376c07cf	1.4068514e-05
130	0x34a289a3	3.0274995e-07
131	0x371a30ae	9.190449e-06
132	0x3638c02d	2.7529998e-06
133	0x364ea2ce	3.0791157e-06
134	0x36fc7fff	7.525086e-06
135	0x37230e6b	9.718914e-06
136	0x39f71da5	0.00047133598
137	0x39329764	0.000170318
138	0x3a8f6db1	0.0010942725
139	0x3a9cc769	0.0011961284
140	0x37465237	1.1820862e-05
141	0x374939ce	1.1993992e-05
142	0x37eee89b	2.8480126e-05
143	0x380be224	3.3350792e-05
144	0x35fe93f4	1.8967535e-06
145	0x3452d5db	1.9635574e-07
146	0x3524c3cb	6.137968e-07
147	0x371265b1	8.725955e-06
148	0x383dbc72	4.5236615e-05
149	0x37b26c40	2.1269661e-05
150	0x368835f0	4.059395e-06
151	0x32dcbab9	2.5696282e-08
152	0x3834c9a3	4.3103133e-05
153	0x3723a048	9.7528755e-06
154	0x346059b8	2.0894265e-07
155	0x36d32781	6.292889e-06
156	0x36151343	2.2213942e-06
157	0x361a803f	2.3022437e-06
158	0x369814a9	4.532358e-06
159	0x370542a6	7.942936e-06
160	0x39871f58	0.0002577256
161	0x390e3aa2	0.00013564018
162	0x3a52777c	0.0008028669
163	0x3a8436be	0.0010087115
164	0x37091acd	8.172076e-06
165	0x37166a5a	8.965459e-06
166	0x3767c8ec	1.3815454e-05
167	0x38164ebb	3.583611e-05
168	0x36a34a1f	4.8664074e-06
169	0x34d3a21a	3.9419757e-07
170	0x3581fd83	9.685031e-07
171	0x375952af	1.2953459e-05
172	0x38ee75ce	0.00011370667
173	0x3828c6ce	4.0239473e-05
174	0x36f8c4f7	7.4139057e-06
175	0x338c97e3	6.546886e-08
176	0x38cb8234	9.7040465e-05
177	0x37d77709	2.5685427e-05
178	0x34c3fb63	3.6504488e-07
179	0x375d0205	1.3173097e-05
180	0x364a8677	3.0178614e-06
181	0x365d4cbc	3.2976232e-06
182	0x3741e2de	1.1556518e-05
183	0x376aed2d	1.4002709e-05
184	0x3a28f255	0.00064448017
185	0x398de4c0	0.00027064048
186	0x3af9b6fa	0.0019051724
187	0x3ad21414	0.0016027712
188	0x375a2973	1.3003463e-05
189	0x37545513	1.2655993e-05
190	0x38584841	5.1565705e-05
191	0x38243a50	3.9154955e-05
192	0x36e9ab6e	6.963898e-06
193	0x357558e9	9.1398994e-07
194	0x3600d796	1.9198974e-06
195	0x38273f3f	3.9874805e-05
196	0x39350dfb	0.00017266713
197	0x38dcebcf	0.0001053434
198	0x37852a9a	1.5874673e-05
199	0x33e745be	1.0769462e-07
200	0x3983bf53	0.00025128815
201	0x3859d4a7	5.193488e-05
202	0x3585b3df	9.961622e-07
203	0x37f55d72	2.924979e-05
204	0x372ba01f	1.0229675e-05
205	0x37184e81	9.078184e-06
206	0x37bd5d5d	2.2574031e-05
207	0x37fd2c28	3.0180512e-05
208	0x3ae8fac3	0.0017774928
209	0x3a374ded	0.0006992508
210	0x3ba28352	0.0049595023
211	0x3b995e64	0.0046804417
212	0x38491460	4.794111e-05
213	0x3819a70c	3.6633617e-05
214	0x38a7ff71	8.01076e-05
215	0x38e23f84	0.000107883505
216	0x383a73c1	4.445366e-05
217	0x36beb282	5.6832223e-06
218	0x3751f975	1.2515452e-05
219	0x397633f0	0.00023479736
220	0x3a934614	0.0011236095
221	0x3a1e635a	0.0006042026
222	0x38f821b0	0.00011831836
223	0x351d6b75	5.864343e-07
224	0x3ae8d334	0.0017763139
225	0x39a1edeb	0.00030885576
226	0x36b3e0f2	5.360803e-06
227	0x39374a71	0.00017479972
228	0x389af9b6	7.3898045e-05
229	0x389d62cd	7.5047465e-05
230	0x3942c702	0.00018575418
231	0x397f4ded	0.00024347725
232	0x3c502927	0.012705124
233	0x3b90efab	0.004423102
234	0x3d0e0552	0.034673043
235	0x3cf53cc3	0.0299362
236	0x39a71eb5	0.000318756
237	0x3998404f	0.00029039613
238	0x3a371867	0.0006984532
239	0x3a5943de	0.0008288006
240	0x36059d58	1.991013e-06
241	0x344e6411	1.9221649e-07
242	0x34d72cb9	4.007941e-07
243	0x36da1ad4	6.5000295e-06
244	0x38209f4f	3.829534e-05
245	0x37904ad7	1.7200988e-05
246	0x366544e6	3.4163763e-06
247	0x330af160	3.2350158e-08
248	0x383ef109	4.552401e-05
249	0x3706dd1d	8.038504e-06
250	0x344a0204	1.8813449e-07
251	0x369a2f5d	4.5950715e-06
252	0x360375b9	1.9589045e-06
253	0x36024d99	1.9416677e-06
254	0x366a419c	3.4906907e-06
255	0x36f1db95	7.2079224e-06
