2026-01-31_00-50-28/model_100.pt (torch, 62651 bytes, 36 tensors)

std f4 [4]
000000 d5 2a e9 3d db 8f dd 3d 82 61 74 3e b9 bf 68 3e
       0.11385123 0.10818454 0.23865321 0.22729386

actor.0.weight f4 [32, 24]
000000 ef ce ab 3f 1b 33 86 bd 21 1b 0e 3e a3 20 1f bd
       1.3422526 -0.06552716 0.13877536 -0.038849484
000010 c7 5f fd 3d 9a eb c3 bd aa 0b 11 40 94 1c f1 be
       0.12371784 -0.09566422 2.266337 -0.47092116
000020 7f 4f 2f 3e 96 98 fd 3d d2 b9 09 3f f0 82 e7 3c
       0.17120169 0.12382619 0.53799164 0.028260678
000030 80 e0 87 3d bc da ce 3e dd 29 fb 3c 62 ac 8e 3d
       0.06634617 0.40401256 0.03065961 0.06966473
000040 0f 13 6f bd 1a 14 fd 3c bc 24 ef bc 8d b7 06 3d
       -0.058367785 0.030893374 -0.029192321 0.03288989
000050 fd c1 ca 3d d1 3b eb 3d 2b 3e 81 bd 7a c4 fb bb
       0.099002816 0.114860184 -0.06310686 -0.007683334
000060 a6 eb 0e c0 75 e4 6a be 45 12 a6 ba 6c 97 a9 bd
       -2.2331328 -0.22938712 -0.001267024 -0.082808346
000070 e9 f4 7a be 66 b1 90 bd 84 6f 8e bf 8a 52 ec 3c
       -0.24507488 -0.07065086 -1.1127782 0.028847951
000080 60 d8 51 3f 0d ae c2 3d 97 0c f9 be 33 17 f6 bb
       0.8197079 0.09505854 -0.48642418 -0.00751009
000090 2b 48 7d bc 08 d9 9e be 6e db c1 b7 35 cb 5a be
       -0.015459101 -0.31024957 -2.3109573e-05 -0.2136658
0000a0 b3 19 b5 3c a1 be a0 bd 0b 73 9a 3c be ad 30 bd
       0.02210698 -0.078488596 0.018853685 -0.043134443
0000b0 9d 2b 1e 3d 73 f6 89 bd b9 95 f6 bd af 55 c6 3d
       0.03861581 -0.067364596 -0.12040276 0.096843116
0000c0 17 1d 40 3f ba 48 dd be 3a ce 31 be 7b 93 8b 3e
       0.7504439 -0.43219548 -0.17363825 0.27260956
0000d0 3e a7 60 bd 26 96 c4 bc 58 a2 07 bf 61 54 13 bf
       -0.054846995 -0.023997378 -0.5298209 -0.57550627
0000e0 32 82 a1 3d 76 c0 e2 bd 4a 01 72 3f 61 6d 8d 3e
       0.07886161 -0.11071865 0.94533217 0.27622512
0000f0 dc aa 9f 3d d2 5e 4b 3f f3 8e 09 3d 89 50 1d 3f
       0.07796261 0.7944156 0.033583593 0.6145101
000100 30 bd 31 3e 51 0a aa 3d 5f b7 39 bd db dd 3c 3d
       0.17357326 0.08302749 -0.045340892 0.046110015
000110 43 f5 5f 3c 1e be a6 3e 63 e3 f1 ba 09 51 8d bd
       0.013669315 0.32566923 -0.0018454607 -0.06900222
000120 62 ab 88 3f d6 a5 56 be ed 7c 81 be 27 fd b1 3e
       1.0677302 -0.20961699 -0.25290623 0.34763452
000130 64 36 09 be 5d be 10 bd b2 b8 1f 3d 80 b2 2f bf
       -0.13399655 -0.035337795 0.0389945 -0.68631744
000140 91 c2 18 3e 41 f4 04 3f 1b c6 0e bf 6f 51 18 be
       0.14917971 0.519352 -0.55771035 -0.14874814
000150 d9 30 bb bd 3d 2b 02 3f 16 ed e9 bd c4 68 3b 3e
       -0.09140176 0.50847226 -0.11422174 0.18301684
000160 5d 83 cd 3d f3 42 93 3d 45 36 1e 3c 87 86 71 bc
       0.10034821 0.07190504 0.009656494 -0.0147415465
000170 c0 6b 44 be 62 6c 09 bc e7 ca fe bd 38 48 e9 3c
       -0.19181728 -0.008387657 -0.12441044 0.02847682
000180 2e 5f 26 be 8e 81 ea 3e a4 6b 49 3f b5 fa 6e be
       -0.16247246 0.45801967 0.7867987 -0.23337825
000190 e6 29 55 3e 9b 0f 72 3e cf 53 24 3f fa e5 48 3f
       0.20816764 0.23638766 0.6419038 0.78475916
0001a0 77 12 31 bb b5 f1 08 bf e3 e4 3f 3f bf 19 9f 3e
       -0.0027019063 -0.53493816 0.7495863 0.3107433
0001b0 8c c4 05 3f c8 a5 fe 3e 1a ee 1e 3f 2c f7 75 be
       0.5225303 0.49735856 0.62082064 -0.2402007
0001c0 be 13 db bd 09 bf 15 3d ce e8 ad bc 08 61 45 3d
       -0.10697125 0.03655914 -0.021229174 0.04818824
0001d0 38 ba 8f bd d9 f1 20 3f 58 3e db 3e 52 a2 a5 3c
       -0.0701794 0.6286903 0.42821002 0.020219002
0001e0 98 1d 48 bf fc 04 8d be a9 a0 a9 bc 77 d3 c4 3c
       -0.78170156 -0.27542865 -0.020706492 0.024026616
0001f0 a0 15 db 3d d2 7f 86 be 9b c2 02 3f 53 1f 47 3e
       0.10697484 -0.26269394 0.51078194 0.19445543
000200 f2 cb 86 3d 57 7c 0e bf 45 c3 bf bd 38 b2 dc 3e
       0.06581868 -0.5565848 -0.093634166 0.4310472
000210 34 e1 4b 3e 2d 87 36 bf 04 b8 ad bd 30 b1 98 be
       0.19910127 -0.7130001 -0.08482364 -0.29822683
000220 42 f8 2d be 64 01 43 be f4 5c 49 bd 86 2f 02 bd
       -0.16989234 -0.19043499 -0.049160913 -0.031783603
000230 e5 7c 1d 3e b7 d8 78 be 5e 07 fe bd 1f 5e 85 3e
       0.15379675 -0.2430142 -0.12403749 0.2604837
000240 10 00 10 bf 77 9f 9c bd fb 80 d2 3f 20 13 17 3e
       -0.56250095 -0.07647603 1.6445612 0.1475339
000250 68 0c 19 be 09 86 c3 bd 03 dc cb be 30 96 00 bf
       -0.14946139 -0.095470496 -0.39816293 -0.5022917
000260 3b 55 43 3e c9 7a 9e be e8 37 72 3f 26 ba 56 bb
       0.19075482 -0.30953053 0.94616556 -0.0032764762
000270 16 2f 15 3f 75 c1 75 bf c0 f1 15 3e 57 8a e4 3d
       0.5827497 -0.95998317 0.14643002 0.11159199
000280 20 21 d2 3d c1 ed dc 3c 0a 8d 6b bd d1 f2 66 bd
       0.10260224 0.026968839 -0.057507552 -0.05638391
000290 e0 82 ed 3e 21 d8 f8 be 29 36 0a 3e f4 b2 d0 be
       0.46388912 -0.48602393 0.13497223 -0.4076153
0002a0 04 c0 59 3f 8c 3f 54 be 79 36 43 3e 43 b2 4b 3e
       0.8505862 -0.20727366 0.19063748 0.1989222
0002b0 9a 3b 75 3e 24 05 67 3e 67 02 1c 3f 17 bc 28 bf
       0.23948517 0.22560555 0.60941166 -0.65912
0002c0 11 e0 19 3f 02 ff 20 3f b1 34 cf 3c 28 1a 9c 3c
       0.60107523 0.6288911 0.02529368 0.019055441
0002d0 7e 50 3c be 7e f6 06 3e eb 89 c6 bd 78 3a a4 3e
       -0.1839008 0.13179967 -0.096942745 0.32075858
0002e0 d9 36 49 bd 56 9f 85 bd a4 58 83 b9 1b a0 c9 3c
       -0.049124572 -0.065245315 -0.0002505231 0.024612477
0002f0 9a 02 8d be 04 10 4f 3e 32 4e 0b be be 50 73 3d
       -0.27541047 0.20220953 -0.13604048 0.059403174
000300 52 4d 03 3f d5 98 e7 3e 82 40 80 be f7 c5 80 be
       0.51289856 0.4523379 -0.25049216 -0.25151035
000310 a8 0e 36 be 46 a5 47 bd f5 39 8a 3e f2 85 7a 3f
       -0.17779028 -0.0487416 0.26997343 0.97860634
000320 ed f4 9c bd bd 14 07 3f 57 d8 e3 3e ff 91 d8 3d
       -0.076639034 0.5276602 0.44500992 0.105747215
000330 3a b1 87 3e f7 d4 95 3f e1 23 12 3e a0 e1 25 3f
       0.265024 1.1705617 0.14271499 0.647974
000340 3c ad c2 3d 99 ea f3 bd 4d 70 64 3c 44 78 15 bd
       0.09505698 -0.1190998 0.01394279 -0.036491647
000350 09 4d f8 3d 7a 12 35 3f 74 d0 99 bd 4e 31 4c 3e
       0.12124068 0.7073132 -0.075104624 0.19940683
000360 8c cc a0 3f 9f 26 de 3e 6f 84 ea 3e 87 f6 d7 bc
       1.2562423 0.4338884 0.45804164 -0.02636267
000370 e0 be 0c 3e 12 a5 62 3d d4 49 fd 3f c7 7b 74 be
       0.13744688 0.055333205 1.9788156 -0.23875342
000380 b1 ae 4e 3e 59 e5 75 bd 81 fd 20 bf 98 94 a5 3b
       0.20183827 -0.060033176 -0.62886816 0.005053114
000390 12 ea db 3c 60 28 89 be d5 6c 97 3d ff df 31 be
       0.026845012 -0.26788616 0.07393805 -0.17370604
0003a0 fd 0d 74 bc 36 f2 75 3d 69 3c 42 3c fe 3f a0 3c
       -0.014895913 0.060045443 0.011855223 0.019561764
0003b0 db 0e 31 be 9e 95 e5 bd 52 85 e4 bc 5f 23 c8 3d
       -0.17290823 -0.11210178 -0.027895603 0.097723715
0003c0 17 fd 23 3f f7 f2 00 3f 29 99 00 3f a1 5f d4 3d
       0.6405806 0.50370735 0.50233704 0.10369802
0003d0 67 f8 67 bd 3d 8c d8 3d 02 fd 2e 3f 5a 87 55 3d
       -0.05663338 0.10573623 0.6835481 0.052131034
0003e0 bc b9 af 3d ca 7b 16 bf 40 66 c2 be c2 96 18 be
       0.08580348 -0.5878264 -0.37968636 -0.1490126
0003f0 69 1d d3 be c7 70 e7 be b9 a5 d8 be 92 7d 56 be
       -0.41233376 -0.4520323 -0.42313936 -0.20946339

actor.0.bias f4 [32]
000000 d6 70 2f 3e 2e 43 e1 be 9f 97 81 be c9 5d 06 be
       0.17132887 -0.43996567 -0.2531099 -0.13121714
000010 cb e4 95 bd 75 5a c6 bd 1e cf 41 be 5e 1f 18 bd
       -0.073190294 -0.09685222 -0.18926665 -0.03713929
000020 25 c3 0a 3e ac c1 3d 3e b4 5f 4a be a2 99 eb bd
       0.13551004 0.18530911 -0.1976307 -0.115039125
000030 ca 70 54 be 2c 67 d6 bd 78 e2 25 bc bd b1 bf bd
       -0.2074615 -0.10468897 -0.010124795 -0.09360073
000040 16 6e 0e 3e 1e c6 e5 bd 97 5e bb be 08 e8 06 be
       0.13909182 -0.112194285 -0.36595604 -0.1317445
000050 3d 92 d7 bd 66 92 45 be 8d 23 22 be 68 8f 46 3c
       -0.105259396 -0.19294128 -0.15833874 0.012119152
000060 9a b3 52 3d 23 15 18 be d6 22 7b bd ad 35 52 be
       0.051440813 -0.14851813 -0.06131252 -0.20528288
000070 ee 85 96 be 52 54 87 be 20 0b 32 be 9b bc 72 be
       -0.29399055 -0.2643152 -0.17387056 -0.2370476

actor.2.weight f4 [32, 32]
000000 8c e6 6f 3d 6c 24 30 bd 44 c7 7e bc 48 6b 28 be
       0.058569476 -0.043003485 -0.015550438 -0.16447175
000010 16 9c 46 bd e9 f5 ad 3d 4f e6 31 3e 7c 1d fe 3d
       -0.0484887 0.08494169 0.17373012 0.124079674
000020 d4 a5 77 bd 30 e4 4e 3d ae e2 f3 3d b5 1e 12 bd
       -0.06046088 0.050510585 0.1190847 -0.035673816
000030 0d 85 b6 3d aa fe 65 bd 50 be 5d bd 8d 0d 5b be
       0.08912096 -0.05615107 -0.054136574 -0.21391888
000040 53 63 21 bd 98 83 31 be 27 2a f0 3d 43 87 e2 3d
       -0.039401364 -0.17335355 0.1172679 0.110609554
000050 68 c6 17 3e 58 0b ac 3d 21 91 8b bd cb 30 94 3d
       0.1482178 0.08400601 -0.068147905 0.07235869
000060 32 ad 66 bc de 49 34 3e 5a 78 6b 3e 8d 49 33 3e
       -0.014079379 0.17606303 0.22995129 0.17508526
000070 5e 98 e1 bd 50 8a c3 3e 21 f5 38 be 93 41 1d be
       -0.1101539 0.38191462 -0.1806226 -0.15357046
000080 30 de 77 bd 52 4a c7 bc bf 19 37 3e 19 a2 51 3e
       -0.06051463 -0.02432743 0.17880915 0.20471992
000090 88 ca 0f be 0c 52 8f bd f0 0b c1 3b 09 89 20 3e
       -0.14042103 -0.06998071 0.0058913156 0.15677275
0000a0 51 cb 48 3e 74 a9 51 be d6 c9 31 be e9 60 cb 3c
       0.19608809 -0.20474797 -0.1736215 0.024826484
0000b0 85 91 3e 3e d4 23 8f bd 99 54 7d bd ce 58 96 3e
       0.18610199 -0.069892555 -0.061848257 0.29364628
0000c0 11 d8 15 be 94 d9 11 be ef 5f 2d 3d d7 40 c9 bd
       -0.14633204 -0.14243156 0.042327818 -0.0982682
0000d0 4c a9 0f 3d 37 4d 94 bd 5b d5 3f be 99 70 96 bd
       0.035073563 -0.0724129 -0.18733732 -0.07345695
0000e0 39 40 f3 3d 85 79 22 3e 69 c4 73 bd 23 73 69 3c
       0.11877484 0.15866669 -0.059513483 0.014248642
0000f0 d6 9e 10 bd ed a4 46 be 4d 04 d6 3d e4 f6 25 3e
       -0.035307728 -0.19398852 0.10450039 0.16207463
000100 4b db 1b bd f6 e4 68 3c 3a d1 6b 3e ea 82 38 3e
       -0.03805093 0.014214745 0.23029032 0.1801869
000110 91 7a 55 3e fc e4 0d 3e ab e8 c3 3d 6e 7a b8 3c
       0.20847537 0.13856882 0.09565862 0.022519317
000120 25 e5 18 be 62 1c 2c bd 25 df f7 3d 70 a1 ea b7
       -0.14931162 -0.042019255 0.12103108 -2.7970149e-05
000130 ca e1 19 3e 1c 6a 22 be 78 8f 10 bc 5d e2 2f 3e
       0.15027538 -0.1586079 -0.008823268 0.17176194
000140 24 f9 9f bd 13 1b 06 bc e6 d4 6f 3e 3d be 06 be
       -0.07811192 -0.008185166 0.23421058 -0.13158508
000150 f6 83 1b bd fa 55 e2 bd d7 6a e1 3d 53 51 d3 bd
       -0.037967645 -0.11051555 0.11006706 -0.10318246
000160 45 49 05 3d 1f de 27 3e 9a e6 96 3d 2f 02 f1 3c
       0.03254058 0.16393326 0.073682025 0.029419987
000170 66 af ad 3d d2 e0 0c be 23 d5 3d 3e 60 8c 21 bd
       0.0848072 -0.13757637 0.18538336 -0.039440513
000180 1b 0e 29 3e f9 6d 7a bd db 34 1a 3d 2c 51 2a 3e
       0.16509287 -0.061140034 0.037648063 0.16632527
000190 62 ca 0f be 20 e0 9a bd 3a 6b ba bc f8 1f d7 3d
       -0.14042047 -0.0756228 -0.022756208 0.105041444
0001a0 1e 79 18 3c 14 8e ca 3d 56 33 e9 bd e1 33 3f be
       0.00930622 0.098903805 -0.11386745 -0.18672134
0001b0 6f 75 8b bc 90 ba 3b 3d d7 9b b5 bd 66 0f 25 bc
       -0.01702377 0.045832217 -0.08867615 -0.010074472
0001c0 f2 29 f1 3d 05 51 8f be 40 89 09 3e b2 2e 6e 3e
       0.117755786 -0.279915 0.13431263 0.2326
0001d0 ad fb 87 3d 4d 4e b6 bd a8 0f 2e be be 5b 88 3e
       0.066398 -0.089016534 -0.1699816 0.26632494
0001e0 0e 22 c9 bc 2f 68 9e bc 44 da 0d be de 10 45 3e
       -0.024552371 -0.019336788 -0.13852793 0.19244716
0001f0 db 8e a3 38 4e 0f a3 3e 2f b1 1c 3e 35 f1 19 be
       7.7990546e-05 0.31847614 0.15301965 -0.1503342
000200 13 de a2 3d 8c 3a 0b be df 65 0b be 62 87 e7 bd
       0.079525135 -0.13596553 -0.1361308 -0.11305119
000210 e2 b7 ea bd 9d 4b 90 3d 59 27 82 bd f4 61 f8 ba
       -0.11460854 0.07045672 -0.06355161 -0.0018950091
000220 05 b6 00 3c fc c8 05 be 7f c9 91 3c da c0 1a be
       0.007855897 -0.1306495 0.017796276 -0.1511263
000230 fa a4 99 bc f5 65 35 bd d1 db c3 bd 74 1e b2 bd
       -0.018755425 -0.044286687 -0.09563411 -0.08697215
000240 17 99 8a 3d bc 0b 8b bd 41 ce 9c 3d 6b c3 ab 3d
       0.06767481 -0.067893475 0.07656527 0.083868824
000250 e7 cd 2f 3e cf 5f db bd ea 93 8f 3d 52 81 8c bd
       0.1716839 -0.107116334 0.07010634 -0.068606034
000260 37 6e b8 bd 77 b1 af bc ee dc b5 bd 6c d3 29 be
       -0.09005397 -0.021446927 -0.088800296 -0.16584557
000270 80 6d 8b 3d e0 c9 3d 3e 03 44 25 3e 7f a8 0c 3d
       0.06807995 0.1853404 0.16139226 0.034340378
000280 35 0b c6 3d 48 8f 50 3e 5e 4f 06 be 8e d9 d5 3d
       0.09670106 0.20367157 -0.13116214 0.10441886
000290 66 7a f1 3c 68 7b 43 3e b3 d9 3f be 1c b4 22 3e
       0.02947731 0.19090044 -0.1873539 0.15889019
0002a0 59 6d f5 bd fb a0 52 bd cc 9f ff bd 3b 40 9a be
       -0.11983747 -0.051423054 -0.12481651 -0.3012713
0002b0 e1 57 1a 3c 42 c0 67 3b 98 ee 13 3d 68 87 5e be
       0.009420366 0.0035362397 0.036116213 -0.21731341
0002c0 ed 1f 17 be ee 2e 13 3e 82 bc d9 3d b0 53 24 3e
       -0.14758272 0.14373371 0.10631658 0.16047549
0002d0 5e 7d 8b bb 48 03 e8 3d 94 02 8a 3d cb 08 79 be
       -0.0042568883 0.11328751 0.06738773 -0.2431976
0002e0 7b 50 c4 bd c0 4d 2f be e8 c6 ac bd 69 b2 4b be
       -0.09585663 -0.17119503 -0.08436376 -0.19892277
0002f0 1e 30 11 3b 30 6a 29 be 00 b9 f3 bd 19 fa 96 bd
       0.0022153924 -0.16544414 -0.1190052 -0.07371921
000300 84 e0 13 be 2b a8 29 be 87 07 a0 3c 06 bd 76 bd
       -0.14441115 -0.16568057 0.01953484 -0.06023886
000310 24 cd 1a 3d 8e f8 59 3e ab c4 37 3d 00 5c e6 bd
       0.037793294 0.21286222 0.04486529 -0.11248016
000320 32 c3 de be b7 f8 be bd 25 11 11 3e ff 00 24 3e
       -0.43508297 -0.09324782 0.14166696 0.16016005
000330 17 75 9c 3d ef c9 96 3d 5f a5 c4 3d e5 8a 49 3a
       0.076395206 0.073627345 0.096018545 0.00076882384
000340 e0 de 04 3e 58 8d c9 3d a7 cc 2a 3d bd ea 43 3e
       0.12975645 0.09841412 0.041699078 0.19132514
000350 51 fe e1 bd e5 8c 81 3c e3 19 14 3d d9 bc b7 3c
       -0.11034835 0.015814254 0.0361575 0.022428917
000360 0e d6 32 3c 20 1d 1f 3e 10 cd 9c 3e 43 0e 12 3e
       0.010915292 0.15538454 0.306252 0.14263253
000370 a9 7d 13 bc 56 8d 15 be 94 c6 8b bc 8d ed f1 3d
       -0.009002128 -0.14604697 -0.017062463 0.11812887
000380 e1 5c 87 bd 01 c7 31 3e 67 80 c7 3d e5 fc ae bd
       -0.06609512 0.1736107 0.09741288 -0.085443296
000390 2b 4b 53 be 05 c8 f2 bb c2 29 68 3e f3 95 8d bd
       -0.20634143 -0.007409098 0.2267218 -0.06913366
0003a0 f6 34 b3 be 2e d2 f8 3d e6 01 37 be 1b 0e 25 be
       -0.35001343 0.121494636 -0.17871818 -0.16118662
0003b0 9e 53 16 3e e4 34 3a bd 05 6d f9 bc 3a 49 2c 3d
       0.14680335 -0.045460597 -0.030447492 0.04206202
0003c0 c2 ca 4c be 89 dc a7 3d b2 9c 90 bd 95 9c 0c 3e
       -0.19999221 0.081963606 -0.07061137 0.13731606
0003d0 33 12 9f bd ed 84 03 bd 42 30 a0 be 91 a7 a8 bd
       -0.07767143 -0.03210919 -0.31286818 -0.08235086
0003e0 26 7b f5 bd 8e 5e 01 3e 98 23 79 3e e1 0c c7 3c
       -0.11986379 0.12633726 0.24329984 0.024298133
0003f0 32 2d 81 3d d4 4b 54 be 7b 1a 14 3e 2d f1 3d 3d
       0.063074484 -0.20732051 0.14463226 0.04637258

actor.2.bias f4 [32]
000000 e0 c6 2d be de bc 86 bd 6e 7a 6f be 6b 51 cf bd
       -0.16970396 -0.06578992 -0.23386547 -0.10122951
000010 b5 86 40 3c 9d fc cd bc de 69 be 3d 11 49 0f 3d
       0.011750867 -0.02514487 0.09297536 0.03498179
000020 67 17 ce bc 0b 5c 30 be 2f 4f aa 3d 92 2e 0e be
       -0.025157643 -0.17222612 0.08315884 -0.13884953
000030 ed 16 97 be 2b 48 e1 bd 69 29 cc bc 72 be 47 3d
       -0.29509678 -0.11000093 -0.02492209 0.048765607
000040 59 ea e1 bd b1 81 45 bd c1 ca 11 be a2 8f ee bd
       -0.110310264 -0.048219386 -0.142375 -0.116484895
000050 8e 97 4a be 98 20 7c bd fa c8 05 3d 71 53 c4 bd
       -0.19784376 -0.06155452 0.03266237 -0.09586228
000060 4d e2 6a 3d 44 cb 6f be dc 5d 14 be d5 88 6b bd
       0.057344723 -0.23417383 -0.1448893 -0.05750354
000070 dc 1e ee bc 0b b6 ae 3d 7a 2d 3e be 22 0e fa bd
       -0.02906745 0.08530816 -0.18572035 -0.12209727

actor.4.weight f4 [4, 32]
000000 c2 b9 19 be d7 7d fa bd 5e 75 20 be 62 f1 c4 bd
       -0.15012267 -0.12231033 -0.15669772 -0.096163526
000010 db 18 71 bc 9a 20 cf 3d 16 6a 77 bd 99 6b 67 3d
       -0.014715399 0.1011364 -0.060403906 0.056499097
000020 0c 67 ec 3d db 52 db 3b 94 79 93 3d 72 20 7f bc
       0.11543092 0.0066932268 0.072009236 -0.0155717
000030 2c 9c 14 be bf bb 2f bd 7c 05 30 be 74 50 ba bd
       -0.145127 -0.042903658 -0.17189592 -0.090973765
000040 80 51 01 bd 24 9c fe bd 52 01 d4 bd fc 62 82 3d
       -0.031571865 -0.12432125 -0.10351814 0.06366536
000050 4b 57 fa bc 4f c9 34 3d 45 a5 3c 39 eb fd 53 3d
       -0.030559203 0.044137295 0.00017990645 0.051755827
000060 d1 26 2c be 14 7a 7e be fd ab 40 3e 31 db 99 3c
       -0.16811682 -0.24851257 0.18815608 0.018781276
000070 4c 0a c3 bd 87 e7 60 3d d5 c9 18 3d 16 68 07 3d
       -0.09523448 0.0549083 0.037301857 0.03305825
000080 9c c6 75 bd ff d1 91 3d bb d4 8d 3d dc 7b bf 3d
       -0.06000386 0.07120132 0.06925341 0.09349796
000090 8e 64 81 3c 38 6c 8f bc 52 9a c0 bd 9a 7b 07 be
       0.015795019 -0.017507657 -0.09404434 -0.13230744
0000a0 37 de d9 bd c2 dc cf 3d 74 99 6f bc 5c b0 99 bc
       -0.10638087 0.10149528 -0.014623988 -0.018760853
0000b0 ac d5 08 3e b4 d1 65 bb 88 a9 85 bc cb 6e 43 bd
       0.1336276 -0.003506762 -0.01631619 -0.047713082
0000c0 23 39 34 bc c3 c2 25 3e d6 1c 3d bd 8b ca 0d 3d
       -0.010999951 0.16187577 -0.04617008 0.03461699
0000d0 c1 67 2f 3c af 78 46 3c 42 f7 94 bd c6 80 ab 3c
       0.010705889 0.012113734 -0.07273723 0.020935427
0000e0 a4 d3 01 3e ca be 80 3e cb 80 22 be c3 14 43 3c
       0.1267839 0.2514556 -0.15869443 0.011906805
0000f0 d0 b0 1f bb cb f1 02 3d f0 dd 02 3e fd e9 e8 3c
       -0.0024366863 0.031968873 0.12779975 0.028431887
000100 e9 2e c8 bd d8 21 27 3e a7 83 65 3d 1d 4e e3 bd
       -0.097745724 0.16321504 0.056033757 -0.11098883
000110 4b 43 4d bd 87 a8 51 be bc a8 a9 3d 43 52 2c be
       -0.050113004 -0.20474444 0.08284137 -0.16828255
000120 3a b4 5e 3e 49 63 fb 3d 6b d1 9e bc b1 e9 43 3e
       0.21748438 0.122747965 -0.019386968 0.19132115
000130 57 1a 8a bd de 23 e0 bd 38 bd 0f 3e 79 12 a0 be
       -0.06743305 -0.10944341 0.14037025 -0.31264094
000140 04 42 d8 3d f9 d5 32 bd 96 9d f6 bd 9e 75 5c bd
       0.105594665 -0.04366109 -0.12041776 -0.053823106
000150 dd f6 ff bd f0 d2 85 bc a3 09 a8 bd b1 cf 4f 3e
       -0.12498257 -0.016335934 -0.08204963 0.20294072
000160 80 38 ba bd 62 7b b9 be 1d d3 14 3e 51 c7 f1 bb
       -0.09092808 -0.36226946 0.14533658 -0.0073784967
000170 30 24 b7 3d d2 2b ae bc fc 3f 06 be ee 88 4b be
       0.08942449 -0.02126113 -0.13110346 -0.19876453
000180 19 dc fc bd 8e 7e 8f 3e 96 7d 4d 3d 97 3b 00 bd
       -0.12346668 0.2802624 0.050168596 -0.03130683
000190 24 c2 2c 3c f0 9d 7d bc a3 df 79 3d 79 e7 07 be
       0.010544334 -0.01547955 0.061004292 -0.13271894
0001a0 16 0e 29 be cb 78 55 be 5b c9 21 3d dc 2a a0 3d
       -0.1650928 -0.2084686 0.03949867 0.07820675
0001b0 e1 9d 47 3d 9b af 94 3d 1c d9 3c be 40 7a 51 3d
       0.04873455 0.072600566 -0.18442196 0.051141977
0001c0 27 80 d5 3c b6 20 b4 3d 98 f7 2c bd dc 47 25 3d
       0.026062084 0.087953016 -0.04222831 0.040351734
0001d0 e7 85 a5 3d 3f f3 12 bd 10 6f df 3d 41 0e 96 3d
       0.080821805 -0.03587651 0.10909855 0.073269375
0001e0 04 bf 45 3e bd 51 b3 3e 9b a6 fe bd 52 dd ce 3c
       0.19311148 0.350233 -0.12434121 0.025252018
0001f0 ed f0 b4 bd 6b b1 7f 3e 4f 67 0c be f7 23 5d be
       -0.088350154 0.24970023 -0.13711284 -0.21595751

actor.4.bias f4 [4]
000000 98 77 5d bc 91 18 80 bd 27 14 b5 bd ab b9 30 bb
       -0.013517283 -0.06254686 -0.088417344 -0.0026966135

critic.0.weight f4 [32, 24]
000000 d5 d8 0e bf 8d 76 91 3d 68 53 07 be 7e be 04 be
       -0.5579961 0.0710269 -0.1321541 -0.12963292
000010 a7 60 2c 3c b9 b8 36 3b 76 26 dd be 74 67 c3 3e
       0.010521091 0.00278811 -0.43193406 0.38164866
000020 05 74 1b be 42 bd ad bd 84 0a 1e 3f a4 cb 5e be
       -0.15180977 -0.08483364 0.61734796 -0.2175737
000030 d9 60 5d bd 10 71 9e bd 52 59 7b 3e eb f1 2f be
       -0.05404744 -0.07736409 0.24545792 -0.17182128
000040 f2 f6 9e 3d 22 ed 92 bd 27 1b 08 bd e1 57 b0 bc
       0.07761945 -0.07174136 -0.03322902 -0.021526279
000050 15 29 10 be ed ef 32 3e 56 21 18 3e 83 72 34 bd
       -0.14078172 0.17474337 0.14856467 -0.04405452
000060 da 87 87 3e 13 30 7a be 25 1f c0 bd 2b 7e ba 3d
       0.26470834 -0.24432401 -0.0938094 0.09106096
000070 8a e8 20 3e f7 93 3d 3c b1 19 69 be 59 7a 04 3e
       0.15713707 0.011570922 -0.22763707 0.12937297
000080 00 cd c0 be 42 a9 c0 3e cc 75 bf 3e 5f 18 04 3e
       -0.37656403 0.37629133 0.3739456 0.12899922
000090 8d 59 81 3c 13 61 16 3e 95 0e 98 3d 4d 89 49 3a
       0.015789771 0.14685468 0.07424656 0.0007688001
0000a0 36 e0 d2 ba 9d 67 06 3d 3f 29 a1 bc 54 e6 81 3a
       -0.0016088549 0.032813657 -0.019672988 0.0009910562
0000b0 74 91 35 be ef 00 9d 3b a7 b6 80 3e f0 c3 78 be
       -0.17731267 0.004791371 0.25139353 -0.24293494
0000c0 1c 55 62 3f fb 37 36 bd c6 01 80 3e 84 84 12 ba
       0.88411117 -0.04448698 0.25001353 -0.00055892044
0000d0 bc 4e d3 3c 79 e7 fe 3b 2e 0c 3c 40 04 d9 c0 be
       0.02579438 0.0077790585 2.9382434 -0.3766557
0000e0 93 c9 8f 3e 89 bd 92 3f 78 20 05 be 6b 4d 81 bd
       0.28083476 1.1464092 -0.13000667 -0.063135944
0000f0 af 45 88 be 77 4b e7 3e 74 bd 6f be a1 89 97 3e
       -0.26615664 0.45174763 -0.23412114 0.2959719
000100 a9 03 11 3b 9d 23 99 bb 67 06 e4 b9 48 2e b8 39
       0.0022127426 -0.004673435 -0.0004349232 0.00035129697
000110 a8 5d 72 be e8 13 cc 3e 39 7d 07 be e9 b6 f0 3d
       -0.2366854 0.39858937 -0.13231362 0.11753637
000120 4a 5c 3f 3d 9a e4 1d 3e a2 2b fa bd e1 30 26 3d
       0.046718873 0.15419236 -0.122153535 0.04057396
000130 14 93 c8 3d 73 08 ac bd 5b af 1a bd 3b 08 91 bd
       0.09793678 -0.08400049 -0.03776489 -0.07081648
000140 ad f5 ce bd 6e 79 c2 3c 7e 59 d2 3d 9b 92 0e bd
       -0.10105453 0.023739543 0.102709755 -0.034807783
000150 8b b7 10 bd b3 3e 83 bd 81 e0 07 3e 1d 54 0d 3e
       -0.03533129 -0.06408443 0.13269235 0.13801618
000160 70 12 0d 3d e6 51 9a 3d 1e 69 e0 bc 1f 23 a4 3c
       0.03444141 0.07535152 -0.027393874 0.020036278
000170 82 ef 06 bd 62 9a 8d bd 95 bf 08 3d f9 7a 8c bc
       -0.032943256 -0.06914212 0.033385832 -0.017148482
000180 a0 ba 7a be 2d 2c 92 bc bc 9a 1f bf 2a 8d b3 bd
       -0.24485254 -0.01784333 -0.6234548 -0.08767159
000190 9e c6 c6 3d 99 37 dd bd 22 5e 78 be 7f a4 f5 3d
       0.09705852 -0.1080162 -0.24254659 0.11994266
0001a0 a2 e3 ca 3d b1 3f 91 3e 66 07 cd 3d 30 f7 b1 3d
       0.09906699 0.28368905 0.10011177 0.086897254
0001b0 bf 9f e5 bd 02 96 cc 3d 4c 63 8f bd c0 08 4c be
       -0.1121211 0.09989549 -0.07001361 -0.19925213
0001c0 10 63 7b bd 62 d4 fd bd 29 2d 86 bd 10 79 4d 3c
       -0.06137377 -0.123940244 -0.06551582 0.012541071
0001d0 fe d8 32 bd ad 58 e1 bd 56 b6 9f bd 5b 7b 58 be
       -0.04366397 -0.11003242 -0.0779845 -0.21140806
0001e0 a8 12 f7 be 6b f6 c3 be 39 72 0f bf b9 46 f2 3d
       -0.4825642 -0.3827394 -0.56033665 0.118298955
0001f0 42 e2 08 be 00 c8 73 3b 4c e1 1d bf 15 b2 09 be
       -0.1336756 0.0037198067 -0.616719 -0.13446839
000200 8c ae 15 3e 09 0c 8a bd cb 4f a0 3f dd ef 0e be
       0.14617366 -0.06740577 1.2524351 -0.13958688
000210 10 95 ca bd 1b 8d da bd 58 05 b5 bd c6 14 64 3e
       -0.09891713 -0.10671445 -0.0883891 0.2227355
000220 0a e0 9d 3d bf ec 32 bc 63 bf 8e bc a2 15 0b bd
       0.07708748 -0.0109207025 -0.017425245 -0.033956178
000230 d1 93 68 3d 98 da 42 be 93 9b 94 3e fa 82 62 3d
       0.056781594 -0.190287 0.29024944 0.05530069
000240 06 cd b4 3d 98 bd c1 3d 48 96 43 be 78 0c 8c 3c
       0.088281676 0.0945999 -0.19100296 0.01709579
000250 63 cc 8c 3d ba 17 89 3d b4 33 3f 3e 1c 0c df bd
       0.06874921 0.066939786 0.18672067 -0.108909816
000260 f0 b6 a2 bd 84 77 68 3e 14 a2 14 bf 8e 65 ec bc
       -0.07945049 0.22701842 -0.5805981 -0.028857019
000270 16 30 6a be 2f 84 c6 3c 2d 1b b1 be 11 f1 ef bd
       -0.22869906 0.024232952 -0.34591046 -0.11715902
000280 04 63 e6 3c 85 29 48 3d 95 be af 3b b1 7f 44 3c
       0.028123386 0.04886772 0.0053632953 0.011993335
000290 ce 42 1b be c5 82 87 3d 42 62 57 be 11 55 6d 3e
       -0.15162203 0.06616739 -0.21033576 0.23176982
0002a0 27 99 35 3e 3f 38 e8 3d 40 08 26 3e 88 28 89 bd
       0.17734204 0.11338853 0.16214085 -0.06697184
0002b0 e4 80 02 3e f2 ee 64 3d 94 a2 7a be 27 91 f0 3c
       0.1274448 0.05589194 -0.24476081 0.029366089
0002c0 a7 b0 83 be 10 22 21 be 66 3b fc bd 13 0e 1a be
       -0.25720713 -0.1573565 -0.12316017 -0.15044431
0002d0 3f 93 48 bd 19 a4 a1 3d f8 cd 60 bd 39 87 b7 3e
       -0.04896855 0.07892627 -0.054883927 0.35845354
0002e0 f6 3c ba bd d5 f9 2c bd 67 64 2c 3b d9 88 ad 3c
       -0.090936586 -0.042230446 0.0026304962 0.021183418
0002f0 b3 ff 2a 3e 9e b0 bb 3d fe 88 08 be 9c 31 77 bd
       0.16699104 0.091645464 -0.13333508 -0.060350046
000300 01 0e 5a 3e 50 f6 fd bc 61 1a cd be 7a 06 08 3d
       0.21294405 -0.03100124 -0.40059188 0.0332093
000310 e0 85 b6 3d 0b a7 e7 bc 69 4c 0a bf f7 6f 5d bd
       0.089122534 -0.028277894 -0.5402284 -0.054061856
000320 11 a8 9f bd 0b 72 56 be 75 89 9f 3e b7 d0 30 bd
       -0.07795728 -0.20941941 0.3115956 -0.043167796
000330 ce ea 98 3d 2c b1 57 3d 59 0a 92 3d fd dd a0 3e
       0.074666604 0.0526592 0.0713088 0.31419364
000340 f7 2a ad bd b7 ef eb ba 05 92 0e 3c ca d0 2a bc
       -0.084554605 -0.0018000518 0.008701806 -0.010425756
000350 1b a1 29 3e 69 b3 cf bd 35 19 54 be 4f 7d 58 3c
       0.16565363 -0.10141642 -0.2071274 0.01321347
000360 fe 88 21 3e 09 d2 72 3d ff 2e e9 3d ba d9 11 be
       0.15774915 0.059282336 0.11385917 -0.14243212
000370 51 66 b3 3d 35 53 94 3c c3 79 68 3c 42 5f 89 3d
       0.0875975 0.018106082 0.0141891865 0.06707622
000380 40 01 41 bc 34 aa 9a bd 96 d9 90 3e aa 65 29 be
       -0.011780083 -0.07551995 0.28291005 -0.16542688
000390 1d 6b 85 3e 37 6a 7b 3d 09 8b 75 3e f3 84 2b 3d
       0.26058283 0.06138059 0.23978819 0.041874837
0003a0 6f 9b 3d bd d9 e4 cb 3d 91 03 4d bd 63 45 eb bd
       -0.04629081 0.099557586 -0.05005223 -0.11487844
0003b0 80 49 72 3d bf 63 98 3b fe 0a 02 3e bf f3 4e 3d
       0.059152126 0.0046505625 0.12699506 0.050525423
0003c0 4f 56 4d bf 9e 36 8c 3d 95 6f df be 4a 82 04 bc
       -0.8020982 0.06846355 -0.43639818 -0.008087704
0003d0 66 f2 96 bc e2 10 0b bb cb a8 dd bf 1e 73 76 3e
       -0.018426131 -0.002121978 -1.7317137 0.24067351
0003e0 16 75 f5 bd 56 48 b6 3f b6 5e bb bd 5b 33 04 bd
       -0.11985223 1.4240825 -0.09148924 -0.03227554
0003f0 6c 09 03 3e e9 83 8a be 30 26 9e 3d d3 bc fa bd
       0.12796563 -0.27053764 0.077221274 -0.122430466

critic.0.bias f4 [32]
000000 b3 e6 f1 3d fd 73 80 be 88 38 d6 be f5 7a 47 3e
       0.118115805 -0.25088492 -0.41840005 0.19480498
000010 25 6d ce bb d1 10 86 3e 36 84 28 be 0c f5 65 3d
       -0.006299632 0.26184705 -0.16456684 0.056141898
000020 f3 9f 36 3d ab 9c 95 bc c4 f9 14 bf a2 6f c0 be
       0.044586133 -0.018263182 -0.5819361 -0.3758517
000030 20 d0 4c 3e 6b 15 ba 3d be 3e 74 bd 9d 33 98 3b
       0.20001268 0.090861164 -0.059630148 0.0046448247
000040 e5 1e 22 be 18 51 10 be 52 3e dd 3e 11 41 4d 3e
       -0.15832098 -0.14093435 0.4321161 0.20044352
000050 0a 44 0d bf f4 9d 52 be 59 6f d5 be e6 f5 43 3d
       -0.55181944 -0.20568067 -0.41686514 0.04784193
000060 fe bb e4 bd 33 75 c8 be 8e 6e 39 3e b3 dd dd 3d
       -0.11168669 -0.39151916 0.1810858 0.108333014
000070 37 3a d3 bc 8f 6d 09 3e e7 2e 53 bc 42 9f f4 bd
       -0.025784595 0.134207 -0.0128896 -0.119444385

critic.2.weight f4 [32, 32]
000000 37 9e f0 3d 0d a8 18 be 61 53 ce bc 12 55 12 bd
       0.11748927 -0.14907856 -0.025186243 -0.03572566
000010 f6 0d 4b bb b6 4d 16 3e 57 56 03 3e fe 3a 44 bd
       -0.0030983663 0.14678082 0.12825905 -0.04790782
000020 cb 3b 28 be 0e 14 11 be 9e 8f 11 be 9e 42 70 bd
       -0.16429059 -0.14167807 -0.14214942 -0.05865728
000030 87 61 57 3d 97 ec 3a be 85 c6 2d 3e 2e c1 bf bd
       0.052583244 -0.18254314 0.1697026 -0.09363018
000040 63 bd f1 3d 78 1e fd 3d ac b7 0a 3e 40 1d 15 bd
       0.11803701 0.12359327 0.13546628 -0.036404848
000050 90 5d 08 bd d1 7d 90 3d 7f fc 1d be 85 76 80 3c
       -0.033292353 0.070552476 -0.15428351 0.015681515
000060 11 87 8e 3d 2d 95 70 bd d4 30 09 be dc c4 33 3b
       0.069593556 -0.058736015 -0.13397533 0.002743057
000070 d3 cf b6 bb 61 10 95 3d 3d fe 2d bd 67 9d 99 3a
       -0.005578974 0.07278515 -0.04247879 0.0011719883
000080 4b 86 0b bd ab af be bc ca 54 0f 3e 17 64 10 bc
       -0.03406362 -0.023277124 0.13997188 -0.008812926
000090 c8 8b b1 bc 3f 28 c4 ba 7f 5d 11 bd 6d a9 20 be
       -0.021673098 -0.0014965608 -0.035489555 -0.15689631
0000a0 b1 80 df 3d 07 55 6c bc c4 63 1f 3d 15 0f 18 3e
       0.10913218 -0.014424569 0.038913503 0.14849503
0000b0 f8 94 8a 3d 7b 42 f9 bd 2b e9 8c bd 12 f4 c0 bd
       0.06766695 -0.12170883 -0.06880411 -0.09421553
0000c0 a2 ee c7 bd 9b 29 89 3d 32 80 76 3b 96 e5 d5 bb
       -0.097623125 0.06697389 0.0037613031 -0.006527613
0000d0 93 9f be 3c b1 92 e6 bd 2f 62 06 3e 86 4e 6d 3d
       0.02326945 -0.11258448 0.13123392 0.057936214
0000e0 8f dc 1c 3e 0e 92 4e 3d 07 2a f6 bc d0 5b 26 3c
       0.15318511 0.050432257 -0.030049337 0.010153726
0000f0 1f 53 3b 3e 5c 66 92 bd 02 f4 53 3d aa fd 3f be
       0.18293427 -0.0714843 0.051746376 -0.18749109
000100 61 f9 37 3d 04 39 bb bd a7 39 45 3a d6 39 e2 3c
       0.04491556 -0.09141734 0.00075235445 0.027615469
000110 0d 1f c0 bb d7 f6 ab 3b d6 87 20 bc 00 3e d7 bc
       -0.0058630765 0.0052479315 -0.009798011 -0.026274681
000120 41 b7 b9 3d cd 4b ce 3d 45 e0 03 be 9b ed 0a 3d
       0.09068156 0.100730516 -0.12878521 0.033918004
000130 26 7a 65 3d db 83 ee 3c ed 63 20 3d fa fc 7a 3c
       0.056024693 0.029115608 0.039157797 0.015319103
000140 0d f5 12 be 89 d9 1a bd f4 33 b9 bd 46 75 04 3e
       -0.14351292 -0.037805114 -0.090431124 0.12935361
000150 af 1e fd bd 75 ec 4c 3d 52 b1 14 3d 7e b7 75 3d
       -0.12359368 0.05003019 0.03630192 0.059989445
000160 4c 64 01 3d f1 9a 39 bd 04 e7 85 bd 8f b7 05 3e
       0.03158979 -0.04531378 -0.06538203 0.13058303
000170 10 03 dc 3c d9 39 e8 3d 04 b2 24 3d 52 99 0e 3e
       0.026856929 0.113391586 0.04020883 0.13925675
000180 11 2f 33 3d 35 57 06 bd 88 fa 53 be 8c 48 b7 bc
       0.043746058 -0.03279801 -0.20701039 -0.02237346
000190 a6 9b d8 3d 0c b2 8a bc a8 5f a8 3e 23 95 90 3d
       0.105765626 -0.016930602 0.3288548 0.070596956
0001a0 5e e0 12 be b3 76 e1 bd 57 d3 66 bf 58 a6 89 be
       -0.14343402 -0.11008968 -0.9016623 -0.26884723
0001b0 a8 6d a4 3d 25 00 86 bd 82 01 e1 3d 4b d6 a1 3b
       0.08028728 -0.06542996 0.10986616 0.004938876
0001c0 40 0d 8e 3b 73 42 b6 bd bb c9 c8 3d d5 e3 1c be
       0.0043350756 -0.08899393 0.09804102 -0.15321286
0001d0 fa 8e 97 bf 91 2e ab 3d b3 05 38 be 37 be 38 3d
       -1.1840508 0.08358491 -0.17970924 0.045103278
0001e0 d4 2d 5b be ea 1c 04 3e ec 2a eb 3e df 50 ca 3c
       -0.21404201 0.12901655 0.45931184 0.024696765
0001f0 aa 8d 95 3d 56 90 45 3d c6 1d a0 3d 3c b2 cd bd
       0.07302411 0.048233353 0.07818179 -0.10043761
000200 f7 e5 34 bd 43 96 e4 bd 87 3d 8d bd b8 5d 15 bd
       -0.044164624 -0.11161473 -0.06896501 -0.03646633
000210 c2 37 49 3d 04 8a b7 bd 71 85 0e be 71 50 08 bd
       0.04912544 -0.08961871 -0.13918091 -0.03327984
000220 f4 ff 13 3e e4 b0 af bd 94 28 d9 bd 86 f5 8c 3d
       0.14453107 -0.08578661 -0.10603443 0.068827674
000230 98 2d 11 bd 4d e3 03 bd c9 91 28 be 81 c0 fa bd
       -0.035443872 -0.032199193 -0.16461863 -0.122437485
000240 97 ce 1e 3d d7 57 80 3d 33 36 d1 bd 2f 72 72 bd
       0.03877124 0.06266754 -0.10215416 -0.059190925
000250 9a bb 79 3d 09 1b 2a 3e 85 75 53 bd 55 58 4a be
       0.060969926 0.16611876 -0.051625747 -0.19760258
000260 7b 65 d9 3d 1a 6f 10 be 0e fa 9d bd 8d 20 06 be
       0.10615059 -0.14104882 -0.0771371 -0.13098355
000270 16 70 6a 3d f9 54 cb 3d 9b 0a 21 3e 37 94 ca 3c
       0.0572358 0.099283166 0.15726702 0.024728877
000280 b6 c1 08 be c4 7e c1 3d c2 4c ac 3d 13 1f c1 3c
       -0.13355145 0.09448007 0.08413078 0.023574388
000290 89 86 18 3d ee db a3 bd f0 b8 17 bc ff 91 05 3e
       0.037237678 -0.08000933 -0.009260401 0.13043974
0002a0 d0 db 87 3c 60 0d 14 be f5 45 d8 3d 23 d2 cb 3d
       0.016584307 -0.14458227 0.10560218 0.0995219
0002b0 6d 21 08 3e 43 b7 a6 3d 7b 2f 13 3e f1 c6 e0 3d
       0.13294001 0.08140423 0.14373581 0.10975445
0002c0 46 98 4a 3d 90 f3 c6 bd 5d cb 92 bc 1a 84 86 3d
       0.049461626 -0.097144246 -0.017919237 0.06568165
0002d0 0d 1b 2b be e6 24 02 be a8 69 ee bd 7a 21 f5 bd
       -0.16709538 -0.12709388 -0.11641246 -0.11969276
0002e0 36 76 87 3d 8e 78 b7 3d 12 30 fb bd 49 4d f0 bd
       0.06614344 0.08958541 -0.12265028 -0.11733491
0002f0 23 54 c0 3d 17 d5 a0 bd b5 f1 16 bd dd 4c 3f bd
       0.09391048 -0.07853144 -0.036851604 -0.046704162
000300 53 dd 15 3e 80 5c 36 be 89 4e 4b 3d aa 04 7d bd
       0.1463521 -0.17808723 0.049635444 -0.061772026
000310 f6 e7 02 be 43 b8 07 3d d5 d1 96 3d 83 72 2f 3e
       -0.12783799 0.03313471 0.07364241 0.17133527
000320 1a e2 ac bd 69 8b 7d bc d4 07 17 be 84 5f e0 bd
       -0.08441563 -0.0154751325 -0.1474908 -0.10955718
000330 77 23 b4 bc a9 ac d3 3d c4 92 4f bd f2 2d 1d 3e
       -0.021989567 0.10335667 -0.050677076 0.15349558
000340 fd b6 71 bc c9 77 bf bd df 49 90 3c be b1 17 3e
       -0.0147531 -0.09349019 0.01761335 0.14813897
000350 ee 8a 62 3d 9a 5f 94 bd f7 5e d7 bd 14 85 19 3e
       0.055308275 -0.07244797 -0.1051616 0.14992172
000360 c0 73 f3 3d 90 5b ff 3d e9 03 ce bd 70 e9 1b be
       0.11887312 0.12468636 -0.100593396 -0.15225768
000370 16 ee 2d be 42 81 7c 3d aa dc 0c 3e 6a 30 95 bd
       -0.16985354 0.061646707 0.13756052 -0.07284625
000380 f7 40 4e be 47 0c 05 be 34 d5 c3 bc d8 7a c0 3d
       -0.2014197 -0.12992965 -0.023905374 0.093984306
000390 92 c1 07 bd 4c b7 ce 3c 1b 65 db bd fb 0d f4 bd
       -0.033143587 0.025233887 -0.10712644 -0.11916729
0003a0 4d 5b c5 bd 7b 84 bc 3d dc 6a 1d be c9 cd bb bd
       -0.09636555 0.09204956 -0.15372795 -0.0917011
0003b0 73 b0 75 bc 14 84 51 3d 45 f5 c5 bd 36 d2 e3 bc
       -0.014995682 0.05115135 -0.09665922 -0.027810197
0003c0 92 8a 41 3d 35 48 41 3c ba 3c 9e 3d fc 20 23 be
       0.04725129 0.011797001 0.077264264 -0.15930551
0003d0 f4 97 57 be 78 55 d2 bd ee 01 16 3e 09 3e f7 bd
       -0.2105406 -0.10270208 0.14649174 -0.12072379
0003e0 85 20 d0 bd 8e 09 d2 bd 4d fe 87 3d ab 97 b8 bd
       -0.101624526 -0.10255729 0.06640301 -0.09013303
0003f0 eb 87 c8 bd b4 f2 1e 3c c0 69 86 bd e0 bc 08 3e
       -0.09791549 0.00970142 -0.06563139 0.133533

critic.2.bias f4 [32]
000000 e1 84 1e be af b1 c5 bb 9a 91 8e bd 38 b5 55 3e
       -0.15480377 -0.0060331444 -0.06961365 0.2086991
000010 cc 41 ab bd f4 8e 14 be 7f 0d 0d be 19 91 52 3d
       -0.08362159 -0.14507657 -0.1377468 0.051407907
000020 8a e6 1b bd 23 4e 33 be b3 f2 82 3c 82 84 b7 3e
       -0.038061656 -0.17510276 0.015984869 0.35843283
000030 2b 2c ec 3c 61 bc 64 bd d1 80 e0 bc b9 0b 8e 3d
       0.028829655 -0.055843715 -0.027405174 0.0693583
000040 85 d1 43 3e 10 b0 53 3d 8f e4 89 bd d7 ba e1 bd
       0.19122894 0.05168158 -0.06733047 -0.11021965
000050 c3 89 cd 3d 3f 29 dd 3d c9 66 12 3e 43 89 36 3e
       0.100360416 0.10798883 0.14297022 0.17825799
000060 49 dd 8e bc 4c f6 c4 bc 87 be 47 bd 2f 66 aa bc
       -0.017439501 -0.024043225 -0.048765685 -0.020800678
000070 e2 87 3e 3d 13 d6 85 bd 2c 7c 49 3d f7 ef e8 3e
       0.046516307 -0.06534972 0.049190685 0.4549558

critic.4.weight f4 [1, 32]
000000 31 c7 36 bc 05 d5 5d 3c a9 a5 6c 3d 45 d2 9b 3e
       -0.011155889 0.013539557 0.057775173 0.3043386
000010 29 8e 13 bc 66 61 a5 3b da ea 1a bd 3d 2f b9 3d
       -0.009006062 0.005047011 -0.03782163 0.09042213
000020 7a 6d 55 3c bf 0a 8e 3c 1d 79 64 3c a1 5d 3e 3d
       0.0130265895 0.017339109 0.013944891 0.04647601
000030 98 a5 3a 3d b5 7c 1d bc df ca 08 3d 43 6c 3c 3c
       0.04556808 -0.009612252 0.033396598 0.011500421
000040 9e fe a9 bd 61 fd a2 bd fa 67 02 3e 76 c6 93 bd
       -0.083005175 -0.079584844 0.12734976 -0.07215588
000050 55 18 72 bc cc 77 93 3d da 89 8b bb 98 84 39 3d
       -0.014776309 0.07200584 -0.0042583765 0.045292467
000060 d6 59 d5 3b 8e 2b 1e 3d cb e1 37 3d 4c ed 9f bc
       0.0065109534 0.038615756 0.044893067 -0.019522332
000070 72 b8 b3 bd 92 d4 d2 3d fb a5 21 bd 87 c4 a1 3e
       -0.087754145 0.10294451 -0.039464932 0.3159525

exp_avg f4 [4]
000000 4a c7 96 bb 92 7e 5f ba 97 fe bf 3b 5d ad 17 bb
       -0.004601394 -0.00085256353 0.005859207 -0.0023144104

exp_avg_sq f4 [4]
000000 a1 6f b6 3b 2a 0a c0 3b b8 03 af 3a 17 e5 b7 3a
       0.0055675064 0.0058605867 0.0013352549 0.0014030066

exp_avg f4 [32, 24]
000000 ef 40 e1 b9 6c a9 9e b9 b5 1d 23 3a b3 0c 60 3a
       -0.00042963724 -0.00030262338 0.0006222383 0.0008546814
000010 88 4c 11 3c 7b 24 25 bb 68 66 13 3a c5 fb f7 38
       0.008868344 -0.0025198746 0.00056228647 0.000118247735
000020 cb a8 a1 bb 33 bb 0b 3b 54 fa 02 ba 76 c1 16 3b
       -0.004933452 0.0021321296 -0.0004996408 0.0023003495
000030 75 a2 42 3a dc 57 48 ba 86 9a 75 b9 0e 3b a4 ba
       0.00074247207 -0.00076424866 -0.00023422585 -0.0012529807
000040 03 63 06 3d 73 05 ab bc ee 04 52 bd 6c 11 5e bc
       0.03280927 -0.020876622 -0.051274233 -0.013553958
000050 be f4 19 3b 77 14 36 bb 35 2a cf ba 5b dc f0 ba
       0.0023491825 -0.0027783194 -0.0015805425 -0.0018376218
000060 85 f1 b4 38 22 ba 07 b8 9f ac 16 b8 85 e4 9f b9
       8.6280554e-05 -3.2359858e-05 -3.5923553e-05 -0.00030497104
000070 18 d4 32 3a 9d b0 cc 39 e9 1f 0f 39 3a 3e ba 38
       0.00068217656 0.000390415 0.0001364943 8.880762e-05
000080 79 55 77 ba af c5 23 3a e0 3b b6 b8 ee 2f 09 b9
       -0.00094350387 0.00062474137 -8.689589e-05 -0.00013083193
000090 0e 08 67 39 34 98 ae b9 40 99 8c b8 ab 14 b6 b9
       0.00022032877 -0.00033301266 -6.704265e-05 -0.00034729144
0000a0 eb 46 14 3b f8 dc 19 bb de 93 57 bc 95 0a 64 bb
       0.0022625278 -0.0023477655 -0.013157813 -0.0034796346
0000b0 b6 53 f6 39 31 b9 36 ba 97 b7 0a ba 6f e4 68 ba
       0.00046983146 -0.00069703447 -0.0005291639 -0.0008884137
0000c0 b5 0c b0 b8 14 08 04 37 71 de e5 b8 d7 4f 13 b9
       -8.394701e-05 7.869694e-06 -0.00010961004 -0.00014048755
0000d0 4e bc 22 b8 97 ab 1c b9 0d eb 20 b9 7e a0 56 b8
       -3.8799182e-05 -0.00014941242 -0.00015346352 -5.1171046e-05
0000e0 66 f3 0e 39 9f 62 a0 b9 70 b8 c4 38 50 c4 db b9
       0.00013632848 -0.00030591057 9.3803625e-05 -0.000419172
0000f0 72 1f 9e b9 45 44 b8 38 2c 30 4b b8 91 a4 5a 39
       -0.00030159537 8.78652e-05 -4.8443835e-05 0.00020851406
000100 13 3e 9a ba 3b 2c 89 b9 c9 ee 19 3b 94 bb 72 3b
       -0.0011767767 -0.0002616363 0.0023488274 0.0037038075
000110 b6 95 12 ba a1 18 e7 38 4c 34 fe 38 7b e7 13 3a
       -0.00055917667 0.00011019526 0.00012121405 0.0005642098
000120 70 b3 70 b9 55 97 78 b7 b2 75 d2 b8 3a d0 bf b8
       -0.00022955029 -1.4817187e-05 -0.00010035503 -9.146375e-05
000130 ae 97 56 3b d6 78 17 ba 6d 20 05 b9 a2 16 99 b8
       0.0032744217 -0.0005778199 -0.00012695948 -7.299824e-05
000140 3b 5a f7 b8 7b ec 13 39 45 b6 3d b7 b3 3b a1 37
       -0.000117946845 0.00014107108 -1.1307716e-05 1.9220495e-05
000150 c9 4c 7a b9 53 d3 af 36 cc d6 ea b7 a3 89 71 39
       -0.00023870463 5.240008e-06 -2.7994996e-05 0.00023034825
000160 a5 f9 8f 3b 0d f2 94 bb db b8 44 3b 38 93 e9 b7
       0.0043937736 -0.0045454563 0.003001741 -2.7844319e-05
000170 6b ad 81 b9 42 b5 9e b9 46 a4 90 39 6a e2 1d 3a
       -0.00024734004 -0.00030271156 0.00027588214 0.0006022813
000180 73 f7 c2 b8 12 a2 84 b8 07 d2 71 38 12 2d 45 39
       -9.296732e-05 -6.3244384e-05 5.765448e-05 0.00018804174
000190 86 5c d6 3a e6 6c 4c ba 13 98 80 b8 0d 88 08 b8
       0.0016354478 -0.00077982096 -6.131842e-05 -3.2551634e-05
0001a0 8b 36 21 3a 91 04 27 39 4f 4b 39 b8 bd 86 c7 39
       0.000614979 0.00015928062 -4.4177574e-05 0.00038056626
0001b0 69 4f 41 b7 2f 1f c2 38 6b 13 87 38 d8 95 f5 38
       -1.1522186e-05 9.256449e-05 6.4409185e-05 0.00011710421
0001c0 ca 85 57 3b 9b 02 ae 3a ac a5 6d 3b 5c a3 d1 bb
       0.003288614 0.0013275923 0.0036262078 -0.006397648
0001d0 22 4b 25 38 50 9e 78 39 27 36 b3 39 b0 8b 44 39
       3.940904e-05 0.00023710099 0.00034181887 0.00018744054
0001e0 24 ce 8f 38 6c b5 94 b8 53 e5 04 39 9a 84 7f 39
       6.857168e-05 -7.0909824e-05 0.00012673931 0.00024368093
0001f0 6c ae 4c 3a f2 b3 4e 3a ce 3a 65 37 3c a3 3f 38
       0.00078079733 0.00078850903 1.3663155e-05 4.5689972e-05
000200 5a a4 f9 b8 c3 ae dc 39 27 36 97 b8 bc fa d6 39
       -0.00011903858 0.00042091878 -7.210328e-05 0.00041004072
000210 02 ff c6 38 f1 07 1f 38 cd 06 cc b8 f8 c1 8a 37
       9.488875e-05 3.791595e-05 -9.728745e-05 1.6541206e-05
000220 9a a0 0e 3a 35 ce 79 b8 96 2e 9f bb 58 1d e2 bb
       0.00054408016 -5.955827e-05 -0.0048578484 -0.0069004707
000230 e1 ea 47 39 2c f2 43 38 84 cf eb b9 94 cc 4b b9
       0.00019065618 4.6717163e-05 -0.00044977304 -0.000194358
000240 df 9d 1a 38 26 7b 37 36 a6 8e 37 38 a7 85 fc 37
       3.686349e-05 2.7340807e-06 4.376345e-05 3.0102978e-05
000250 8d 97 a7 b9 6d e2 1d 37 98 e8 19 39 8e 32 65 38
       -0.00031965636 9.410648e-06 0.00014677865 5.4644937e-05
000260 97 4a 35 b9 76 30 d2 b9 a7 f0 4b b7 f2 0c bc b9
       -0.00017289292 -0.00040090428 -1.2155774e-05 -0.000358678
000270 0d 05 b2 38 d0 d8 af b8 19 2f d8 38 aa cd c2 b8
       8.488642e-05 -8.385035e-05 0.00010308455 -9.288949e-05
000280 28 5b 13 ba 91 b0 75 3a 96 d4 c2 3a af 9e 3d b9
       -0.00056211883 0.0009372319 0.0014864381 -0.00018083559
000290 b2 f5 f5 38 90 1b 96 b8 13 99 28 39 89 af 5c b9
       0.00011728275 -7.157691e-05 0.00016078753 -0.00021046227
0002a0 db bc 63 b7 0a a6 6c b6 e6 d1 0d b9 65 fc 61 b9
       -1.3574226e-05 -3.5263388e-06 -0.00013525001 -0.00021551696
0002b0 96 c2 be ba aa 5b 8b ba 1d ee bf b7 bb 94 54 36
       -0.0014553841 -0.0010632176 -2.2879854e-05 3.1677034e-06
0002c0 2a 7a 8a 3a 61 18 b2 b9 21 f7 0b b9 4a e4 8a 39
       0.0010564972 -0.0003396897 -0.00013348136 0.000264915
0002d0 b5 fd fb 38 cf 8f 89 b8 9c b6 94 38 48 25 be 37
       0.00012015869 -6.5594555e-05 7.0912036e-05 2.2667125e-05
0002e0 d8 09 a3 ba 5f 18 04 3b 8e a4 94 3b da ae be ba
       -0.0012438847 0.0020156128 0.004536218 -0.001454796
0002f0 cb 44 f8 38 8b b8 59 38 01 3c 49 38 2b 00 c7 b6
       0.00011838375 5.19087e-05 4.7978017e-05 -5.9306817e-06
000300 30 c7 4d b9 71 c5 f2 38 b4 cb 47 b9 f9 0b ec b9
       -0.00019624527 0.000115762356 -0.00019054004 -0.00045022348
000310 3e 94 82 3b 42 e8 f3 b8 02 ef af b9 a0 bf 52 b9
       0.003984957 -0.00011630404 -0.00033556676 -0.00020098547
000320 5c 16 e2 3a 17 7a d2 b8 24 5b 6c 39 ff 94 62 3a
       0.0017249095 -0.00010036321 0.00022540666 0.0008643418
000330 d4 46 ba b9 93 ca 87 39 72 40 65 b8 9e ec 0b 3a
       -0.00035529456 0.00025900136 -5.4657874e-05 0.0005337688
000340 e2 2c 85 39 26 56 57 bb b4 d1 1d 3c 72 25 23 3a
       0.00025401177 -0.0032857745 0.009632517 0.00062235363
000350 3f e9 35 ba 5c 74 b2 39 f4 b5 05 3a 47 43 7a 3a
       -0.00069393584 0.000340375 0.00051006605 0.0009546768
000360 8a 68 1b b9 63 03 39 b9 d1 9b b9 39 c5 25 2e 3a
       -0.00014820896 -0.00017644237 0.00035402042 0.00066432013
000370 10 9a b1 3b 6f b9 c9 b9 d7 bd bc 39 aa 36 e4 38
       0.005419977 -0.00038475866 0.00035999596 0.00010882069
000380 36 b9 b4 bb a7 16 bd 3a 70 47 86 b9 c5 28 0c 3b
       -0.005515243 0.0014426307 -0.00025611697 0.0021386605
000390 05 52 ea 39 dd 10 00 ba c0 1e 0e 38 21 57 82 ba
       0.00044693067 -0.00048853253 3.3884076e-05 -0.0009944179
0003a0 87 7e 80 3c b7 96 45 bc e9 ca d7 bc 85 88 47 bc
       0.015685333 -0.012059859 -0.026341872 -0.012178545
0003b0 ef 06 b1 3a 01 e3 e1 ba 38 e6 1c ba 7e 82 bf ba
       0.0013506095 -0.001723379 -0.0005985233 -0.0014611033
0003c0 3f 39 03 b9 29 85 45 b8 b7 0c 7d 38 e8 9a f1 b8
       -0.0001251446 -4.7092475e-05 6.0331742e-05 -0.00011520629
0003d0 2a f6 86 3a 1d 27 41 39 a0 46 90 b8 e7 81 8d 37
       0.0010296751 0.00018420485 -6.87961e-05 1.6869e-05
0003e0 48 86 74 ba cb 72 c4 38 79 c5 4f b7 4b 49 2c b9
       -0.0009327871 9.36739e-05 -1.2384139e-05 -0.00016430502
0003f0 d1 85 4f b8 f5 f0 6f b7 4f db 0e b8 7a 9d 5f b9
       -4.9477272e-05 -1.4301612e-05 -3.4059685e-05 -0.00021325602
