2026-01-31_00-50-28/model_200.pt (torch, 62651 bytes, 36 tensors)

std f4 [4]
00000000: 07a5 8c3d 87a7 9d3d 436f 073e db04 053e
0.06867414 0.07697969 0.13226037 0.12990133

actor.0.weight f4 [32, 24]
00000000: 1ac9 ac3f 6d3f 46bd 9bea 2b3e 7068 2bbd
00000010: 21ba 053e c0bc 0bbe 1ea0 1340 b6ac aebe
00000020: a9e1 2f3e c4a5 063e fbc6 ce3e e954 3e3c
00000030: 566f b23d 7175 ce3e 332b ca3d 8f06 323d
00000040: 480a febc ef69 633c a58c 2dbd 2d34 173d
00000050: ae82 ab3d 01cc 1c3e 1784 81bc b50c e03c
00000060: 8088 11c0 6324 1cbe b4aa ac3c 2704 2cbe
00000070: 2b04 20be e45d a8bd f971 90bf f18b 6bbd
00000080: a0dd 663f 6a13 083d 8b5d 0ebf 49af 13be
00000090: f182 c73c 6f66 98be d489 3b3c 0242 23be
000000a0: 487b b9bb 7cb9 a0bd c2d1 123d e651 03bd
000000b0: 07d1 823d 2065 54bd 83e6 e7bd a853 d73d
000000c0: 93c0 1b3f 4149 aabe aa9f c23d c5ad b13e
000000d0: 80ae b4bd 508c 81bd 0d48 1bbf aad5 98bf
000000e0: c37a dd3d 15b3 5abe dd4b 403f 00d5 9d3e
000000f0: aa4a 1b3e 3afe 4d3f 363f 023c a9f1 2d3f
00000100: ee8e 513e 252f 9c3d affc 90bd 8321 783d
00000110: 08f9 b03d 0969 a53e 1b11 62bc 5c71 00bd
00000120: 6676 7b3f 5cb9 18be 09c2 80be ccf9 f63e
00000130: b750 24be 2950 e03d 2c72 85bc 1520 97bf
00000140: 779b 1d3e f47b f53e 7af4 4bbf 222d a2be
00000150: c0c3 d23b f707 153f fbf3 59be f703 253e
00000160: a8a0 343e 6cd1 713d c04c 203b b7c0 b6bd
00000170: e04b e0bd a1e1 ba3d 8a6a 36be f70b 29bd
00000180: 8b9d 08be 6003 d13e 1ffb 423f 038a a1be
00000190: c804 1c3e 00fb 583e 1c7e 1a3f 7cd3 883f
000001a0: 1a95 893c 337c 07bf e2cc 533f 712b d93e
000001b0: da3f c23e 429e 123f a7d9 193f fb39 94be
000001c0: ed99 35be 9fee 833d f3c4 973b 989d c13d
000001d0: 74f2 89be 0fb1 3e3f 45e9 eb3e 1822 c93d
000001e0: 422c 4abf 8c5f 07bf eaf5 0cbe 3609 9e3d
000001f0: 54a2 0d3e 53c7 87be 8f59 143f b3a2 893e
00000200: af67 753d 0839 fabe 634f 65be ec21 cc3e
00000210: 0deb 893e b211 47bf 430b a4ba f569 acbe
00000220: fec3 f2bd a0a6 39be f632 2bbd 46f6 1fbd
00000230: e6c6 5a3e a580 95be ce96 93bd 5865 823e
00000240: b6c6 dabe 8961 1cbd 73c2 d43f c36d 693e
00000250: 39f6 88be 3002 b9bd 5581 d5be 54a1 00bf
00000260: 9e52 563e ec9b 17be b0d1 6a3f eab8 283e
00000270: f097 223f 5e2d 83bf e0ec 383e f3f2 103e
00000280: 2d12 b03d 7e3a ffbc 9bde a9bd 4e9b f9bb
00000290: b3b6 083f 25c4 13bf 4995 a23d 875f ccbe
000002a0: ede0 5c3f c4ed b4be 25aa cd3e 0eec 5f3e
000002b0: b523 9f3e d211 943e c5c1 1e3f 8a39 fabe
000002c0: 64bd 1d3f 5524 063f 7762 21be abbc 353c
000002d0: e615 82be 7d49 7e3e a6cb 0fbe 585e dd3e
000002e0: 0220 11bd 364b 973c 11ef ecbc f1d7 613c
000002f0: 1626 97be 1a86 8d3e d3ee 6fbd 254e f53d
00000300: 0833 c33e 08b8 fb3e c36e 1ebe 85d9 98be
00000310: 0653 60be a2b1 d6bd bfbb 483e f6c3 873f
00000320: 7b78 01be e32d ba3e 9ebc 2b3e cd75 c0bc
00000330: 3007 a43e 6e6d a43f ee49 823d 0fae 313f
00000340: 79d9 d33d 38ba cfbd 6ed1 dc3b 49de 10bd
00000350: cb17 343e c7da 4d3f 81af 62bd 2bdf 313e
00000360: 2936 a63f cc34 f23e 91fd e93e 8883 2bbd
00000370: 1735 043e be44 db3c 3041 0340 041d 38be
00000380: e10d 533e b331 c2bb fd2e 28bf 6005 27bd
00000390: d5bb 993d bb4d 9dbe 2de2 433e 73b6 6cbe
000003a0: dd60 36bc 18ae e43c e765 60b9 f23c 0a3d
000003b0: edfb 2cbe 39e4 d7bd 655a 243d b088 df3d
000003c0: 5204 243f c803 263f b494 063f 79dd c73d
000003d0: 74dd 16bd e080 923d c187 323f f7c8 3bbe
000003e0: e54a 943d 353c 1cbf c615 0bbf 2cb3 9cbe
000003f0: b13f bebe e7d4 e9be 93db cabe 6134 72be
1.3498871 -0.04840033 0.16788714 -0.041847646 0.13059284 -0.13646221 2.3066478 -0.34116143
0.17175926 0.13149172 0.40386185 0.011616924 0.08712642 0.40323976 0.09871521 0.043463286
-0.031010762 0.013880237 -0.042370457 0.036914993 0.083745345 0.15312196 -0.015810056 0.02734981
-2.2739563 -0.15248255 0.021077491 -0.16798459 -0.1562659 -0.08221033 -1.1284782 -0.057506505
0.9018192 0.03322164 -0.55611485 -0.14422335 0.02435443 -0.2976565 0.011446435 -0.15943149
-0.005660448 -0.07847878 0.035844572 -0.032060526 0.06387525 -0.051854253 -0.113232635 0.10514003
0.6084072 -0.33259013 0.0950311 0.34702888 -0.08822346 -0.063255906 -0.60656816 -1.1940205
0.108144306 -0.21357377 0.7511576 0.3082657 0.15165201 0.80466044 0.007949641 0.6794687
0.2046468 0.076261796 -0.070794456 0.060578834 0.08641249 0.32306698 -0.013798024 -0.031358108
0.98227537 -0.14914459 -0.25148037 0.48237455 -0.16046415 0.10952789 -0.016289793 -1.1806666
0.15391336 0.4794613 -0.79669917 -0.3167506 0.0064320266 0.5821528 -0.21284477 0.16114794
0.1763941 0.05903761 0.002445981 -0.08923476 -0.10951972 0.091250665 -0.17814079 -0.041271176
-0.13341348 0.40822887 0.7616443 -0.31550607 0.15236199 0.21189499 0.6034868 1.068954
0.01679473 -0.5292389 0.827345 0.42415956 0.3793934 0.5727273 0.60097736 -0.28950486
-0.177345 0.06441998 0.0046316325 0.09453887 -0.2694279 0.7448892 0.46076408 0.09820956
-0.7897378 -0.5288017 -0.13765684 0.077166006 0.13831455 -0.2651926 0.57949156 0.26881942
0.059913334 -0.48871636 -0.22393565 0.3986963 0.26937142 -0.77761376 -0.0012515563 -0.3367459
-0.11853789 -0.18129969 -0.041796647 -0.039053224 0.21364936 -0.2919971 -0.07206498 0.25467944
-0.4272973 -0.038178954 1.6621841 0.22795777 -0.26750353 -0.0903362 -0.41700235 -0.5024617
0.20929953 -0.14805573 0.9172621 0.16476789 0.6351309 -1.024822 0.1805911 0.14155178
0.08597217 -0.031155821 -0.08294412 -0.0076173907 0.53403777 -0.5772117 0.0793863 -0.39916632
0.8628071 -0.3533765 0.40168872 0.21867391 0.3108193 0.28919846 0.6201442 -0.48872024
0.6161711 0.5239919 -0.15760218 0.011092345 -0.25407332 0.24832721 -0.1404253 0.4323604
-0.035430916 0.01846848 -0.02892259 0.013784395 -0.29521245 0.27641374 -0.05857737 0.119777955
0.3812487 0.49163842 -0.1547194 -0.29853454 -0.21906671 -0.104830995 0.1960287 1.0606678
-0.12643616 0.36363134 0.1677117 -0.023493672 0.32036734 1.2845895 0.06361757 0.6940622
0.10344214 -0.1014294 0.006738833 -0.035368238 0.17587201 0.8041195 -0.055343155 0.17370288
1.2985278 0.47305906 0.45701268 -0.041873485 0.12910877 0.026766177 2.0508537 -0.17979819
0.20610763 -0.0059263348 -0.656967 -0.04077661 0.07506529 -0.30723366 0.19129248 -0.23116474
-0.011131492 0.027915046 -0.00021400266 0.03374953 -0.16892977 -0.10541577 0.04012527 0.10914743
0.6406909 0.6484952 0.5257065 0.097590394 -0.036832288 0.07153487 0.69738394 -0.18338381
0.072408475 -0.6102937 -0.543301 -0.30605447 -0.37157968 -0.45670244 -0.39620647 -0.23652793

actor.0.bias f4 [32]
00000000: f598 303e 4a7c 00bf 7fc7 8dbe 801c 04be
00000010: ce3e b9bd 8cd7 bebd bfc1 56be c31b 09bd
00000020: bd0c 3e3e c7fb 3c3e d95b 32be 81c7 31be
00000030: 5b6d 66be 8a27 e6bd 90b2 45bc df54 c4bd
00000040: cdbd 0e3e 7e36 d3bd 1c1c a9be f001 27be
00000050: 39e7 b9bd 2627 24be f599 19be db47 5d3c
00000060: 31e9 9f3d 9a2e bfbd e80b 65bd 046d 34be
00000070: 39fa a3be cd2b 53be 424f 45be 314f 74be
0.17245848 -0.5018965 -0.27691266 -0.12901497 -0.09045182 -0.09318456 -0.20972346 -0.03347374
0.18559547 0.1845542 -0.1741785 -0.17361261 -0.22502653 -0.1123801 -0.012066498 -0.095865004
0.13939591 -0.10313128 -0.33029258 -0.16309333 -0.09077305 -0.16030559 -0.15000136 0.013505901
0.078081496 -0.093350604 -0.055919558 -0.17619711 -0.32026842 -0.20622177 -0.19268516 -0.23858334

actor.2.weight f4 [32, 32]
00000000: 6487 f23d 2177 06bd c3d9 a4bc e04f 34be
00000010: 102d 98bd 8c1e 093e 05c3 213e 64c1 103e
00000020: 7d6e 4cbd 0c34 053e 3441 253e 216c 3fbd
00000030: 0608 013e ab34 25bd a20c 54bd 13dd 38be
00000040: 7c56 04be 09b2 5fbe d006 eb3d bd08 a03d
00000050: 2643 5d3e 5005 ab3d 2fd9 bbbd 839e d43d
00000060: a3e6 6cbc 15be 333e 2904 9c3e f287 773e
00000070: 587e 89bd 7312 ce3e 0867 1dbe 5d04 2ebe
00000080: c66d 0fbe 2b7f 603c 5118 863e 5909 4f3e
00000090: d840 5ebe d891 11bd c434 773d dd0e 183e
000000a0: d467 123e a08c 99be be0b 34be 616c d13c
000000b0: 7431 3d3e 58c5 d0bd 44f1 28bd 8c6f a53e
000000c0: 1ef6 0dbe 9436 5bbe 04c2 a13c 393d 6abd
000000d0: 7b71 a43c ea3c 7abd c843 53be 66cb bebd
000000e0: 3897 f73d f104 313e 3775 5abc fefd e63c
000000f0: f750 06bd 5403 6bbe 816a 1d3e fe6b 403e
00000100: 0ed1 58bd 8c96 023d 3710 973e 7454 403e
00000110: 345f 283e f757 0d3e 76bc c73d 288d d33c
00000120: 2259 29be e61a 34bd 5c97 b43d 92f7 153d
00000130: 8a9f 203e 2c69 0fbe 2ba2 fd3c 122e 443e
00000140: 0b0f 2dbd 2991 b13b 32a9 723e 4355 15bd
00000150: ee50 1dbd 82b2 f8bd 11c1 e53d a11b f6bd
00000160: 14d3 153c 43ee 2c3e 89be 053e 3f61 d53b
00000170: b3d6 2f3d b2ac d6bd 0f4d 673e 18a9 0bbd
00000180: b09e 473e 9ca9 9fbd f2b9 893d ea88 ec3d
00000190: dcba 20be 1419 1cbd 045c 2abd 4888 8c3d
000001a0: 4bf4 153d 0ed0 dd3d cb1c 1fbd 13b9 34be
000001b0: 9a8d a2bc e882 2d3c 2fe1 cdbd 494b 01bd
000001c0: 4c74 333d 8043 9cbe c8bc fb3d 1f17 4f3e
000001d0: 8e63 b83d 8497 bfbd 7f7b 27be ee6b 8e3e
000001e0: 4163 49bd 96ce 75bd e46b f7bd f140 433e
000001f0: e757 d63c bca4 a23e 8e9f 153e 4462 22be
00000200: 0ca7 c33d e283 05be 4ffc 26be 9853 3abe
00000210: d5e7 19be efa4 bd3d 2c86 a6bd c66c 383a
00000220: 273f 3b3c 9b1b 16be b98b 913d 9a76 09be
00000230: 4f3e 013c 66dc 43bd 17ae 06be a297 d9bd
00000240: 49bc 463d 1b14 51bd d78c e83d 5807 3f3d
00000250: 70e8 373e c1d1 dabd 03b4 3c3d fda0 9cbd
00000260: b9e4 b4bd 3995 4abd 8180 a7bd 9620 1dbe
00000270: fd28 c43d 0396 3f3e 62a4 373e 6541 573d
00000280: 7403 ca3d c0b8 5d3e def0 22be 63ad fc3d
00000290: de81 ed3c 228b 093e 6fb1 67be 3a9f 263e
000002a0: 3d6d 96bd c3af 81bd 767d 0ebe 8043 acbe
000002b0: cd1b 743d 97ac 3339 a32f e83c fe65 5cbe
000002c0: f361 29be d493 143e 1770 023e a63a 0c3e
000002d0: 390d f93b 7d67 bb3d 3ff7 8d3d e48a 8abe
000002e0: ac72 9dbd 4b23 4ebe 66f8 bdbd 71bd 3fbe
000002f0: e01b 993b 6a18 3bbe f0dd ecbd c83f d6bd
00000300: 67cf 1fbe 9ec8 0fbe ba75 8e3c a311 c3bd
00000310: 2914 0bbc ff2c 7d3e e1dd 753d be0e 20be
00000320: 6689 08bf 611b e5bd 8a95 e73d aae4 083e
00000330: 1b26 e73c d3f1 963d 19ac 993d a361 b0bb
00000340: d2c7 8d3d 05f5 da3c c972 003d d2ad 5a3e
00000350: 813d efbd 4763 8a3b c92f 92bc 5017 313d
00000360: 13b6 7e3c 9b86 1a3e a76c 983e 7a11 103e
00000370: 6989 983b ac9b d5bd 0969 27bb 306a d83d
00000380: 3310 fcbc 79b9 473e 173a ac3d 9883 17bd
00000390: ef6c 71be d0c3 f53c 2f70 8a3e fe2e bdbd
000003a0: be4d bbbe 8c3d 293e bfdc 42be 6b50 30be
000003b0: 5619 2a3e bcbb cabc 3681 b1bd 55a3 363d
000003c0: e1d5 94be dbb4 a93d 01ce 5dbd 86e0 d83d
000003d0: 2e44 a2bd 576f 23bd 8f62 b8be 3b33 41bd
000003e0: bce7 1abe 1fb2 003e 9822 8f3e 16e1 423d
000003f0: 19bf cf3d 6e0b 61be e5d8 263e efc7 e13d
0.1184223 -0.032828454 -0.020123368 -0.17608595 -0.0743047 0.13390559 0.1579705 0.14136273
-0.049910057 0.13008136 0.16138154 -0.04673398 0.12600717 -0.04033343 -0.05176986 -0.18053083
-0.12923616 -0.21845259 0.11475909 0.07814167 0.21607646 0.08350623 -0.09172284 0.10381796
-0.014459285 0.1755298 0.30471924 0.24172953 -0.06713551 0.4024845 -0.15371335 -0.16993852
-0.14006719 0.013702194 0.26190427 0.2021841 -0.21704423 -0.035539478 0.060353056 0.1484942
0.1429742 -0.299901 -0.17582604 0.025564374 0.18475896 -0.1019389 -0.041245714 0.32311666
-0.13863418 -0.21407539 0.019745834 -0.057187293 0.020073643 -0.06109325 -0.20631325 -0.09316139
0.120893896 0.17287041 -0.01333361 0.028197285 -0.032792058 -0.22950488 0.1537266 0.18791196
-0.052933745 0.031881854 0.29504558 0.18782216 0.16442567 0.13803087 0.09752743 0.025824144
-0.16537908 -0.043970965 0.08817932 0.036613055 0.1568586 -0.14004964 0.030961117 0.191582
-0.042250674 0.005418916 0.23697355 -0.036458265 -0.03840726 -0.12143423 0.11218465 -0.120169885
0.009144563 0.16887765 0.13060965 0.006511837 0.042929363 -0.10482158 0.2258799 -0.034096807
0.19494128 -0.07796022 0.067249194 0.11549552 -0.15696281 -0.038109854 -0.04159166 0.06861931
0.03660993 0.10830699 -0.03884582 -0.17648725 -0.019842912 0.0105902925 -0.10052716 -0.03156594
0.04381208 -0.30520248 0.122918665 0.20223664 0.090033635 -0.09355071 -0.16355704 0.2781672
-0.04916692 -0.06001147 -0.120811254 0.19067742 0.026164962 0.31766307 0.14611647 -0.15857798
0.09553346 -0.1303859 -0.16307186 -0.18195951 -0.15029843 0.09259974 -0.0813106 0.00070352515
0.011428631 -0.14658968 0.07106728 -0.13424149 0.007888391 -0.04781761 -0.13152348 -0.10624625
0.048519406 -0.051044565 0.11354988 0.046637863 0.17959762 -0.10684539 0.04607011 -0.076478936
-0.08832688 -0.049458716 -0.08178807 -0.15344462 0.095781304 0.18709569 0.17933801 0.0525526
0.0986394 0.21652508 -0.15912196 0.123377584 0.02899259 0.13431981 -0.2262628 0.16271678
-0.07345054 -0.06332352 -0.13915047 -0.33645248 0.059596825 0.00017135065 0.028343027 -0.21523282
-0.16541271 0.14509517 0.12738071 0.13694248 0.007600453 0.09150598 0.06931924 -0.2705909
-0.076878875 -0.2013065 -0.09275894 -0.1872461 0.0046725124 -0.18271032 -0.11565769 -0.10461384
-0.15606461 -0.14041373 0.01739012 -0.09524848 -0.008488693 0.24724196 0.060026053 -0.15630624
-0.53334653 -0.11186863 0.11307819 0.13368478 0.028216412 0.07370343 0.07503528 -0.005382733
0.06922878 0.026728163 0.031359468 0.2135537 -0.11681653 0.0042232606 -0.017845051 0.043235123
0.01554634 0.1509041 0.29770395 0.14069167 0.0046550524 -0.10430083 -0.0025544784 0.10567129
-0.030769443 0.19504346 0.08409517 -0.036990732 -0.23576711 0.030000597 0.27038714 -0.09237479
-0.3658275 0.16527385 -0.1902952 -0.17218177 0.16611227 -0.024747722 -0.08667223 0.04458936
-0.29069427 0.082864486 -0.05415154 0.105896994 -0.079231605 -0.039901104 -0.36012694 -0.047167998
-0.15127462 0.12567948 0.2795608 0.04757794 0.10143871 -0.21977016 0.16293676 0.110244624

actor.2.bias f4 [32]
00000000: 1486 39be 161d bcbd c9a4 79be 5f30 bbbd
00000010: f71f de3a b19f 01bd 8824 8a3d 754f 493c
00000020: 95bd 1abd 83f6 44be fff8 883d 81e5 18be
00000030: 0332 94be b5bb d1bd 5dec ccbc d9a8 f03c
00000040: 8c67 efbd e9ef 52bd 4e11 08be 52ed bcbd
00000050: 6d44 5bbe b1dd 55bd 9cb2 973c 45e4 10be
00000060: 45b2 573d 1ac1 6dbe 4869 38be 790e 19bd
00000070: 837e 54bd 5ff1 883d 6983 22be fa74 08be
-0.18117553 -0.09185235 -0.24379267 -0.091400854 0.0016946782 -0.031646434 0.06745249 0.01228701
-0.037778456 -0.19234662 0.06688117 -0.14931299 -0.28944406 -0.102408804 -0.02501505 0.029377388
-0.11689672 -0.051498327 -0.13287851 -0.09224953 -0.21412821 -0.052213375 0.018517785 -0.14149578
0.052660245 -0.23218194 -0.18008912 -0.037367318 -0.051878463 0.06686663 -0.15870441 -0.13325873

actor.4.weight f4 [4, 32]
00000000: 027b 1ebe 981d debd c85c 18be 59ba c3bd
00000010: 1110 bcbc 6594 cf3d d41f 2bbd 4ed8 573d
00000020: 4ed2 0c3e f846 843b cc09 923d 4d02 0c3d
00000030: d551 16be 4fbd cdbc bc33 28be ab53 f9bd
00000040: d590 fbbc cdf7 f4bd 9cc2 adbd ffaa b33d
00000050: bef3 2abd 8a20 b03c 09b5 003c 674f a13d
00000060: a07f 19be 3c28 0dbe c54f 3e3e e96f b83c
00000070: 7bd0 b4bd 7597 223d 382a 4f3d cd6d 2f3d
00000080: f1c7 afbd 6cac 9b3d 9a57 8b3d 9578 5b3d
00000090: a898 d13c 0177 84bc 6b0f acbd c622 2bbe
000000a0: e8d4 9ebd b3cf f43d 6bdc c6bc ea15 88bc
000000b0: 5b73 f83d 854b 9e3b 724a 2dbd 2362 ccbd
000000c0: a146 2dbc 6faf 283e a2dd 54bd a7ec 983d
000000d0: 2f51 3c3c ac13 573c 3b15 99bd d112 0a3d
000000e0: 226e 113e 2795 5f3e c1e1 4cbe 1b55 8a3c
000000f0: b1c0 3d3c 9fe1 e2bb d8da d33d a41c 093d
00000100: b301 04be 852a 5c3e 0772 833d 9317 a6bd
00000110: d334 67bd 3062 56be 78ee 9c3d dc63 09be
00000120: 0b8e 593e f013 203e c68b e5bc 0054 633e
00000130: de6f 6cbd 9549 f4bd 46ff 0e3e e73a cbbe
00000140: ccb0 023e 04b3 49bd 7d10 febd a2af 1ebd
00000150: 2317 0cbe ee05 1c3b 483f 94bd 995b 603e
00000160: 73e8 ebbd bcdf 9ebe 55e4 073e 9fc4 96bb
00000170: b80a 8a3d 5c8e 71bd 52f4 f7bd a0e7 46be
00000180: dbb3 d2bd ac8e 9c3e 3c4d 823d 0a83 4fbd
00000190: 3afa 373d ee7d 94bb a8e4 6c3d d9c3 24be
000001a0: 0d1b 61be 971c 17be c74e 393d fdf2 c93d
000001b0: 8ef1 553d 942c 8a3d d8b3 4cbe 2c98 37be
000001c0: 9a44 f9bb 6559 0c3e 83a9 89bd faa8 733d
000001d0: faf0 843d a401 6cbd 7734 a43d 7d72 d73d
000001e0: 2095 5b3e da2c 993e c9ec dcbd f983 43bc
000001f0: bf71 75bd d907 393e 241e e9bd f499 85be
-0.15476611 -0.10845488 -0.14879143 -0.09557027 -0.02295688 0.10135726 -0.0417784 0.05269652
0.137521 0.0040367804 0.07130775 0.03418188 -0.14679654 -0.025114683 -0.16425985 -0.121741615
-0.03070871 -0.11961327 -0.084843844 0.08772849 -0.041736357 0.02149989 0.007855662 0.07876473
-0.14990091 -0.1378488 0.18585117 0.0225143 -0.08828827 0.039695222 0.050577372 0.042829324
-0.08583058 0.07601246 0.06803818 0.053581793 0.025585487 -0.016170027 -0.08401378 -0.16712484
-0.077554524 0.11953678 -0.024275025 -0.016612012 0.12131377 0.00483078 -0.042307325 -0.099796556
-0.010575921 0.16473173 -0.051969178 0.07467013 0.011493965 0.013127249 -0.074747525 0.03370935
0.14202169 0.21834241 -0.20007993 0.016886285 0.011581586 -0.006923869 0.103444755 0.03347458
-0.12891273 0.21500595 0.06418233 -0.08109965 -0.05644686 -0.20935893 0.07662672 -0.13417
0.21245591 0.15632606 -0.02802075 0.22200012 -0.057723872 -0.11928097 0.13964567 -0.39693376
0.12762755 -0.04924299 -0.12405489 -0.038741715 -0.13680701 0.0023807245 -0.072386324 0.21909942
-0.115189455 -0.3103007 0.13270696 -0.004601076 0.06740326 -0.058973655 -0.12107147 -0.19424295
-0.10288211 0.305776 0.063623875 -0.050662078 0.04491637 -0.0045316136 0.05783525 -0.16090335
-0.21982975 -0.14757 0.045241144 0.098607995 0.052232318 0.06746784 -0.1999048 -0.17929143
-0.007607055 0.13705976 -0.06721785 0.05948732 0.06491275 -0.057618752 0.080178194 0.10519884
0.21443605 0.29917032 -0.10787351 -0.01193332 -0.05992293 0.180694 -0.11382702 -0.2609402

actor.4.bias f4 [4]
00000000: 3219 b5bb 7e93 71bd b9cf bcbd 4ec7 9bbc
-0.005526685 -0.05897855 -0.092193075 -0.019015934

critic.0.weight f4 [32, 24]
00000000: 10f4 05bf a9e5 45bc 6274 0fbd 7f7c 85bd
00000010: c186 aa3c b7cc 693c e53f c2be 06c2 883e
00000020: 1c1b 0bbe 4788 62bd 6481 963f 8342 29be
00000030: 9506 a6bd 642f c1bd 22c9 853e b9b9 49be
00000040: f5f8 593d 16e6 8abd 8ca6 d3bc 7757 99bc
00000050: 9c11 28be 9a82 1d3e 8ee5 243e bab3 11bd
00000060: 745e e53e a7ae e6be 8d32 acbe 2fd2 8c3e
00000070: 7d28 123e 46ab 083a bac0 353e 8c08 24bd
00000080: 1580 e8be 7d9c 923e c943 dd3e 7ece b53d
00000090: 307b b53e e69a 3dbe 8182 e63e 1a18 57be
000000a0: d50a 21bc 144f 2c3d 724e f7bc 64f9 d83c
000000b0: 7adc c63d 6a03 5ebe 4801 f43e 10fa a8be
000000c0: 7ac7 293f e65a 1bbc 5bef 053f a87e d4bb
000000d0: 7fae 923a d711 62bb bbb3 2d40 5b93 e2be
000000e0: a704 cd3e 77dc 983f 0eb3 b13d f2bb c4bd
000000f0: c4fc 9fbe 3fd2 eb3e aa9a 9dbe 50a7 aa3e
00000100: 7090 633b 0e0c 1ebc 96ca e43a d97d 39bb
00000110: 1a11 7cbe 0f60 c43e e009 35be 6a7a f63d
00000120: 9efc 9b3e e720 e63d 9b15 ffbe 2b1b 73bc
00000130: 8ead b73c 1346 ddbd 703f 743e f342 43be
00000140: ea7c 21be 3778 eebd 1dcf 39bf fb60 8cbe
00000150: 7507 373e bc11 04be 2381 9b3e 1d00 5b3d
00000160: 8b73 833d 6cdc 433d 02b5 39bc bb0d fa3c
00000170: b3d7 073e 5b6b bcbd 193a c93d 3561 80bd
00000180: 3127 5abe 2933 e3bc c02d 3cbf f1a5 65bd
00000190: 25fc de3d cc5f 0fbe 262d 3ebe d099 043e
000001a0: 12bb 943d f316 923e 8dd4 32bf 9d5c f23d
000001b0: 4968 9ebd 9f0a e03d d063 b53a 7f82 10be
000001c0: 78cd 70bd ba1d fabd 3620 60bd 993f bd3c
000001d0: 32b1 81bc d289 e1bd 0626 e7bc 1c1d 5dbe
000001e0: 2963 dcbe 0bc2 d8bd 6006 03be af5e b33d
000001f0: b0c5 d3bd d675 55bd baac 34bf 7334 233e
00000200: 05e1 5b3e af6d c43d 34ac a93f 0c4f 3abb
00000210: c60b 0dbe 8b81 45bd a52e 07be 40e1 a73e
00000220: 7d68 363d 5398 43bc 7747 25bd 85b4 16bd
00000230: 87d7 1c3d c291 52be 4cc4 703e b04b b23d
00000240: 3816 273e 65f8 033e a12e 80be 7c71 5ebd
00000250: 18b8 a43d 831c 9b3d a7e7 9f3d 53b4 2a3e
00000260: c4cf 7dbe 3a30 4e3e c52a dbbf b68a babd
00000270: f386 a5be dfa8 6a3e fbc1 a9be 075a 513d
00000280: 3595 ce3c f250 3c3d 8fed b3bb 432d af3c
00000290: c639 5ebe f948 813e f357 13be 82a3 8f3e
000002a0: 1409 fb3d fe10 aa3c a132 883e f483 a2b9
000002b0: a02a 053e 53d7 113d 499b 87be 4536 34be
000002c0: 977d 5bbe fbb4 0dbe 12df fdbc a927 4dbe
000002d0: 66b5 0bbc 386f 7f3d e226 14bd e6f2 a63e
000002e0: 3cc1 bcbd 94ac 3ebd bb70 0dbc 674d cb3c
000002f0: ead5 533e 282a 7e3d fb75 f4bd e659 aebd
00000300: 90b0 4a3d 2717 9dbd 65dd 19bf f9f1 25bd
00000310: 1355 713d 332c 4b3c 7064 33bf 9d95 46bd
00000320: f6b8 44be 3ab8 a3be 9867 1fbf 0ad5 36be
00000330: 0951 bf3d e76d 3d3e c8ec 32bc 48a5 c63e
00000340: 199a 97bd 82d1 4b3c bb7a 0d3c d2c0 d0bb
00000350: 0193 1d3e 2a39 c33d 137c b2be 4c40 e03d
00000360: 0290 273e 5832 483d b327 b23d d865 27be
00000370: d26d c53d 704b e53d 623b 2bbd 9926 eb3d
00000380: 8aff b7bc bccf bdbd e207 f43e fab1 1bbe
00000390: 7ddd 643e 0e77 063e c7e2 2e3e 64e1 973d
000003a0: 0191 43bd 89fe c73d 4086 40bd 7e18 ecbd
000003b0: 7ab2 0c3d 849e 133d dfac 903d d51c b33d
000003c0: 0f0f 53bf acc3 8f3d b9cd aabe 26a7 bcbb
000003d0: 9f97 3bbc eb89 60bb 91a6 ddbf 7ad1 943e
000003e0: 963f 8fbd ff5d bb3f 0a27 aabe e5bf 61bd
000003f0: 131a df3d 02b9 a2be cfa0 153e 269d 09be
-0.52325535 -0.012078681 -0.0350231 -0.06517886 0.020816209 0.014269999 -0.37939373 0.26710528
-0.1358456 -0.055305745 1.1758237 -0.16529278 -0.08106724 -0.09432867 0.26130015 -0.19699754
0.05321594 -0.06782167 -0.025836252 -0.018718464 -0.16412967 0.15381852 0.16103193 -0.03557179
0.44798625 -0.45055124 -0.33632317 0.27504107 0.14273258 0.000521351 0.177493 -0.040047213
-0.4541022 0.28635016 0.43215778 0.08877276 0.35445547 -0.1851612 0.45021442 -0.21005288
-0.009829243 0.042067602 -0.030188773 0.026486106 0.09710021 -0.2168099 0.47657228 -0.33003283
0.6632 -0.009482121 0.5231835 -0.006484825 0.001119092 -0.0034495497 2.7140949 -0.44253048
0.40042612 1.194228 0.0867673 -0.0960616 -0.31247532 0.46058843 -0.30782062 0.33330774
0.0034723543 -0.009646429 0.0017455395 -0.002830377 -0.24615899 0.38354537 -0.17679548 0.120350674
0.3046617 0.112367444 -0.4982117 -0.01483802 0.022421625 -0.10804381 0.23852324 -0.19068508
-0.15770307 -0.11644023 -0.72581655 -0.2741774 0.17873938 -0.1289739 0.3037196 0.053466905
0.064185224 0.047817633 -0.0113346595 0.030524125 0.13265876 -0.09200164 0.098255344 -0.06268541
-0.21304013 -0.027734356 -0.7350731 -0.056066457 0.108879365 -0.14001387 -0.1857191 0.129493
0.07262243 0.28533134 -0.69855577 0.11834071 -0.077347346 0.10939526 0.001383895 -0.1411228
-0.0587897 -0.12212701 -0.05471822 0.023101615 -0.015831564 -0.11012615 -0.028216373 -0.21593136
-0.43044403 -0.10583886 -0.127954 0.08758294 -0.1034044 -0.05211433 -0.7057606 0.15937977
0.21472557 0.09591233 1.3255677 -0.0028428463 -0.13774022 -0.048219245 -0.13201387 0.3278904
0.04453324 -0.011938172 -0.040351357 -0.03679325 0.03829148 -0.20563415 0.23512381 0.087058425
0.1631707 0.12887724 -0.25035575 -0.054307446 0.080429256 0.075737976 0.07807856 0.1667035
-0.24786288 0.20135584 -1.7122427 -0.09108488 -0.3232952 0.22915982 -0.33155808 0.051111247
0.025217632 0.045975633 -0.0054909657 0.021383887 -0.21701726 0.25250986 -0.14389019 0.28054434
0.12257591 0.020760056 0.26601127 -0.0003099736 0.13004541 0.03560574 -0.2648566 -0.17598827
-0.21434627 -0.1383857 -0.030990157 -0.2003466 -0.0085271355 0.062361926 -0.036169894 0.32607192
-0.09216544 -0.046551302 -0.008632834 0.024817182 0.2068707 0.062051922 -0.119365655 -0.085132405
0.04948479 -0.076704316 -0.60103446 -0.040513966 0.058919024 0.012400675 -0.7007513 -0.048482526
-0.19211182 -0.3197649 -0.62267447 -0.17854705 0.09341628 0.18498956 -0.010920711 0.38797975
-0.07402439 0.012440087 0.008635218 -0.006370642 0.15388109 0.095323876 -0.34860286 0.10949764
0.16363528 0.048876137 0.08698978 -0.16347444 0.09640087 0.11196029 -0.04180468 0.11481971
-0.022460718 -0.09268138 0.47662264 -0.15204611 0.22350116 0.13131353 0.17078696 0.07416037
-0.04774571 0.097653456 -0.04700303 -0.11528109 0.034349896 0.036039844 0.070642225 0.08745734
-0.8244485 0.07019743 -0.3336008 -0.0057572303 -0.0114497235 -0.0034261893 -1.7316457 0.29066068
-0.0699455 1.463806 -0.3323291 -0.055114646 0.10893645 -0.31781775 0.14612125 -0.13438854

critic.0.bias f4 [32]
00000000: 2011 f63d a453 8dbe 11d8 0cbf 3b4a 433e
00000010: 7ff8 8e3c d220 883e 1660 89bd 2b2e 093d
00000020: 0c64 673d 3e68 e2bc 4dc3 30bf 7c8a 07bf
00000030: e8c7 7f3e 6db0 933d c071 a3bd b03a 493e
00000040: 5dec 82be 1f75 42bd 4fbe f03e 5f5e 4f3e
00000050: 368c 3ebf e4af 2ebe 272f e1be fc42 0b3d
00000060: 23fc 73bd 3707 03bf 766f 403e 4b9e 8b3d
00000070: c3a1 f7bc e656 fb3d ded6 f93c a2b8 03be
0.12014985 -0.27602875 -0.5501719 0.19071285 0.017452477 0.2658754 -0.0670778 0.033491295
0.056491897 -0.027637597 -0.69048005 -0.52945685 0.24978602 0.07211385 -0.079806805 0.19651294
-0.25570956 -0.047474977 0.47020194 0.20250843 -0.74432695 -0.17059284 -0.43981287 0.03399943
-0.05956663 -0.51182884 0.18792519 0.06817301 -0.030228501 0.12272434 0.030497964 -0.128634

critic.2.weight f4 [32, 32]
00000000: 148b 0d3e cffc e3bd 27cf 48bd 94f0 7dbc
00000010: 4058 f6bb 273a 183e 7209 b13d 4a2d 40bd
00000020: c04b 24be 4fe2 0ebe ece2 52be 22da 7abc
00000030: 8eb1 843d 2a44 3bbe 408f 293e 7bbc 6cbd
00000040: 79c0 573e f753 fd3d 8c3b 1e3e c7c1 24bd
00000050: 984b 79bc 8a81 9a3d 18cd 13be 186d 123a
00000060: 739b 033e 9916 89bd 9d73 08be a7eb db3b
00000070: e54e a5bb f7f7 923d 2525 8f3c 620a 02b9
00000080: e484 d0bc fdbe b6bc 3103 0f3e 6b28 2dbc
00000090: 8f47 92bc 79c2 523d e7e5 4bbd 929a 25be
000000a0: f91d e83d 7375 cabc af7e 833d 2d06 203e
000000b0: 3e21 993d a9ed f4bd 4ba3 93bd 62a3 17bc
000000c0: 5c24 a1bd 45e7 983d 436a b83c 3abd 38bc
000000d0: dcae 473d 2571 d5bd 3fb5 1a3e d6b8 6f3d
000000e0: 5dfc 273e f331 883d fdfc 8dbc f61e fa39
000000f0: 5b86 403e c700 85bd 7264 4a3d a78f 3fbe
00000100: 5c94 1c3d 9ce9 e0bd 3bb4 333c a90e a13c
00000110: b5ce 32bb 5e66 583b 364a 8c3b b18d d6bc
00000120: 14d0 b73d e236 cd3d 5e12 c0bd 5e45 8a3c
00000130: 5a5e 3b3d 644f f73c f4d4 2c3d 5913 dcbb
00000140: 4218 3abe 2829 1dbd 209f c5bd f9d2 083e
00000150: 5fb7 fdbd 03cf 3e3d 4980 f83c b5df 833d
00000160: f57b 8d3b 271d 3abd 738b 7fbd e79c 013e
00000170: cc78 f43c e278 e93d 7440 fc3c c54e 0e3e
00000180: c7ec c63c 6fb2 b4bd 16ba 41be 815c c2bc
00000190: 88d1 023e 2b0d eb3b 2023 a43e 80cc 373d
000001a0: 2503 44be 131b f1bd 3a2c 6fbf 154e a6be
000001b0: e7e6 5b39 fa9a 7abd 857e d73d 2d33 81be
000001c0: 99db 28be 205e 17be 98af eb3d a27e 0dbe
000001d0: 8109 a1bf 9ae6 7c3d af6e 74be 0a85 6c3d
000001e0: b2bf 71be 6938 a93d fb7a f33e 36de cb3c
000001f0: be9a 873d d7ed 273d 3d6b 733d 9b97 ddbd
00000200: 7fbc 21bd 0837 cebd 694b 73bd 542f dfbc
00000210: bd11 513d 8253 a0bd 7269 debd 8988 06bd
00000220: 23f8 1f3e 43fd b7bd 8ee8 01be 0706 e03d
00000230: 7870 93ba e081 10bd 8735 2bbe 3853 7dbd
00000240: 783b 143e 41c6 b03d d853 c6bd 5ed0 70bd
00000250: efb4 8e3d 3e9e 2a3e c56b 52bd 5192 58be
00000260: 677d 153e ad8c 12be 3500 b0bd 8a64 00be
00000270: 1dcc 703d a33c c53d 76c1 2e3e a8e1 d63c
00000280: a06f 08be 8425 c93d eb66 ad3d 2232 d13c
00000290: 0ba5 173d e765 aabd a51c 67bc ccfb 053e
000002a0: 2824 7e3c 81b5 13be 574f d53d 94c6 ce3d
000002b0: beb5 063e a046 a63d 9867 123e 40bf e03d
000002c0: 02d3 6b3d decd cdbd c485 90bc ad62 803d
000002d0: 36ab 2cbe 5e90 ffbd 1585 ebbd 688a f6bd
000002e0: 7c80 933d 990f bb3d 5681 f9bd be67 dbbd
000002f0: 8922 bd3d 66fc 99bd d0ca 01bd 6cdb 3dbd
00000300: df23 203e 2c16 2cbe a526 493d daea 79bd
00000310: 783f 04be 1e0b 933d 92a9 183d 73f2 2b3e
00000320: b253 acbd 66d9 90bc 25bf 3fbe 17b5 a2bd
00000330: 084c 65bc c614 d83d bd97 6ebd dce5 543e
00000340: fd26 fb3b 8435 b7bd 95e7 fc3c 541e 163e
00000350: bbd5 8f3d ac83 80bd ff85 b3bd dd07 163e
00000360: 4db7 223e a8e7 073e e0ba d9bd 1353 17be
00000370: b5ab 2ebe 8f22 8b3d 9c31 153e 2c9c 97bd
00000380: 4692 55be 32c8 27be ed1b fbbc 8eee ba3d
00000390: f435 d8bc 54be 083d 0ac3 c2bd 1914 00be
000003a0: e37c cbbd 774d bf3d 6fc0 07be b709 f2bd
000003b0: b8bd 26bd 8298 693d 7e6d b7bd 73bd 9bbd
000003c0: e90d 66bd a991 c73b 54ee af3d ef23 1abe
000003d0: b185 74be 569d d8bd ee68 0b3e 0681 edbd
000003e0: decb d6bd c26d f0bd be79 a83d 8d94 afbd
000003f0: b4b1 bbbd 0599 3d3c 57cc 8cbd 1e77 093e
0.13822585 -0.11132204 -0.04902568 -0.015499253 -0.0075178444 0.14865933 0.0864438 -0.04691819
-0.16044521 -0.13953517 -0.20594376 -0.015310796 0.06479178 -0.18287721 0.16558552 -0.057796936
0.21069516 0.12369531 0.15452403 -0.040223863 -0.015215777 0.07544239 -0.14433706 0.0005585714
0.12852268 -0.06693763 -0.13325353 0.0067114416 -0.0050448054 0.07176202 0.017473767 -0.00012401634
-0.025453992 -0.022307867 0.13966061 -0.010568718 -0.017856387 0.051454995 -0.0497798 -0.16172245
0.11333842 -0.024714207 0.06420647 0.15627356 0.074770436 -0.119593926 -0.0720888 -0.009255262
-0.07868263 0.07465986 0.022511607 -0.011275584 0.048750743 -0.10421971 0.15108202 0.058525883
0.16404863 0.06650152 -0.017332548 0.00047706784 0.18801253 -0.06494289 0.0494122 -0.18707143
0.038227424 -0.109820575 0.010968263 0.01966031 -0.0027283852 0.003302 0.0042813076 -0.02619061
0.08975235 0.10020234 -0.09378503 0.01687878 0.045744278 0.030189224 0.042195275 -0.0067161736
-0.18173316 -0.038369328 -0.09649491 0.1336173 -0.12388491 0.04658414 0.030334609 0.06439153
0.0043177553 -0.045437958 -0.06238885 0.1265751 0.029842757 0.1140001 0.030792452 0.13897236
0.024282826 -0.08823096 -0.18918642 -0.02372575 0.12775242 0.0071732006 0.32058048 0.04487276
-0.19141825 -0.11772742 -0.9342686 -0.32481447 0.00020971485 -0.061182953 0.105221786 -0.25234357
-0.1649002 -0.14782 0.11508101 -0.13817838 -1.2581025 0.061743356 -0.23870347 0.057744063
-0.23608282 0.082627125 0.47554764 0.024886232 0.066213116 0.040998306 0.059428442 -0.10819932
-0.039486405 -0.1006909 -0.05939809 -0.027244247 0.051042307 -0.07828428 -0.10859956 -0.032845054
0.15622 -0.08983853 -0.12686369 0.109386496 -0.0011248728 -0.03528011 -0.16719638 -0.06184694
0.1447581 0.08631564 -0.09683961 -0.058792464 0.06968104 0.16661927 -0.05137231 -0.21149565
0.14598618 -0.14311476 -0.085937895 -0.12538353 0.058788408 0.09630706 0.17065987 0.026230648
-0.13323832 0.09821609 0.08466896 0.0255366 0.03702263 -0.083202176 -0.0141059505 0.13084334
0.01551155 -0.14424707 0.104155235 0.100964695 0.13155267 0.081189394 0.1429733 0.10973978
0.05757428 -0.10049032 -0.01764191 0.06268821 -0.16862187 -0.12478708 -0.11499993 -0.12038118
0.07202241 0.091338344 -0.12182872 -0.107131466 0.09235103 -0.07518844 -0.031687558 -0.046351835
0.15638684 -0.16805333 0.04910912 -0.061014988 -0.12914836 0.07179855 0.03727109 0.16791706
-0.08414401 -0.017681789 -0.1872526 -0.079446964 -0.013995178 0.10550837 -0.058250178 0.2079081
0.00766456 -0.08945754 0.030872146 0.14660007 0.07023188 -0.062751144 -0.08765792 0.14651437
0.15890236 0.13271964 -0.10631347 -0.14777784 -0.17057689 0.06793701 0.14569706 -0.07402834
-0.2085658 -0.16384962 -0.030652964 0.09127532 -0.026392914 0.033384636 -0.09509857 -0.12507667
-0.099359296 0.09340947 -0.13257001 -0.11818259 -0.040708274 0.05703021 -0.08956431 -0.07604494
-0.05616561 0.006090362 0.08590379 -0.1505277 -0.23879124 -0.105768844 0.13614246 -0.11596875
-0.10488103 -0.11739685 0.082263455 -0.08573256 -0.091647536 0.011572127 -0.06874912 0.13424346

critic.2.bias f4 [32]
00000000: 81e0 1fbe 8216 02bc bb7f 8ebd c743 643e
00000010: bbe5 bfbd 028a 12be cdc4 0ebe 8635 883d
00000020: e0b7 b5bd 9416 2fbe 6e5d 153d b866 c33e
00000030: a771 173d 9573 42bd be51 b0bc 0453 823d
00000040: 7c93 5e3e 181a 613d f2ec c5bd 8643 fbbd
00000050: 5ddf d03d ab02 ec3d 4e71 043e 82cf 2a3e
00000060: d76d 9cbb aa04 c6bc 0430 3abd 582f 99bc
00000070: be6d 0f3d 0aea ccbd 50a6 4a3d 7357 ed3e
-0.15612985 -0.007939937 -0.069579564 0.2229148 -0.093699895 -0.14310458 -0.13942261 0.06650834
-0.08872962 -0.17098457 0.036466055 0.38164306 0.03697362 -0.04747351 -0.021523353 0.0636349
0.21735948 0.054956526 -0.09664334 -0.122687384 0.10198853 0.115239464 0.12933847 0.1668072
-0.004773836 -0.024172146 -0.045455948 -0.018699333 0.035016768 -0.10005577 0.049475014 0.4635578

critic.4.weight f4 [1, 32]
00000000: 0be2 a2bc ff3e c1bc 04a8 713d 089f b03e
00000010: 3e01 06bd eb24 d6bb 3f09 85bd 924a e63d
00000020: fd45 413d 402c 58ba 3c4e 8b3d 67b6 693d
00000030: 3fe8 5c3d e584 a7bc eb5e 843d e13e 61bb
00000040: d1d9 8ebd 5eee b6bd a1db 283e 4ea9 06be
00000050: 6a2c f0bc 9836 953d f0b5 cdbb dcdf 0f3d
00000060: a544 00bc 2cf0 043d 1d0d 723d f35f 99bc
00000070: ee9c c5bd 46d3 c73d 7d8a 15bd 3964 c33e
-0.019883176 -0.02358961 0.058998123 0.3449633 -0.03271603 -0.0065351627 -0.06495904 0.11244692
0.047185887 -0.000824634 0.068020314 0.057058718 0.053932425 -0.020449111 0.06463417 -0.0034369754
-0.06975139 -0.08932184 0.16490032 -0.13150522 -0.029318053 0.072858036 -0.006277792 0.0351256
-0.007828866 0.03245561 0.059094537 -0.01872251 -0.096490726 0.09757094 -0.036509026 0.381624

exp_avg f4 [4]
00000000: 3208 d63c 8be8 22bd 292f 13bc 827f a33b
0.026126955 -0.03977255 -0.008983412 0.0049895654

exp_avg_sq f4 [4]
00000000: bfbe 3d3c a006 173c a055 1d3b 23fd 1b3b
0.011581122 0.009217888 0.0024007335 0.0023802004

exp_avg f4 [32, 24]
00000000: 18d6 ad38 f384 8bba 3077 0e39 84af 36bb
00000010: 2cfc cbbb 7223 b53a 3ee1 f03a 30a8 5838
00000020: 6953 283a a772 ee3a dbb2 17ba 09d7 b13a
00000030: df85 d639 7fda cc39 3556 3f3a e9a5 13ba
00000040: 5f8e 83bb d747 533b 65fe 9bbc 87a1 60bc
00000050: 5e2e 6b3a 0bd0 853a 7df8 7bba 8041 5ebb
00000060: 1b6c 0339 8772 afb8 2895 0938 bcf2 7839
00000070: 59ec 95b9 bff5 373a f76b ad39 777b f0b8
00000080: af1e 0a39 c63a 64b7 7bb4 b938 f364 9c38
00000090: 8c91 ef38 0252 1db8 ad5a 2b39 30e6 c5b8
000000a0: 3470 93ba 8420 143b 66e1 44bb db72 30bb
000000b0: 5a6a 5d39 7c1a 2239 e651 ed39 9713 5cb9
000000c0: d48f 2f3a cc6b fa38 010b 01b9 c71e f4b9
000000d0: ce15 c33a 63b3 173a cad3 c6b8 a7f0 4336
000000e0: c73a 4039 2528 87b8 a876 13ba 705e 3939
000000f0: b0ea 2ab9 9340 9b39 54f2 0239 42be ea39
00000100: ecb2 81ba a4c9 ffbb e28a 873c 9fe0 323c
00000110: 3cb2 82b9 6b4b b239 0c28 343a 23e3 9b3a
00000120: ce0e 1339 b2d0 0339 251e 8939 f561 99ba
00000130: 1514 49bb 1bc5 01bb 2c5f ee39 9c3c 5c38
00000140: a450 0db9 3643 163a 795a 47b9 d1be 8aba
00000150: 5bb3 ffb8 7c1e c138 b5e1 1c39 9fed 2cb9
00000160: def6 07bc 9fee 753b ad62 8f3c 5c7b 3e3c
00000170: 0dea 05ba 2730 093a 84a2 023a b3e2 f3b9
00000180: 9d27 a8b8 bc91 20b9 361d 1c37 c623 953a
00000190: 2d0d c73a 274f c4b9 1b27 e339 7711 69b9
000001a0: 8efa 783a 00e1 e038 df2e 49b9 8683 ca37
000001b0: c909 81b8 32f7 edb7 bd69 f138 577c 1639
000001c0: d133 bd3b d139 0ebc 87a9 4cb9 5715 973b
000001d0: 4da6 b238 de8e e737 da65 7e39 a381 c639
000001e0: 8f38 63b9 5ad1 9f38 7c48 4838 afe2 98b7
000001f0: 1ee7 5fba ef7a 923a 4e4c e137 8ca2 f636
00000200: 5c34 543a ce2c 33ba ab83 2938 50f7 d9b9
00000210: 149c b138 3789 a1b7 c52f 8838 8442 e738
00000220: 55ee b63a 3a66 5c39 5f29 aebb fb1b 64bc
00000230: d421 3939 cf5f e137 5628 6eb8 bfd4 d6b8
00000240: 7b7b 28b9 92a8 0bb9 41ac 3639 2e62 2cb9
00000250: 6489 b1b8 ada1 dcb9 1e43 2db9 135a aab8
00000260: 96ea 07ba 0381 be38 1d89 0039 c46e 2039
00000270: c034 2239 1fed 1e38 cbd6 f7b7 b9b9 feb8
00000280: 7e95 303b 183b 6b3b 370c 0dbc 3e6e 33bb
00000290: 0e13 d339 8b53 fc38 6032 01ba ba02 c6b3
000002a0: 1e39 9539 35c4 bb38 c59a e0b8 44ff 08b9
000002b0: 7985 c23a 883c 92ba cc23 c5b7 c555 56b8
000002c0: 19c9 7aba f225 a03a 06c2 9f39 f397 473a
000002d0: eaf4 2d39 1385 a9b8 1e6b a739 6d95 c1b9
000002e0: 47e6 2dbb c70c 4e3a 8d1e 0bbc 0036 d9b9
000002f0: 0f65 2837 9589 0eb9 0936 a939 d429 7fba
00000300: 6086 493a 6eb8 123a fd13 533a 247f 8d3a
00000310: 240b 0ebb 1bc2 88ba be68 6c3a bae5 07b9
00000320: 8f6f 26bb abd7 e13a 1762 2e38 5e4f 83b9
00000330: 3191 3938 c635 2bba 20fd 3a3a dc4e dcba
00000340: d527 fabb 1c46 27ba bbf5 363c a252 b63c
00000350: 836a 9cb9 0785 3eba 0602 1f3b 6acf 11bb
00000360: 0603 d8b9 0cd5 aeba 7849 bbb9 b192 3bbb
00000370: bca0 dbba 5922 6f39 8a82 8b3a b00b 4a39
00000380: 3fdb f93a 3b6e 633a b790 96b8 4abb a03a
00000390: 39d5 023a c324 cf39 1f71 0f38 276b 1f38
000003a0: 3897 d53b fc26 723b c79c c3bc c5d0 b0bc
000003b0: 5451 cf3a 1a40 273a 3696 12bb 5128 01bb
000003c0: e7e1 5039 dbb0 21b9 54c2 fe38 8b96 1dba
000003d0: 0af9 eaba f387 373a e549 4339 c64b 2e38
000003e0: c82f 93b9 2938 1338 a5dc 0cb9 3c85 aa39
000003f0: 241a 9cb5 9599 e737 795b 7e38 3a5c a1b9
8.289161e-05 -0.001064448 0.00013586576 -0.0027875612 -0.0062251296 0.0013819768 0.0018377674 5.165505e-05
0.00064211205 0.0018192128 -0.00057868444 0.0013568114 0.00040917002 0.00039072704 0.00072989176 -0.00056323275
-0.0040147747 0.0032238865 -0.019042203 -0.013710386 0.0008971448 0.0010209096 -0.0009611918 -0.0033913553
0.00012533406 -8.365983e-05 3.2802258e-05 0.00023741549 -0.00028595587 0.0007017515 0.0003307757 -0.00011467089
0.00013172136 -1.3603543e-05 8.8551045e-05 7.457463e-05 0.00011423518 -3.7508093e-05 0.0001634161 -9.436568e-05
-0.0011248649 0.0022602389 -0.0030041575 -0.0026923928 0.00021115821 0.0001545939 0.00045265182 -0.00020988133
0.0006697152 0.00011941008 -0.00012306498 -0.00046562238 0.0014883818 0.00057869236 -9.4808245e-05 2.9197342e-06
0.00018332443 -6.444779e-05 -0.0005625286 0.00017678156 -0.00016299891 0.00029612015 0.0001248804 0.0004477371
-0.0009895242 -0.00780602 0.016545717 0.010917812 -0.00024928327 0.00034006996 0.00068724225 0.0011893254
0.00014024528 0.00012570879 0.00026153136 -0.0011702167 -0.0030682136 -0.0019801322 0.00045465806 5.2508534e-05
-0.00013476849 0.0005732061 -0.00019011823 -0.0010585432 -0.00012192755 9.208635e-05 0.00014961402 -0.00016491719
-0.008298604 0.0037526262 0.017503107 0.011626091 -0.00051084236 0.00052333105 0.0004983323 -0.00046517476
-8.018243e-05 -0.0001531308 9.305126e-06 0.0011378459 0.0015186422 -0.00037443006 0.0004332595 -0.00022227118
0.0009497785 0.00010723062 -0.00019186315 2.4141522e-05 -6.153022e-05 -2.8367711e-05 0.00011511471 0.00014351435
0.0057739993 -0.008680777 -0.0001951811 0.004610698 8.518677e-05 2.7603874e-05 0.0002426127 0.0003786209
-0.00021669477 7.6207056e-05 4.7751222e-05 -1.822537e-05 -0.0008541214 0.0011175553 2.6857622e-05 7.3502943e-06
0.00080949604 -0.00068349845 4.0415365e-05 -0.00041573728 8.4690895e-05 -1.9256591e-05 6.493883e-05 0.00011027328
0.0013956527 0.00021018917 -0.0053149904 -0.013922687 0.00017655577 2.6866705e-05 -5.6781188e-05 -0.00010243942
-0.00016067729 -0.0001331887 0.00017421042 -0.00016439773 -8.465609e-05 -0.00042082128 -0.00016523569 -8.123009e-05
-0.00051847973 9.083936e-05 0.0001225811 0.00015300052 0.00015469175 3.789097e-05 -2.9544715e-05 -0.00012146257
0.0026944573 0.0035893377 -0.008608869 -0.0027378942 0.00040259253 0.000120318575 -0.0004928466 -9.2205894e-08
0.0002846205 8.953401e-05 -0.000107099804 -0.00013065065 0.0014840803 -0.0011156956 -2.35009e-05 -5.1101455e-05
-0.0009566709 0.001221834 0.00030471402 0.000761389 0.00016589803 -8.083335e-05 0.0003193253 -0.0003692316
-0.002653496 0.00078601803 -0.008491171 -0.00041429698 1.003711e-05 -0.00013593429 0.0003227445 -0.0009733711
0.0007687565 0.000559694 0.000805199 0.0010795337 -0.002167412 -0.0010433825 0.00090182933 -0.00012960183
-0.0025396084 0.0017230412 4.1576186e-05 -0.000250454 4.4242657e-05 -0.0006531145 0.00071330555 -0.001680817
-0.007634143 -0.00063809915 0.011166985 0.0222562 -0.00029833996 -0.00072677474 0.002426268 -0.0022248873
-0.00041200983 -0.0013338639 -0.00035722158 -0.002862137 -0.0016756277 0.00022805612 0.0010643762 0.00019268575
0.0019062533 0.00086757884 -7.1795126e-05 0.0012262848 0.0004990879 0.00039509506 3.419921e-05 3.8008347e-05
0.006518271 0.0036949506 -0.023878468 -0.021583924 0.0015817084 0.00063800963 -0.0022367365 -0.0019707868
0.00019920581 -0.0001542004 0.0001214786 -0.00060115074 -0.0017927003 0.0007001154 0.00018624177 4.1555402e-05
-0.00028073625 3.5099834e-05 -0.00013433637 0.00032524194 -1.1630514e-06 2.7608863e-05 6.064351e-05 -0.00030777027

exp_avg_sq f4 [32, 24]
00000000: fd1c 9737 97bf 0537 2493 4c37 3bea ab39
00000010: 2811 5b3b f5a0 bf3a 50f2 c838 832a 8335
00000020: c03c 523b 92ea a139 ac01 1f37 91fd c239
00000030: 2686 8438 617b df38 3800 2639 bd33 7b39
00000040: 2b96 b03c 38ed 3f3c fb64 863d 87c2 8c3d
00000050: 656f 9139 5873 de39 21ca 483a 430c 713a
00000060: 3370 aa35 4c77 e334 fe1f a835 5eea 9937
00000070: 8e3d d238 82e2 2738 a356 c436 908e 0f34
00000080: 26e5 6b38 b301 d636 3504 5934 07f7 ec36
00000090: d70d 9a36 6092 b736 5d40 1937 ba67 d036
000000a0: 8e31 ca39 0e37 7b39 2f00 d53a f81b c73a
000000b0: 27e2 9c37 f325 bb37 48f9 0938 473c d437
000000c0: 8c43 8335 ae22 c134 3656 b534 7598 9037
000000d0: 3c32 bd38 48b4 8d38 c264 7d36 167e 3a33
000000e0: 2e15 f538 e1e5 4f37 0e71 bf34 e03b 9337
000000f0: 9f67 2936 0fc9 7336 0aad a736 52b7 9836
00000100: 80ae 583a 8f9b b739 653e 153b b674 043b
00000110: f9f9 8137 153c 7e37 2042 b537 c73f 7437
00000120: b035 bc35 e66d b834 005c c834 1508 2437
00000130: e82b 0239 97dd 3d38 8ee2 5636 925d 5133
00000140: 8bb3 d938 a2a9 5137 44bd fa34 df6a 7537
00000150: 5762 0236 01e8 fb35 6361 9736 ae04 e736
00000160: ab79 123a cde1 e539 40b9 d33a 7c77 e33a
00000170: 29d8 1037 e55e 0037 a014 ae37 2c6d 0838
00000180: f948 0e36 5f59 2335 0c3a 4135 ead0 c437
00000190: c85f 3f39 0b9a 9638 cbb1 c836 2884 9c33
000001a0: eade 3739 844f b437 87ae 2735 3679 db37
000001b0: 2364 4336 f570 9836 2bfb 1f37 1b37 8837
000001c0: 0a45 a03a 464c 2b3a 7fa5 4c3b 0e0c 673b
000001d0: 1f0b 3c37 0298 8e37 2d42 4238 8159 8138
000001e0: c6d8 8835 e1e0 5834 f24b 8e34 af1e 0937
000001f0: 4dd8 a738 8e36 1f38 203d 6936 8430 f432
00000200: 156d a638 f2dc 1f37 4a17 7234 ae66 3537
00000210: e380 e535 22a8 3e36 d34a 8d36 93d7 b436
00000220: 323a d939 7b1a 8239 734b a03a c7e3 b33a
00000230: 364e 0c37 aadd 4337 7d32 a137 400e a137
00000240: b944 8535 6455 5e34 789a 1035 5c82 1237
00000250: ad08 a438 40c7 0638 bbd2 8a36 8c1a 0133
00000260: bdb6 9c38 ad74 1737 0eb1 8a34 ea50 2c37
00000270: 114e 1836 33bd 6d36 b028 aa36 8a28 e636
00000280: 4606 c839 df12 8639 8e73 9a3a 6e7f af3a
00000290: 93e1 2537 a302 6837 449a a837 83b6 e337
000002a0: 8eec 3436 b3a6 ec34 627e 2d35 3c9c 6437
000002b0: bea0 1439 1202 4a38 ee96 a636 f930 9c33
000002c0: d7b1 e638 4d32 9037 6d9b ea34 b42e 9837
000002d0: 5dc0 1536 2725 4f36 0d23 da36 65ba 0837
000002e0: 8307 203a 42f1 d239 e064 063b 5973 033b
000002f0: f136 3037 fed3 5937 bc9d 0638 d0bc d837
00000300: a18e 4b36 a5bb 6035 874e 8835 01b8 0038
00000310: 926a 8e39 7a21 1839 8f8d 2337 2f6e e733
00000320: 325c 9539 9e44 0e38 06a0 9635 eef3 2138
00000330: caad d136 a97e 0e37 de02 4c37 481f 8a37
00000340: 5dee eb3a f0a2 903a be5d c43b 8fd3 b53b
00000350: 9bbc 0938 c5bf 1738 d3a2 6038 fda0 8838
00000360: d324 1237 4c46 7d36 c734 c536 c8a7 1b39
00000370: 9790 ba3a 8102 343a ae31 3d38 263a f834
00000380: 44ba c23a 4fb3 1b39 435c 9836 3ac1 3e39
00000390: 7a45 0438 fec2 5638 1be1 8e38 7963 e938
000003a0: f7b3 1c3c c944 a53b db25 fc3c b312 f63c
000003b0: c264 1539 ffa4 5639 2072 a339 0a86 e039
000003c0: 4e7e cd35 d264 6f34 3e48 b134 1ea4 f736
000003d0: 798a 8938 69a0 fe37 90c2 4836 6470 2e33
000003e0: 67e3 8a38 2ea8 f636 a047 8c34 18b6 0e37
000003f0: f201 d935 b803 0c36 0612 3e36 b837 b336
1.8014101e-05 7.972026e-06 1.2193606e-05 0.00032790177 0.0033426974 0.0014620112 9.5818774e-05 9.772633e-07
0.0032079667 0.00030883081 9.477528e-06 0.00037191485 6.3192376e-05 0.0001065645 0.00015831075 0.000239565
0.02155598 0.011714272 0.06562229 0.06873041 0.0002773955 0.00042429077 0.0007659514 0.00091952475
1.2698641e-06 4.2368845e-07 1.2526286e-06 1.8348157e-05 0.00010025046 4.0026855e-05 5.851341e-06 1.3369777e-07
5.6241777e-05 6.377895e-06 2.021123e-07 7.062106e-06 4.591169e-06 5.4708653e-06 9.134496e-06 6.2109584e-06
0.00038565364 0.00023957735 0.0016250665 0.001519083 1.870196e-05 2.2309809e-05 3.2895507e-05 2.5300438e-05
9.779919e-07 3.5974284e-07 3.3776604e-07 1.7237131e-05 9.021579e-05 6.756984e-05 3.7758587e-06 4.3421174e-08
0.000116864554 1.2391684e-05 3.565878e-07 1.7551647e-05 2.5243278e-06 3.6326853e-06 4.9971322e-06 4.5512943e-06
0.00082657486 0.0003502038 0.0022772786 0.0020211167 1.5494401e-05 1.5153569e-05 2.1607673e-05 1.4558383e-05
1.4022717e-06 3.4352632e-07 3.7319842e-07 9.7770435e-06 0.00012414122 4.5267483e-05 3.2020357e-06 4.8746706e-08
0.00010380809 1.24968665e-05 4.6703838e-07 1.4628021e-05 1.942875e-06 1.8768479e-06 4.511488e-06 6.8848813e-06
0.0005587588 0.00043846518 0.0016153231 0.0017354335 8.633398e-06 7.651489e-06 2.075202e-05 3.25266e-05
2.1202125e-06 6.0852284e-07 7.198257e-07 2.3462304e-05 0.00018250861 7.18125e-05 5.9811623e-06 7.288355e-08
0.00017535282 2.14947e-05 6.246632e-07 2.6163278e-05 2.9115552e-06 4.543103e-06 9.535618e-06 1.6238124e-05
0.0012227606 0.0006534498 0.0031226573 0.0035254988 1.1208263e-05 1.6998503e-05 4.6314835e-05 6.167871e-05
1.0195879e-06 2.0198378e-07 2.650482e-07 8.17298e-06 8.00347e-05 3.7959362e-05 3.4755285e-06 2.84274e-08
7.935815e-05 9.528581e-06 2.2546479e-07 1.0812348e-05 1.709934e-06 2.8410072e-06 4.210838e-06 5.389514e-06
0.00041432824 0.00024815262 0.0012229517 0.0013724499 8.36286e-06 1.1674516e-05 1.9216206e-05 1.9199331e-05
9.929273e-07 2.0706426e-07 5.386896e-07 8.73263e-06 7.8217454e-05 3.2133656e-05 4.1372527e-06 3.0059297e-08
7.472697e-05 9.027467e-06 2.5833327e-07 1.0270838e-05 2.2695206e-06 3.542588e-06 5.0711315e-06 6.8592535e-06
0.00038151647 0.00025572532 0.0011783706 0.0013389417 9.887287e-06 1.38288915e-05 2.0098996e-05 2.7145497e-05
2.6959783e-06 4.4079715e-07 6.4631433e-07 1.3626235e-05 0.00014174261 4.816248e-05 4.964756e-06 7.273224e-08
0.0001100038 1.718956e-05 4.3698984e-07 1.814156e-05 2.23147e-06 3.086703e-06 6.5009867e-06 8.14963e-06
0.0006104635 0.00040234072 0.0020506904 0.0020057766 1.05032095e-05 1.2983566e-05 3.209499e-05 2.583713e-05
3.0332378e-06 8.371956e-07 1.0155644e-06 3.0688945e-05 0.00027163752 0.0001450832 9.748516e-06 1.0776818e-07
0.00028488185 3.3919343e-05 1.1222444e-06 3.861257e-05 6.248917e-06 8.49335e-06 1.2160015e-05 1.6465448e-05
0.0018000115 0.0011034887 0.0059926203 0.0055489014 3.2838998e-05 3.6179805e-05 5.3557404e-05 6.514972e-05
8.710852e-06 3.7740856e-06 5.8772016e-06 0.00014844455 0.0014233765 0.0006866828 4.510738e-05 4.6235908e-07
0.0014856537 0.0001484875 4.5406937e-06 0.00018191795 3.1535958e-05 5.1203177e-05 6.813017e-05 0.00011128834
0.009564391 0.0050436 0.03077977 0.030038213 0.00014247283 0.00020470096 0.00031174812 0.00042824476
1.531045e-06 2.2295288e-07 3.3021382e-07 7.3802794e-06 6.5584616e-05 3.0353856e-05 2.9915573e-06 4.061475e-08
6.62271e-05 7.35095e-06 2.6129146e-07 8.506257e-06 1.6168326e-06 2.086379e-06 2.8322697e-06 5.341102e-06

exp_avg f4 [32]
00000000: 42bc bfb8 a8c0 87b9 ef0c c4b9 c46a 9e38
00000010: 3cf0 47ba 3836 3cba c7cd 143a 88dd 663a
00000020: 067f 2c3b 399b d3ba 9861 6739 4988 f639
00000030: fd6c 39ba 1e66 02bb e026 db39 3708 8e3a
00000040: 542b ed3a 64a6 a0ba 7953 94ba 72dd a1b9
00000050: c8e3 a53a 2bfe ce3a b107 1c3b c679 cc3a
00000060: 8970 163a 8969 d9ba 1a28 7d39 f329 9c39
00000070: ddbc 403a 41e1 1cb9 edfc 03ba 6136 f538
-9.1426555e-05 -0.00025892747 -0.0003739367 7.553914e-05 -0.0007627045 -0.000717971 0.0005676415 0.00088068144
0.002632083 -0.0016144282 0.00022066233 0.00047022317 -0.00070734305 -0.0019897292 0.000417999 0.0010836188
0.0018094578 -0.001225662 -0.0011316381 -0.00030873303 0.0012656385 0.0015792301 0.0023808295 0.0015600256
0.0005738815 -0.0016587238 0.00024142899 0.00029785893 0.00073523616 -0.00014961233 -0.00050349423 0.00011692639

exp_avg_sq f4 [32]
00000000: 0364 5d3b ed03 8838 ddc7 0039 d0e9 e438
00000010: 35e7 4139 6271 b138 6624 a938 096e f738
00000020: 0701 9c39 9341 cd3a 81fc 9338 185e 8439
00000030: ec7a 7238 ba79 0c39 de86 6739 b2f9 9138
00000040: 5537 e638 41d8 3e39 53b6 9c38 2604 4238
00000050: 8153 9b38 407f 9438 fa28 f039 0c77 7f38
00000060: 5ef1 3839 146f 9438 68cd b338 ba35 0e38
00000070: 6cdd a937 1375 8139 b10f d138 500f 4e38
0.0033781535 6.4857166e-05 0.00012281486 0.00010915438 0.00018492046 8.461137e-05 8.065328e-05 0.000117983735
0.00029755404 0.0015659801 7.056539e-05 0.00025247107 5.7811776e-05 0.00013396787 0.00022080119 6.960648e-05
0.00010977561 0.00018200373 7.47262e-05 4.6257068e-05 7.40653e-05 7.080892e-05 0.00045806897 6.090761e-05
0.00017637524 7.07788e-05 8.573645e-05 3.3905475e-05 2.0249478e-05 0.00024692024 9.968819e-05 4.9128488e-05
