2026-01-31_00-50-28/model_0.pt (torch, 62087 bytes, 36 tensors)

std f4 [4]
000000 01 2d 82 3f 21 ff 7c 3f b7 30 82 3f c2 08 82 3f
       1.0169984 0.98826796 1.0171117 1.0158923

actor.0.weight f4 [32, 24]
000000 fc d2 4f be 98 9b ec 3c 1a 6d bd 3d 2b f9 0c 3e
       -0.20295328 0.028882787 0.09249325 0.13766925
000010 26 80 c1 3d b8 69 dd bc da 7f 06 3e 7a 5e 46 be
       0.094482705 -0.02702795 0.13134709 -0.19371977
000020 d3 29 12 bd 44 88 aa bd 7c fc e3 3d ea 70 32 3e
       -0.035684418 -0.08326772 0.11132142 0.17425886
000030 8a f3 2d bd 85 ab 3d 3d 56 22 d4 bc 29 82 50 bd
       -0.042468585 0.046306152 -0.025895279 -0.05090538
000040 c8 8d a4 3d 17 84 2a 3d 37 83 c6 bd 2c 14 2f 3d
       0.08034855 0.041629877 -0.09692996 0.042743847
000050 00 3d 47 3e 6f e3 12 be 50 44 00 bd f0 56 37 be
       0.19456863 -0.14344572 -0.031315148 -0.17904258
000060 35 0e 8c bd f3 a8 39 3e b2 19 05 3e 87 de 57 be
       -0.06838647 0.18130855 0.12998083 -0.21080981
000070 28 d6 3a be 28 31 97 3b a8 df 00 bc a6 4f 0c 3e
       -0.18245757 0.004614014 -0.007865824 0.13702258
000080 cc 1d 77 bd c3 04 27 3e 10 64 12 be 83 b0 87 bc
       -0.06033115 0.1631041 -0.14295983 -0.01656366
000090 e7 3a 0a bc ff a8 d3 bd 9c fb 46 3c 4f 12 3a bd
       -0.008436895 -0.10334968 0.012144949 -0.045427617
0000a0 67 cc bc bd e3 e1 29 be be 2c 8f bb 6a 8c 42 3e
       -0.09218674 -0.16590075 -0.0043693474 0.18998876
0000b0 9b 85 a2 3d 7c b9 21 be a8 5e d0 bd 2e 1f 10 3e
       0.079356395 -0.15793413 -0.10174304 0.14074394
0000c0 5a 6d c0 bd 67 c4 13 3c 65 d0 ea bd 01 67 c2 3d
       -0.09395857 0.009018994 -0.11465529 0.09492303
0000d0 4c e4 08 be 2f 85 3e be 73 c6 18 be dc f5 41 be
       -0.13368338 -0.18605493 -0.14919452 -0.18941444
0000e0 7c 13 ca 3c f2 4d d1 3c e4 b6 8c bd 93 bf a6 3d
       0.024667494 0.025549863 -0.06870821 0.08142009
0000f0 65 23 a4 3b 2a 17 4f 3d bc 58 f0 3d e9 3c 17 3d
       0.005009102 0.0505592 0.11735675 0.036923323
000100 73 95 50 3e aa c2 18 3e 5f e8 e2 bd 65 c5 1c 3e
       0.2036951 0.14918008 -0.110794775 0.15309675
000110 49 67 05 bd 94 47 30 bc 03 ea cd 3c a2 0f 36 be
       -0.032569204 -0.010759253 0.025136 -0.17779401
000120 a5 a6 10 3e b3 64 1e 3e e1 f1 35 3e 01 04 e9 3c
       0.1412607 0.15468101 0.1776805 0.028444292
000130 27 62 5b bd 84 a6 82 bc 9e a7 aa bd 2a a0 24 be
       -0.053560402 -0.015948541 -0.08332752 -0.16076723
000140 32 ca 90 3d 92 3d fb 3c d5 ee 92 bd 21 91 eb bd
       0.07069816 0.030669007 -0.0717446 -0.115022905
000150 55 18 15 bd 1f cf 8b 3d 9d 00 21 3e 47 11 c5 3d
       -0.036400158 0.068266146 0.1572289 0.09622436
000160 c0 63 1e 3e 37 e0 1e 3e 8c 62 cc bd d5 28 01 bb
       0.15467739 0.15515219 -0.09979734 -0.0019708176
000170 d8 1d 2d be ce 8a f7 bd 5a 7e 9b 3d 1f 3f ab 3d
       -0.16905916 -0.12087022 0.07592459 0.08361649
000180 e5 6b af 3d 54 08 24 3e 09 ee 5c 3d 71 4a bd bd
       0.08565501 0.16018802 0.053937946 -0.09242714
000190 0f 1b 44 bd 8c 19 17 3d 10 e0 c4 3d a0 6e e1 bd
       -0.047877368 0.036889598 0.09613049 -0.11007428
0001a0 74 30 a9 bd 24 e7 87 3d ec a5 5e 3d 86 9e 45 3e
       -0.08261195 0.066358835 0.054357454 0.19298753
0001b0 fc c1 17 3e 82 c4 b1 bd eb 82 a4 3d 53 f2 11 be
       0.14820093 -0.08680059 0.08032783 -0.14252596
0001c0 6e 86 89 bc 86 0e a9 bc 1f d3 3f 3d 7e 97 35 3e
       -0.016787734 -0.020636808 0.0468322 0.17733571
0001d0 29 48 3b be 09 67 42 3e 8c cd 11 3e ab 60 e5 bd
       -0.18289246 0.18984617 0.14238566 -0.112000786
0001e0 11 86 36 bd aa b8 71 bd 4e 26 0f 3e 43 4e 85 bd
       -0.04456145 -0.059014 0.13979456 -0.06509068
0001f0 65 75 97 3d 7a ae 9d bd 94 ee 25 3e 23 fc dc bc
       0.07395438 -0.076992944 0.16204292 -0.026975697
000200 6e c2 4c 3e a1 2e 23 be 27 e3 77 bd d9 29 ff 3d
       0.19996044 -0.15935756 -0.060519364 0.12459154
000210 25 44 91 3d 98 14 e4 bd 87 01 2c be 2e 1f 1b be
       0.07093076 -0.111367404 -0.16797458 -0.15148613
000220 c8 8e 28 be 8f af e8 bd 37 e7 fa bd b5 ce 61 bd
       -0.16460717 -0.1136161 -0.12251132 -0.05512877
000230 42 fc 3a 3e 90 b2 60 bd 9b 2b f8 bd 90 fb c8 3d
       0.18260291 -0.05485779 -0.12117692 0.09813607
000240 4a 10 02 be 7d ae fb bd 44 5e 97 bc d2 82 6e bc
       -0.12701526 -0.122891404 -0.018477567 -0.014557557
000250 ba 76 f9 bd f9 7e 2e be 53 13 3e be 55 5f ea bd
       -0.121808484 -0.17040624 -0.18562059 -0.114439644
000260 62 ff d4 3d e4 59 67 3c da 77 2e 3e 59 ec bc 3c
       0.10400273 0.014120553 0.17037907 0.023061918
000270 8c 26 25 be 88 e9 86 3b 25 f2 60 bd 7f 8d d9 3d
       -0.16127986 0.0041171946 -0.054918427 0.10622691
000280 a9 d7 4f 3d e6 6b 4c 3e 90 6f 39 be 59 bd c4 bd
       0.05074278 0.19963035 -0.18108964 -0.09606428
000290 d6 59 3c be 05 8f 7c 3c e5 3c 05 be 2a e3 bd bd
       -0.18393645 0.015414958 -0.1301151 -0.09271844
0002a0 c0 2c 56 3e b2 81 b2 bd 51 56 e3 3d fc 61 0a 3e
       0.20915508 -0.08716144 0.11100448 0.1351394
0002b0 92 74 16 3e e5 ae 22 3e 05 9f 02 3e ff e6 bb 3c
       0.14692906 0.1588703 0.12755974 0.022937296
0002c0 7c d7 31 3e 0e 8b 4f 3e 82 5f 1d be b8 1f 3d 3d
       0.17367357 0.20267889 -0.15368465 0.046172827
0002d0 43 d0 23 3e 4e 47 08 be 34 8d b0 3d d7 59 03 3e
       0.15997414 -0.1330845 0.08620682 0.1282724
0002e0 1a 74 aa 3b c2 b0 6b bd 9e 35 83 bc 35 8a 32 3e
       0.0052018287 -0.057541616 -0.016016778 0.17435534
0002f0 55 6f 11 be 81 e4 ab 3d e8 1e db bd 99 a3 10 3e
       -0.14202626 0.08393193 -0.10699254 0.14124908
000300 db 9a cb bd c5 81 64 3d 6a 9a eb 3d a3 11 0a bd
       -0.09941646 0.05578782 0.115040615 -0.033708226
000310 54 ff 20 bd f4 f9 3b 3e 4a 21 42 3e 36 1c dc 3d
       -0.039306 0.18357068 0.18958011 0.10747568
000320 2c 77 a2 3b 82 93 6e ba ca a5 17 be 0c d5 24 3e
       0.004958054 -0.000910096 -0.14809337 0.16096896
000330 b8 75 a1 3d aa ed 34 3e 12 10 05 be 1b f4 47 3d
       0.07883781 0.17668787 -0.12994412 0.04881678
000340 54 ce 36 3d 7b a6 61 bd ad 86 9f bc c4 94 31 3d
       0.044630364 -0.05509041 -0.019473398 0.043354765
000350 0c 28 83 bd 41 98 52 3e c8 19 3c be 5f cf dc bc
       -0.06404123 0.20565893 -0.1836921 -0.026954351
000360 e9 79 9f bd de 2a 33 3e 55 97 96 bd 29 30 5f bd
       -0.077869244 0.17496821 -0.07353083 -0.05448929
000370 7d 43 3c 3e 94 b0 3d be 24 a9 95 bd 9c 5a 41 3e
       0.1838512 -0.1852439 -0.07307652 0.18882221
000380 b5 af 19 3e 31 a0 7e bd 22 20 3a bd c6 c6 e5 bd
       0.15008433 -0.06216449 -0.0454408 -0.11219554
000390 fa 98 4c 3d a0 52 63 3d 98 4a 16 3e 09 21 c9 3d
       0.049950577 0.05549872 0.14676893 0.09820754
0003a0 48 a4 cf 3d 49 60 1b bd 2b c4 13 be 89 a0 df 3d
       0.10138756 -0.03793362 -0.14430301 0.109192915
0003b0 ae fb c4 3b 07 4b 0f be be 34 e0 3c de 5f 4c 3e
       0.006011448 -0.13993464 0.0273689 0.19958445
0003c0 6c a5 2b 3c 08 25 14 be b6 41 07 3e 3d ba 15 3e
       0.010476451 -0.14467251 0.1320866 0.14621826
0003d0 05 40 0b be 4c 9a 38 be ff ab 2b be b7 ab ec 3d
       -0.1359864 -0.1802761 -0.1676483 0.115561895
0003e0 f7 88 a5 bd 07 cf 4e be f0 6e f8 bc d6 6e 00 be
       -0.080827646 -0.20196162 -0.030326337 -0.1254228
0003f0 15 47 43 bd 18 14 9e bd 8d 37 7a bd c9 cf 09 be
       -0.04767521 -0.07718676 -0.061088134 -0.1345817

actor.0.bias f4 [32]
000000 4e f2 d0 3d 36 1c d5 bd c2 0a 13 be 67 0e b5 bd
       0.10202466 -0.104057714 -0.14359573 -0.08840638
000010 8d 36 a8 bd a8 d6 04 be b1 36 b7 bd cc 8c d6 3c
       -0.0821353 -0.1297251 -0.089459784 0.026190184
000020 2b eb 26 3d ed 37 2a 3e 01 74 49 be 63 0c 3a bd
       0.040751617 0.16622896 -0.19673158 -0.04542197
000030 a6 00 8b bd e2 ba ea bd 09 69 79 3d 5d e8 c0 bd
       -0.06787233 -0.11461426 0.060891185 -0.0941932
000040 30 87 a6 bd e4 54 1f be 7e 40 ad bd 36 9e ea 3b
       -0.08131254 -0.15559727 -0.084595665 0.0071599735
000050 f6 6c ed bd ea 66 35 bd 84 e1 f5 bd 7d db 16 3d
       -0.11593048 -0.0442876 -0.12005904 0.036830414
000060 75 62 89 3d aa 95 09 be 73 16 cc bd 17 0b 04 bd
       0.06708232 -0.13435999 -0.09965219 -0.03223714
000070 29 03 d9 bd 27 6d b9 bd 21 ef c5 3d 82 bf 17 bd
       -0.10596306 -0.09054022 0.09664751 -0.03704787

actor.2.weight f4 [32, 32]
000000 7d a1 8b 3d c9 fd 1b 3a 1e a2 c2 3b ae 5b fd bd
       0.06817911 0.00059505977 0.005939736 -0.12371002
000010 0c 65 44 3c 9f 8c 2a 3e 32 bb 27 3e 67 6c f8 3d
       0.011986982 0.16655205 0.16380003 0.12130051
000020 ce 3c 6f bd 8e 8c a2 ba 2d b9 22 3e 6c 06 0e bd
       -0.058407597 -0.0012401508 0.15890951 -0.034674093
000030 5c e4 25 3d 6b 0a 6e 3c 42 f8 e4 3d 32 7b b2 bd
       0.040500984 0.014528851 0.11180164 -0.08714904
000040 d9 50 06 3d 6e 11 1e be 3a 72 32 bd 58 8f a7 3d
       0.032791946 -0.15436336 -0.043565966 0.081816375
000050 06 a2 87 3c 4c 45 26 3e c4 60 00 be f0 d4 99 3d
       0.016556751 0.16237372 -0.12536913 0.07511318
000060 f8 3b 2c bc 82 c4 28 3e d9 52 1e 3e cd 4e 1d 3e
       -0.010512345 0.16481212 0.15461291 0.15362091
000070 cc bd f2 bd 57 08 31 3e 93 59 e7 bd 60 40 aa bd
       -0.11852607 0.17288338 -0.11296382 -0.0831306
000080 87 29 ca 3d e1 7d 34 bb 24 e2 ae 3d 48 2b 1a 3e
       0.09871202 -0.002754085 0.08539227 0.15055573
000090 df a0 a0 bc ff ce 2f 3d 45 96 31 3b 95 11 ee 3d
       -0.01960796 0.042922016 0.0027097624 0.11624447
0000a0 18 0d ab 3d 0e 13 c0 3b 6a 89 07 be 9e c4 49 3d
       0.08352107 0.0058616465 -0.13236013 0.049259774
0000b0 52 eb da 3d 16 5c 3c 3c e8 ba a9 3d 94 01 32 3d
       0.10689415 0.011496564 0.08287603 0.043458536
0000c0 9b 24 b8 bd 32 35 b9 bd 58 21 1d bd 7d 1a 1a be
       -0.08991357 -0.09043349 -0.038361877 -0.15049167
0000d0 e4 89 c7 bb 62 35 3f bd b8 e3 20 be d3 5e a9 3c
       -0.006089436 -0.04668177 -0.15711868 0.020675099
0000e0 8d e3 10 3d 70 6c 87 3d 0c 39 02 bc e2 2b 84 bd
       0.03537326 0.0661248 -0.007948171 -0.064536825
0000f0 58 6a 00 bd 4b 31 12 be 69 b7 6b 3a 44 fd bd 3d
       -0.031351417 -0.14276616 0.0008991869 0.09276822
000100 bf 22 5b 3b e4 4e 94 3c c8 19 18 3e 6a 40 13 3e
       0.0033437458 0.018104024 0.14853585 0.14380041
000110 7d 08 24 3e 29 ef 12 3e d0 fe c1 3d 56 33 ec bb
       0.16018863 0.14349045 0.0947243 -0.007208268
000120 e3 1a 2c be 40 58 b4 3c 5b 2f cc 3d 82 51 44 3b
       -0.16807131 0.022014737 0.0996997 0.002995581
000130 41 11 c2 3d 76 3f 07 be 36 c8 89 bb ed 00 2d 3e
       0.09475947 -0.13207802 -0.004204775 0.16894884
000140 2b c7 23 be 49 0b d8 bc ab 32 98 3d 5f c0 26 be
       -0.15993945 -0.026372569 0.07431539 -0.16284321
000150 0f 66 8a bd 28 a8 9d bd 77 07 e9 3d 77 bf e2 bc
       -0.067577474 -0.07698089 0.11378377 -0.027679188
000160 ee 6f 51 3b 80 ab 11 3e 62 73 1a 3d 2a 65 79 bd
       0.0031957584 0.14225578 0.037707694 -0.060887493
000170 df be b3 3d 18 bc 94 bd 49 f5 1b 3e c4 d1 52 bd
       0.0877664 -0.072624385 0.15230288 -0.05146958
000180 21 67 1f 3e 2d fa 51 bd dc c9 c0 3d 16 33 1f 3e
       0.15566684 -0.051263977 0.094135016 0.15546831
000190 62 d6 83 bd f7 b2 64 bc 43 d6 b4 bd e1 42 b6 3d
       -0.06437375 -0.013958684 -0.0882993 0.08899475
0001a0 82 2e 77 bd 85 07 07 3e f5 54 ea bd 1f 72 75 bd
       -0.060347088 0.13186462 -0.114419855 -0.059923287
0001b0 39 27 39 bd 4e b3 13 3e f7 6f c0 3d 0b f3 42 bc
       -0.04520342 0.14423868 0.093963556 -0.011898766
0001c0 e9 4d b3 3d f8 ae 1d be b6 f4 39 bc 79 42 23 3e
       0.087550946 -0.15398777 -0.011349848 0.15943326
0001d0 24 98 29 bd 15 bd c9 bd 5f 94 aa bd 91 52 09 3e
       -0.04140486 -0.09850518 -0.08329081 0.13410403
0001e0 d2 ec bf 3c 9c 00 2c 3d 1e cc af bd 37 28 b0 3d
       0.023428354 0.04199277 -0.08583854 0.086014204
0001f0 5d 21 8d bb 11 38 36 3e 7c 36 e6 3d 90 72 1c be
       -0.0043069557 0.17794825 0.11240861 -0.15278077
000200 13 26 16 3e 4a 1a eb bd a4 ee 6e bd 39 f5 c6 3c
       0.14662962 -0.114796236 -0.058333054 0.024286853
000210 52 85 0d be 87 3f 11 bc 4c 17 c2 bd 34 14 2c bd
       -0.13820389 -0.008865244 -0.094771 -0.042011455
000220 20 25 31 3c e6 06 d0 bc 15 34 6b 3d da 3c 5b bd
       0.010812074 -0.025393914 0.057422716 -0.05352483
000230 3f 0f a2 3c 6d 68 c2 ba 4e af 64 bd 1d 3b 27 be
       0.01978266 -0.0014832147 -0.055831246 -0.16331144
000240 e1 13 be 3d 65 3f 0b be 63 e5 c8 3c c7 3b ee 3d
       0.09281135 -0.13598402 0.024523443 0.116324954
000250 fd 14 24 3e e0 49 c0 bd 0f 6e 22 3e d8 fa c7 bd
       0.16023631 -0.093890905 0.15862297 -0.097646415
000260 85 fe ce bd 41 f0 bc 3c 9e d2 97 bd b3 b6 ef bd
       -0.101071395 0.02306378 -0.07413219 -0.11704769
000270 f0 ab 3e 3d c8 cd 1c 3e 7d 13 d1 3d 3b dd 78 3d
       0.04655069 0.15312874 0.10208795 0.060757857
000280 74 e9 c7 3d b8 27 15 3e b6 a8 a0 bd 84 8e 0d 3e
       0.097613245 0.14565933 -0.07844679 0.13823897
000290 9a b0 46 3d 26 12 f4 3d 88 e1 2f be 35 3c 2e 3d
       0.048508264 0.11917524 -0.17175877 0.042537887
0002a0 ae 0f a6 bb a9 e4 33 bb 18 f3 01 be 88 40 63 bc
       -0.005067787 -0.0027449524 -0.12690389 -0.013870366
0002b0 80 f3 2f bd 05 60 74 bd ea 0e 16 3e c8 37 1b be
       -0.04295683 -0.059661884 0.14654127 -0.15157998
0002c0 27 a9 9a 3c 83 43 a7 3d c2 fa 07 3d f4 55 fe 3d
       0.018879486 0.08167174 0.033198126 0.12418738
0002d0 bf d9 cc 3c 2e 30 e3 3d d1 9a b2 3d 06 55 f9 bd
       0.025006173 0.11093174 0.08720935 -0.1217442
0002e0 a4 53 1b be 83 f9 a8 bd e3 04 cf bd fd ef 0e be
       -0.15168625 -0.082507156 -0.10108354 -0.13958736
0002f0 bb c4 1c 3d 0c 78 09 be 64 48 01 be 37 f2 6a bd
       0.038273554 -0.134247 -0.12625271 -0.0573599
000300 6f 86 29 be 2c 02 e9 bd 36 56 16 bd b5 ff 4e 3c
       -0.16555189 -0.113773674 -0.03670331 0.0126342075
000310 3f 71 97 3d 52 3d 1f 3e 73 71 11 bd d2 23 da bd
       0.07394647 0.15550736 -0.035508584 -0.106513634
000320 9a ea e6 bd 16 7f 04 be fa 01 e5 3d 1e 3b 1f 3e
       -0.112752154 -0.12939104 0.111820176 0.15549895
000330 a7 58 33 3d 11 14 2c 3d 05 26 74 3d 9b d9 f2 3d
       0.043785717 0.042011324 0.05960657 0.11857911
000340 b6 82 cc 3d c8 2e eb 3d 06 a6 73 3d 7b fa a7 3c
       0.09985869 0.11483532 0.059484504 0.02050518
000350 15 67 43 bd f8 7c dd 3d 20 97 50 3d f1 59 dc 3d
       -0.04770573 0.108148515 0.050925374 0.107593425
000360 8f d5 2b 3e 9a ca 07 3e 34 91 27 3e 44 ff 05 3e
       0.16780685 0.1326088 0.16363984 0.13085657
000370 71 a2 2e bd 01 3f 8b bd d1 98 17 3d 03 67 dd 3d
       -0.042635385 -0.067991264 0.03701097 0.108106636
000380 2c 7d 19 be c4 74 5b 3d 24 4b a0 3d ff 3a b0 bd
       -0.14989156 0.053578153 0.07826832 -0.086050026
000390 53 77 be bd 81 4a a6 bd 93 7b 30 3e 1d f2 45 bc
       -0.09300103 -0.08119679 0.1723464 -0.01208165
0003a0 6b 48 ce bd ac 1f ac 3d b8 2f f7 bd a9 13 2b be
       -0.100724064 0.084044784 -0.120696485 -0.16706719
0003b0 89 7f ec 3d e0 7d dd bb 75 3a 3c 3c 2c 21 d7 3d
       0.11547763 -0.0067593902 0.011488547 0.10504374
0003c0 54 d6 cc bc 85 89 8e bc 7d 69 f1 bc a1 26 ba 3d
       -0.025004543 -0.017399559 -0.029469246 0.09089399
0003d0 21 b7 17 bd 8b f7 2e 3c 04 c3 eb bd d3 59 a0 bd
       -0.03703988 0.010679136 -0.11511806 -0.078296326
0003e0 44 b9 15 be 21 9d f9 3d ab 57 1b 3e 4e 9c 90 3d
       -0.14621454 0.12188173 0.15170161 0.07061063
0003f0 98 e7 81 3d 87 e5 b6 bd 3a 41 70 3d 24 94 90 3d
       0.06343001 -0.089304976 0.058655955 0.070595056

actor.2.bias f4 [32]
000000 11 c2 b7 bc da 75 92 3d f8 e7 f5 bd db dc 8f bb
       -0.022431405 0.07151385 -0.12007135 -0.0043903417
000010 5f dd bb 3d f8 78 bd 3c 89 aa c7 3d c1 03 7c 3d
       0.091730826 0.023128971 0.09749324 0.061527018
000020 1d 18 50 3d d4 50 1d bd 8b 44 fd 3d 38 1b 9c bd
       0.050804246 -0.03840716 0.12366589 -0.07622379
000030 ac d1 13 be bc 61 c5 3c 5c b2 ea 3d de 45 2b 3e
       -0.14435452 0.024094455 0.114598006 0.16725871
000040 dc fe 3c bd 27 a8 80 3d 16 a1 46 bc 59 4b 98 bd
       -0.04614149 0.062820725 -0.012123367 -0.074362464
000050 38 82 86 bd b0 51 57 bd c2 0a 89 bd a8 a6 a0 3d
       -0.06567806 -0.052568138 -0.06691505 0.07844287
000060 a1 93 12 3e a0 93 d9 bd 81 ae 0e bc 7a 59 ae 3d
       0.14314128 -0.1062386 -0.008708597 0.0851316
000070 8f a9 b2 3d f1 ce e7 3c dc ff d3 bd 9f 09 c9 bd
       0.08723747 0.02829692 -0.10351536 -0.09816288

actor.4.weight f4 [4, 32]
000000 e3 78 24 be 68 9c 2f be 8e c1 10 be 10 67 a8 bd
       -0.1606174 -0.17149508 -0.14136335 -0.082227826
000010 a9 10 19 3d aa 1c 11 3e 29 39 62 bd ab f3 22 3e
       0.037369404 0.1417109 -0.055230293 0.15913264
000020 84 c5 be 3d 7b cd 7a 3d 5f da 98 3d b9 ba f4 bc
       0.09315017 0.061231118 0.07463526 -0.029874193
000030 66 d9 37 bd b9 7d 72 bd 6f 23 2a be 9c 35 65 bd
       -0.04488506 -0.05920193 -0.1661508 -0.05595933
000040 a1 df be bd e7 b6 19 be 99 82 07 be 63 22 20 3e
       -0.093199976 -0.15011178 -0.13233413 0.15638117
000050 de 30 8c 3b 46 dc 0e 3e 0d 14 d1 3d c4 cd 86 3d
       0.0042782864 0.13951215 0.102089025 0.065822154
000060 7e 1b 0e be fe 95 8f bd d6 8a 87 3d d0 98 2c 3d
       -0.13877675 -0.070110306 0.06618278 0.04213792
000070 c6 a5 13 be ad a8 30 3e cc ea 11 3e f4 62 91 3d
       -0.14418706 0.17251845 0.14249724 0.07098952
000080 c6 7e d9 bd 24 13 a2 3d ac 11 d3 3d 28 cc 9f 3d
       -0.10619883 0.07913807 0.10306105 0.078026116
000090 c7 56 c9 bd d7 46 1e 3b 04 56 0c be 0e 32 bd bd
       -0.098310046 0.002415111 -0.13704687 -0.09238063
0000a0 c9 e1 d0 bd c9 d4 12 3e d0 40 04 be 30 a9 80 3d
       -0.10199315 0.14338984 -0.12915349 0.0628227
0000b0 37 47 e1 b9 0f f3 f5 bb c1 19 3e 3d 00 24 03 be
       -0.00042968403 -0.0075057815 0.04641128 -0.12806702
0000c0 a5 22 ab 3d 45 10 01 3e bf e9 2a be a1 09 b3 3d
       0.08356217 0.12603863 -0.1669073 0.08742071
0000d0 af 21 b4 bc 50 81 0d 3d 45 e5 1b bd c1 e1 32 3d
       -0.021988718 0.03454715 -0.038060445 0.043672327
0000e0 ca 16 cb 3d 56 a9 66 bd f8 b6 19 be 6c 0c 04 bd
       0.09916456 -0.056313835 -0.15011203 -0.03223841
0000f0 d7 9f ec 3d b6 78 25 be b6 88 05 3e 84 27 a6 bb
       0.115539245 -0.16159329 0.13040432 -0.0050706286
000100 b9 d5 ac bd 87 d5 eb 3c c8 f8 b5 3d 6b a9 1c be
       -0.08439202 0.028788341 0.08885342 -0.15299003
000110 8d ea 16 be 10 2a 39 be e1 51 d4 3d a6 c1 33 be
       -0.14737912 -0.18082452 0.1036718 -0.1755434
000120 ff dd da 3d 58 d3 d3 3d 0c 4d 13 3d 5f 6e 24 3e
       0.10686874 0.10343045 0.03596215 0.16057728
000130 8d d9 f7 bc 31 c8 c4 bb 9b 3e 8d 3d ac 1a f5 bd
       -0.030255103 -0.00600531 0.06896707 -0.11967978
000140 29 25 14 3e bc bd 9d bd fb 0d 19 be 8a 2a 89 3d
       0.144673 -0.077022046 -0.1494674 0.06697567
000150 57 f6 9e bd 44 5c 16 3e f4 39 a2 bc ad 65 fc 3d
       -0.07761829 0.14683634 -0.019803025 0.123240806
000160 1f 30 38 bd 36 d4 db bd 0c 3e 23 bd ab a5 da bc
       -0.044967767 -0.107338354 -0.039854094 -0.026690325
000170 d7 c7 8c 3d 4f c0 14 3d 84 3f a5 bd 83 0e 0b be
       0.06874054 0.036316212 -0.08068755 -0.13579755
000180 c8 3a 30 be 16 35 32 3e 22 0e 1a 3d 50 e9 3a bb
       -0.17209923 0.17403063 0.037611134 -0.0028520413
000190 b5 51 f3 3d b4 be ff 3c 83 cc f3 3c 04 06 dc bd
       0.11880819 0.031218864 0.029760605 -0.10743335
0001a0 b1 db 00 be ba 94 1a be 17 51 19 bc ce 91 a2 bc
       -0.12583806 -0.15095797 -0.009357712 -0.019844916
0001b0 45 53 eb bd 14 32 e6 3d 0f b7 a3 bc b6 5c 7e 3d
       -0.11490492 0.112400204 -0.01998475 0.062100135
0001c0 74 bb 59 bd f2 51 84 bd 0b 49 bf bd 35 58 ff bc
       -0.053157285 -0.06460942 -0.09340104 -0.03116999
0001d0 32 5e 4c bd 10 8e c0 bd 53 3c 23 3e f4 67 0b 3e
       -0.04989452 -0.09402096 0.1594098 0.13613874
0001e0 bc b2 2a 3e 95 47 25 3e 6a f2 87 bd 04 a2 9b 3d
       0.16669744 0.16140588 -0.06638034 0.075992614
0001f0 ba 61 8d bd e1 2a 29 3e f3 36 55 bd bd 1d 04 be
       -0.069034055 0.16520263 -0.052054357 -0.12901969

actor.4.bias f4 [4]
000000 b2 17 ad bd f1 d3 2e bb b5 70 17 be fb 94 ae 3c
       -0.08451785 -0.002667662 -0.14789088 0.021311274

critic.0.weight f4 [32, 24]
000000 17 f5 25 bc a8 f3 19 be 1e ab 21 3e 94 97 77 bd
       -0.010129235 -0.15034354 0.15787932 -0.06044729
000010 df 3e 2f 3e f4 d3 d3 bc 88 a9 e3 3d dd 93 6b 3e
       0.17113827 -0.025857903 0.1111632 0.23005624
000020 46 f5 f9 bd a1 ec aa 3d 57 49 33 3e dc de 25 3d
       -0.12204985 0.08345915 0.17508446 0.04049574
000030 61 65 3b be 5f 32 84 bd cd 9a 58 3d 4f c1 29 be
       -0.18300392 -0.0645492 0.052882005 -0.16577648
000040 33 6f 24 3e 39 61 e8 bd 2a a4 be bd 43 d4 c7 3d
       0.16058044 -0.11346669 -0.093086556 0.097572826
000050 57 d6 4c be 01 55 02 3e 96 2f 05 bc 90 42 a4 3c
       -0.20003639 0.12727739 -0.008129021 0.02005127
000060 60 c9 1d be 0e f5 49 be 23 b2 f8 bd 7b 53 65 be
       -0.1540885 -0.19722387 -0.12143352 -0.22395127
000070 43 33 2c 3e 64 da 6b bd b1 68 23 3d ea 11 cd 3b
       0.1681643 -0.05758132 0.039894763 0.006258239
000080 24 da f7 bd a7 af 14 be 92 b9 49 be b6 71 71 3d
       -0.12102154 -0.14520131 -0.19699696 0.058946334
000090 b1 60 58 bd 2e 58 ec 3d cc 97 09 3e 81 65 93 3b
       -0.052826587 0.115402564 0.13436812 0.004498184
0000a0 cd 80 26 3c 5d 76 96 bc d7 5f 17 be 67 62 1c 3e
       0.010162544 -0.018366987 -0.14782654 0.15271913
0000b0 86 c0 2d be 28 67 22 bc 30 85 4a 3e f0 38 5a bd
       -0.16967973 -0.00991229 0.1977737 -0.053276956
0000c0 62 d3 88 3d 8a c6 e3 3d f8 c9 04 be 96 9b f4 3c
       0.06680943 0.11121853 -0.1296767 0.029859345
0000d0 bd 83 d6 bd e1 85 e1 bd ad ae 21 be 05 86 d6 3d
       -0.10474346 -0.110118635 -0.1578929 0.10474781
0000e0 0d 99 ce bd d7 87 42 3e 64 5c 2b 3e f8 03 28 bc
       -0.10087786 0.18997131 0.16734463 -0.0102548525
0000f0 ed b5 2b 3e 4d 58 2b bd a0 ce e8 3d 6d 29 8d 3a
       0.16768618 -0.041832257 0.113675356 0.0010769792
000100 0e dc 04 be 54 31 cc bd ac 0b 01 be 11 5b 75 3d
       -0.12974569 -0.09970346 -0.12602109 0.0599013
000110 db f8 40 bb 3f 60 2a 3e 97 15 4a 3d 81 eb 04 bd
       -0.0029445204 0.16638277 0.049336996 -0.032451157
000120 3e 6d a8 3b c5 7d d5 3d c3 f4 c5 bd 29 6f 3b 3e
       0.005139976 0.10424379 -0.09665825 0.18304123
000130 7a 7c 12 bd ac b3 87 3d ed b2 55 3e 5f 43 49 be
       -0.03576324 0.066260666 0.20869036 -0.19654606
000140 08 34 ed 3d f3 28 3d 3e 9f b3 0d 3e 8c 56 54 3d
       0.1158219 0.18472652 0.13838051 0.05184035
000150 5d be 99 bd 73 ef e6 bd 05 a9 10 3e e1 8f a2 3d
       -0.07507012 -0.1127614 0.14126976 0.07937599
000160 8d 8a 21 3e e2 87 03 3e be 91 da bd d6 df 06 3e
       0.15775509 0.12844804 -0.10672329 0.13171324
000170 3e 3f f4 3b 6b 3a 2f be c0 ed 2b 3c d4 d4 9b bd
       0.007453828 -0.17112128 0.010493696 -0.07608953
000180 ab e2 c8 bd be 50 31 bd a1 0f 4f be 41 b6 fa bd
       -0.098088585 -0.043289892 -0.20220806 -0.122417934
000190 fa 82 25 3e 5a 36 01 be 20 2d 79 bd 81 7b b3 bb
       0.16163245 -0.1261839 -0.06083405 -0.0054773693
0001a0 0d ce 3b 3e 00 6b ae 3d 1c 86 5f bd 50 74 dc 3c
       0.18340321 0.085165024 -0.054571256 0.02691093
0001b0 fc 01 b7 bd 18 0b 91 3c ee 44 c2 bd da 91 07 be
       -0.08935925 0.017705485 -0.094858035 -0.13239232
0001c0 3f 6e 8c bd 26 da 16 be 8f e8 b3 bd 81 c2 98 3d
       -0.06856965 -0.14731655 -0.087845914 0.07458974
0001d0 a0 e1 1d bd 49 5c 24 be bb 2b 07 be e0 f2 0a be
       -0.03854525 -0.16050829 -0.13200276 -0.13569212
0001e0 83 4b d3 3d 36 08 ff bd cd 61 88 b9 37 81 da 3d
       0.10317137 -0.12452738 -0.0002601281 0.10669177
0001f0 66 b0 2a be b7 8d 62 3c ef 85 ac 3d a2 a9 31 3e
       -0.16668853 0.013827733 0.08423983 0.17349866
000200 09 b3 d4 3d e0 de b3 bd 0d db 68 3e 1e f1 e5 ba
       0.10385711 -0.087827444 0.22739811 -0.0017543172
000210 36 88 fc 3b ac 7e 1b 3d 90 85 0e be ba 6a 2d 3e
       0.0077066673 0.0379626 -0.13918138 0.16935244
000220 f0 22 84 3d c3 6f fb 3d 3c 1a 79 3d c9 f9 2c be
       0.06451976 0.12277176 0.060816035 -0.1689216
000230 f2 ad bd 3d 67 eb 1b bd 95 15 1f 3e e4 a7 9c 3d
       0.09261693 -0.038066294 0.15535577 0.0764921
000240 ee 17 fe 3b 5a cf db 3d e7 8c 0c 3e f0 87 96 3d
       0.0077543175 0.107329085 0.13725625 0.07350147
000250 fd 61 3e 3e 44 c5 2a 3e 10 6c 3a be 0c 6d fa bd
       0.18592067 0.16676813 -0.18205285 -0.1222783
000260 08 97 04 be c8 e9 38 be 9a 5a 09 3e 47 2d 1d 3e
       -0.12948239 -0.1805793 0.13413468 0.15349303
000270 34 9d c3 3c 15 98 5a bd 82 c8 2d be 6b 53 60 be
       0.023878671 -0.053367693 -0.16971019 -0.21906821
000280 7b 5f 5a 3d 05 80 5b 3d 88 69 95 3d e6 78 ab bc
       0.053313714 0.053588886 0.07295519 -0.020931672
000290 0e 21 86 3d 89 19 3e 3d 00 8a a7 bd 38 24 1b 3e
       0.065492734 0.04641107 -0.08180618 0.15150535
0002a0 32 5b af 3c 82 38 01 bd 8a eb f8 bd 13 14 03 3e
       0.02140579 -0.03154803 -0.121543005 0.12800626
0002b0 8a 98 34 3e 9d 26 97 3d 00 7d e4 bd 69 ca 11 be
       0.17636314 0.07380412 -0.11156654 -0.1423737
0002c0 bc 65 65 be 5a 47 a3 3b d1 c1 8e 3d cd 1c 01 be
       -0.2240209 0.004982871 0.06970561 -0.12608643
0002d0 e0 0d e3 bd 38 98 b8 bd 46 64 19 3d a3 81 02 3e
       -0.11086631 -0.090134084 0.037449144 0.12744765
0002e0 89 bd 12 be d0 e4 d1 bd 5c 58 ae 3d 74 76 14 3e
       -0.14330114 -0.10248721 0.08512947 0.14498311
0002f0 0b 61 00 3e a0 ed 18 bd 44 c7 79 bc ca 70 c4 bd
       0.12537019 -0.03733599 -0.0152452625 -0.09591825
000300 64 35 57 3d 02 a9 2b 3e 24 e5 9b bc 92 32 12 be
       0.05254115 0.1676369 -0.019030161 -0.14277104
000310 5a 73 50 3e e0 c5 c7 3d 50 f0 a0 3d 7c 18 39 3e
       0.20356503 0.097545385 0.07858336 0.18075746
000320 39 72 1c bd a3 0f ec bc ea 3b 0a 3d 54 0a 1c 3e
       -0.03819487 -0.02881605 0.033748545 0.15238315
000330 db e3 cb 3d c0 83 10 bd e2 fc 1d 3e 18 97 91 3c
       0.09955569 -0.035281897 0.15428498 0.017772242
000340 66 80 b9 bd 30 bd f3 bb 45 cf 36 3e d6 e3 33 be
       -0.09057693 -0.0074383244 0.17852505 -0.17567381
000350 88 6e 37 3e 3f 25 2f be 10 41 0d be 82 a2 2e be
       0.17913258 -0.17104052 -0.1379435 -0.1705418
000360 cf cf 14 3e db 08 a6 3c c1 5d fc bd 21 56 a2 bd
       0.14532398 0.020267894 -0.1232257 -0.07926584
000370 d0 2d fb 3d f2 97 40 3e b9 78 36 3c 10 4d 65 3d
       0.122645974 0.18807963 0.011137181 0.055981696
000380 2f 89 ba bd b8 d0 c0 3d 61 84 0a 3d 38 9a 47 be
       -0.09108197 0.0941481 0.033817653 -0.19492424
000390 c2 96 3f 3e 6f 7d 13 3e 26 28 25 3e 78 cc 09 3d
       0.18709853 0.14403318 0.16128597 0.033642262
0003a0 23 98 49 bd 48 02 1f 3e 03 ec 13 be 21 4e 30 be
       -0.049217355 0.15528214 -0.144455 -0.17217304
0003b0 33 20 45 3c a9 55 8d 3d 2f 1c 37 3d 78 f7 dd 3c
       0.012031603 0.06901104 0.044704612 0.027095541
0003c0 d3 c8 0d 3d 9d 92 51 bc d0 ae 08 be 17 fc 41 be
       0.03461535 -0.012791303 -0.13347936 -0.18943821
0003d0 52 cc e7 bc e3 28 f1 3d 32 d2 aa bd a4 4e e4 bd
       -0.02829567 0.11775377 -0.08340873 -0.11147812
0003e0 3b 42 a0 bc f2 ac 1d 3e 62 66 04 3e 2a 68 a6 bd
       -0.019562831 0.15398005 0.12929681 -0.081253365
0003f0 7e 5a bb bb 3f 11 49 be 86 79 70 3d f9 14 cb bd
       -0.0057175746 -0.19635485 0.058709644 -0.099161096

critic.0.bias f4 [32]
000000 3c 8a be 3d 4e 9c 10 3e 8c f6 13 be b6 8b 49 3e
       0.0930371 0.14122126 -0.14449519 0.19682202
000010 b1 d7 2f bd 99 68 13 bd 33 ff 60 be d7 3c 08 3e
       -0.04293031 -0.035988424 -0.21972351 0.13304459
000020 b0 fe 7f 3d 81 37 8c 3d 84 2d 91 3d 9c ab 21 be
       0.06249875 0.06846524 0.070887595 -0.1578812
000030 ab 30 37 3e 9f a3 20 3e 23 05 a6 bd 1c 7b 01 3e
       0.17889659 0.15687416 -0.081064485 0.12644619
000040 69 d0 38 bd 36 28 ac bd c1 2b 16 bd 2b d1 e4 3d
       -0.04512063 -0.08406107 -0.03666282 0.11172708
000050 53 6a b4 3d 5f 67 81 bd 77 a8 3d be 90 bd 96 bc
       0.08809342 -0.063185446 -0.18521295 -0.018400937
000060 a7 18 da bd 55 6c 07 3c e0 0d 06 3e ed a9 1f 3e
       -0.10649233 0.008265574 0.1309123 0.15592165
000070 4f 4c 13 bc e9 38 79 3d 88 c4 1a 3c 95 22 96 bd
       -0.008990361 0.06084529 0.009446271 -0.07330815

critic.2.weight f4 [32, 32]
000000 8d f3 e7 3d f5 5e 05 be 9d 20 b0 bc b1 eb 90 bd
       0.113257505 -0.13024504 -0.021499926 -0.070762046
000010 e1 b3 25 3a f1 37 18 3e a4 eb 7a 3d 8e 50 30 bc
       0.00063210545 0.1486509 0.06125988 -0.010761393
000020 88 8e 27 be 66 65 06 be 35 46 a9 bc fe d4 bc bd
       -0.16362965 -0.13124618 -0.02066336 -0.092203125
000030 a4 38 40 3d 3c a9 39 be 74 c7 23 3e 7b 52 41 bd
       0.046929017 -0.18130964 0.15994054 -0.0471978
000040 37 25 ec 3d 8f a0 04 3e 02 1e 11 3e 24 9c fe bc
       0.11530536 0.12951873 0.14171603 -0.031080313
000050 f3 c5 19 3c 8e db ad 3d 70 a3 0a be 10 6e 0c bc
       0.009385574 0.08489142 -0.13538909 -0.008571163
000060 ce ed aa 3d e7 15 1c bc 4c 14 e6 bd b2 d7 f6 3c
       0.08346139 -0.009526706 -0.1123434 0.030132148
000070 7b 12 27 bd 15 25 de 3d 01 1c 10 be 50 39 c2 3b
       -0.04078911 0.108469166 -0.14073183 0.0059272423
000080 e9 6b b5 bc 3c fd f2 bb f7 1c 20 3e 87 46 b3 ba
       -0.022146182 -0.007415442 0.15636049 -0.0013677635
000090 25 03 72 bc bf 0d 24 be 26 ae ae bd a3 f0 06 be
       -0.0147712575 -0.16020869 -0.0852931 -0.13177733
0000a0 d5 c3 17 3d 15 71 00 bd 03 c6 7c 3d 4d 7b 0d 3e
       0.037051994 -0.031357843 0.061712276 0.13816567
0000b0 17 ce 46 3d 0e 18 ff bd f3 56 d1 bd c8 ae 87 bd
       0.048536386 -0.1245576 -0.10221662 -0.06625134
0000c0 2d 5b ca bd 24 14 2b 3d 26 76 29 be 3b ab 00 be
       -0.09880672 0.041767254 -0.16548976 -0.12565319
0000d0 e0 af 90 bc b8 5c f3 bd a5 38 f0 3d 02 66 74 3d
       -0.017661989 -0.11882919 0.11729554 0.059667595
0000e0 c8 64 0e 3e 0f 0f a8 3d eb f7 1e bd 22 a9 d2 bb
       0.13905632 0.08205997 -0.03881065 -0.0064288536
0000f0 08 96 b7 3d f4 39 16 be c2 a3 2f 3d c9 82 28 be
       0.08964163 -0.14670545 0.04288078 -0.1645614
000100 f5 64 9a 3d 80 24 8e bd 0b 88 4c 3d eb 4f 6a 3d
       0.07538787 -0.069405556 0.04993443 0.057205122
000110 51 2d 2a bb 89 f1 8c 3c 36 86 94 bd 7b 8a 46 bb
       -0.0025966952 0.017205017 -0.07252161 -0.0030294943
000120 bd 07 c8 3d b5 9c 10 3e b5 03 33 bd fe 9c ff 3c
       0.09767101 0.14122279 -0.043704707 0.03120279
000130 ac ef 3a 3d 3d a9 82 3d 54 d7 6a 3d 7f 8e 5f 3d
       0.045638725 0.06379936 0.05733426 0.054579254
000140 c3 ce 01 be 46 bb e4 bc b5 38 b3 bd e7 e0 12 3e
       -0.1267653 -0.02792133 -0.087510504 0.14343606
000150 9b db 94 bd 26 d9 99 3d ec 7a 44 3d 1c 6c 69 3d
       -0.07268449 0.07512121 0.04796879 0.056987867
000160 c2 1f 18 3d 3d 4e a0 bc 18 8f 69 bd ff e6 31 3e
       0.03713966 -0.019568557 -0.05702123 0.17373274
000170 fa 91 2f 3d e5 bb 05 3e a5 59 68 3d d7 03 2b 3e
       0.042863823 0.13059957 0.056726117 0.16700684
000180 c4 f5 87 3d f4 7c 6c bd c1 01 0b 3d 91 c2 f6 bd
       0.06638673 -0.057736352 0.03393722 -0.12048829
000190 9b 9a f6 3d 11 35 f3 bd 10 81 ea 3d 16 3b 91 3d
       0.120412074 -0.11875356 0.11450398 0.07091348
0001a0 ea c0 2b be 0b ed 5b bd 83 05 cc bc 9e f8 4a bd
       -0.1677281 -0.05369286 -0.024904972 -0.049553506
0001b0 f0 59 84 3d c2 dd b2 bd cc 09 24 3e f4 47 93 bc
       0.06462467 -0.08733703 0.16019362 -0.017978646
0001c0 62 64 dd 3d 03 8f 9b bd 9f b1 c2 bd 03 a1 17 3e
       0.10810162 -0.07595637 -0.09506535 0.14807515
0001d0 11 dd 20 be 8f d7 2d 3b 07 6d a3 bd 27 5e ad bd
       -0.1570933 0.0026526188 -0.0797978 -0.08465224
0001e0 6b 22 aa bb 0a 17 87 3d 7b 66 d7 bb a0 e0 0c 3d
       -0.005192091 0.06596191 -0.006573496 0.034393907
0001f0 0a a0 28 3e f3 5f 1a 3d 6f d5 fa 3d 22 00 0f bd
       0.164673 0.03768916 0.122477405 -0.034912236
000200 a8 75 64 bd 77 99 1a be 61 a8 b4 bd 45 20 a4 bd
       -0.05577627 -0.15097605 -0.08821178 -0.080139674
000210 fc f3 2a 3d ac 48 59 bd e2 36 1e be 76 57 7c bd
       0.041736588 -0.05304782 -0.15450624 -0.061606847
000220 70 73 1b 3e 87 57 a8 bd 3b b8 18 be d6 d2 93 3d
       0.15180755 -0.082198195 -0.14914028 0.07217948
000230 46 c9 98 bd ea eb 43 bd 7d 52 18 be cd f7 13 be
       -0.07460265 -0.047832407 -0.14875217 -0.14449997
000240 7a fa 96 3c a6 0d ca 3d d1 aa bc bd 67 a6 6b bd
       0.018429983 0.098658845 -0.09212268 -0.05753174
000250 ca 2d 69 3d b1 ff 24 3e 09 f1 2f bd 10 a7 3c be
       0.056928433 0.16113164 -0.04295448 -0.18423104
000260 c1 da d2 3d df 51 1f be 2d e1 e5 bd 19 c5 07 be
       0.1029563 -0.15558575 -0.112245895 -0.1325878
000270 e9 78 9a 3d f7 24 cb 3d ff a5 24 3e 87 ed 7b 3c
       0.07542593 0.0991916 0.16078947 0.015376455
000280 49 c0 ec bd 9c a7 ef 3d 11 9e ee 3d 48 1e 35 3d
       -0.11560113 0.11701891 0.116512425 0.04421833
000290 a7 94 37 3d d3 c0 16 be bc 33 3b bd b8 a2 26 3e
       0.0448195 -0.14721994 -0.045703635 0.1627301
0002a0 e9 d5 8f 3c 4b 76 3a be 17 e0 33 3e 35 ed d7 3d
       0.017558055 -0.18209188 0.17565952 0.105432905
0002b0 1a d6 04 3e bd 93 ab 3d d3 49 92 3d 76 1e 24 3e
       0.12972298 0.08377788 0.07142987 0.16027245
0002c0 31 3a 8a 3d 52 7f 24 be 95 2c b1 bd e7 f4 4e 3d
       0.067493804 -0.16064194 -0.086510815 0.050526526
0002d0 e0 cf 1e be be ba 08 be 15 d8 04 be 55 21 f8 bd
       -0.15508986 -0.13352486 -0.12973054 -0.121157326
0002e0 c0 de 86 3d 3c e5 ed 3d dd 45 cb bd 93 3c a2 bd
       0.06585455 0.116159886 -0.09925435 -0.0792171
0002f0 39 55 1f bd 9c cd 97 bd 4e ee 53 bd 4d cc d4 bc
       -0.038899634 -0.07412264 -0.051740937 -0.025976324
000300 1e 5c 25 3e 99 f8 29 be b9 6d 36 3d 55 bc 83 bd
       0.16148421 -0.16598739 0.044538233 -0.06432406
000310 90 5c df bd 3e 3e 5e 3d 2e 36 e2 3d bd 38 26 3e
       -0.10906327 0.054258578 0.1104549 0.16232581
000320 12 c9 b2 bd 7f 38 53 bc 81 2f 13 be ed be b5 bd
       -0.08729757 -0.012891888 -0.1437359 -0.08874307
000330 70 3c 10 3c 84 6f cf 3d 95 87 0d bd 5b d2 e5 3d
       0.008803472 0.10128692 -0.03455313 0.11221763
000340 dc 7b 22 ba d7 39 68 bd c1 7a 1c 3d c3 df 15 3e
       -0.0006198266 -0.056695785 0.038203005 0.1463614
000350 5a d1 94 3d 73 dc 86 bd 98 7a ad bd 39 da 2d 3e
       0.07266493 -0.06585016 -0.084706485 0.16977777
000360 c2 39 11 3e aa c6 00 3e d1 04 df bd 45 80 35 be
       0.14182189 0.12575784 -0.108895905 -0.17724712
000370 69 f4 05 be f4 6d 85 3d 70 02 2b 3e 39 bd 97 bd
       -0.13081516 0.065151125 0.16700149 -0.07409138
000380 eb 98 23 be 5a 0f e0 bd 3d 3c 78 3d 55 d4 02 3e
       -0.15976302 -0.10940428 0.060604323 0.1277631
000390 8e ee 20 bd e7 31 7e 3b d4 0f 08 be 17 12 92 bd
       -0.039290003 0.0038787068 -0.13287288 -0.071323566
0003a0 e2 3e da bd 95 33 ea 3d 99 e8 cc bc 26 58 90 bd
       -0.10656525 0.1143562 -0.025013255 -0.07048063
0003b0 06 fd 90 ba 4e 8f 9e 3d 28 3b ca bd 0e 94 84 bc
       -0.0011061735 0.07742177 -0.098745644 -0.01618388
0003c0 39 95 b8 3d 27 6a 82 bc 40 33 7e 3d 24 5c ed bd
       0.09012837 -0.015919758 0.062060595 -0.1158984
0003d0 fa 7e 52 bb ca 91 b2 bd 8c b0 27 3e a8 98 2a be
       -0.003211914 -0.08719213 0.16375941 -0.16659796
0003e0 9b 14 ac bd 0e c9 92 bd b6 e4 aa 3d ed a2 92 bd
       -0.08402368 -0.071672544 0.083444044 -0.07159982
0003f0 87 b9 de bd b3 04 9c bb 18 3a 5e bd 17 d3 2c 3e
       -0.1087523 -0.0047613024 -0.05425462 0.168774

critic.2.bias f4 [32]
000000 6b 37 15 be 7f ac 2d 3d b9 49 d0 bc 8c 30 05 be
       -0.14571922 0.042400833 -0.025425779 -0.130068
000010 a8 c0 05 be 50 be 81 bd 5f e5 3a be 5d 3b da 3d
       -0.13061774 -0.06335127 -0.1825156 0.10655854
000020 e2 44 de bc 3a 2f 0a be 01 53 e1 3d 9c 51 25 3e
       -0.027132455 -0.13494578 0.1100216 0.16144413
000030 71 29 6c 3d be ad a0 bd cb 33 9a bd 95 13 9a 3d
       0.05765671 -0.07845639 -0.0752941 0.07523266
000040 f2 01 18 3e d1 b4 0c 39 a4 2b 44 bd 23 7e b4 bb
       0.14844492 0.000134188 -0.04789318 -0.0055082007
000050 b3 be 32 3d a6 ba 32 3e ad 38 42 3e b4 5c 48 3e
       0.043638896 0.17454013 0.18966933 0.19566613
000060 98 e2 d8 bd 31 b3 44 3d 95 36 e4 3c e4 b2 8b 3c
       -0.10590094 0.048022453 0.027858058 0.017053075
000070 76 32 35 bc e1 ea 2d bd 81 db 02 3d 03 98 08 3e
       -0.011059394 -0.042460326 0.031947616 0.13339238

critic.4.weight f4 [1, 32]
000000 71 ca 85 3c 88 27 58 3d 63 73 d3 3d af 14 59 bc
       0.016331883 0.052772075 0.10324743 -0.01324956
000010 8e 4e 95 bd 42 6a 1d 3e 66 70 e9 bd 37 2e 23 3e
       -0.07290374 0.15372565 -0.113983914 0.15935598
000020 87 45 e1 bc e7 43 bb 3d 37 b2 63 3c b7 23 8c 3c
       -0.027498974 0.09143811 0.01389747 0.017106874
000030 47 cf fb 3d 69 b4 90 bd e1 2a 13 be 74 bb 5a 3c
       0.122953944 -0.070656605 -0.14371826 0.013350356
000040 f4 7c 0b be 5c 9b f4 bd b3 ca 2c 3e 5c ef b8 3c
       -0.13621885 -0.11943695 0.16874199 0.022575073
000050 91 b5 83 bd 06 87 2c 3e bb a8 0b 3c 51 37 01 3e
       -0.064311154 0.16848382 0.008524115 0.12618758
000060 30 ad 10 3c c0 b9 0f 3e 60 b7 05 3e c8 de 82 bc
       0.008830354 0.14035702 0.13058233 -0.015975371
000070 01 59 17 be cb 55 1f 3e 56 f4 1e be 1c d7 2a bb
       -0.14780046 0.15560071 -0.15522894 -0.0026068157

exp_avg f4 [4]
000000 6a bc a8 ba 5a 71 cc 3a e8 39 54 ba 45 b1 1e 3a
       -0.0012873535 0.0015597746 -0.0008095787 0.0006053637

exp_avg_sq f4 [4]
000000 5a ae 51 36 81 69 5c 36 22 44 23 36 9b 15 45 36
       3.1244913e-06 3.2843966e-06 2.4328551e-06 2.9367864e-06

exp_avg f4 [32, 24]
000000 8b 35 8c 37 1c bc 95 37 6b 4b f2 38 57 85 00 b9
       1.6714233e-05 1.784978e-05 0.00011553507 -0.00012256704
000010 c3 3f 10 b9 92 83 fc 39 8a 02 41 38 39 24 a2 36
       -0.00013756663 0.00048163213 4.601715e-05 4.832193e-06
000020 ed 79 b0 39 5d b1 3a b9 06 a7 fc 36 18 50 83 38
       0.00033660178 -0.00017804415 7.5296293e-06 6.2614854e-05
000030 93 ba 1a 37 7c f5 5f 38 e9 fd 3b 39 a9 73 b7 b8
       9.2225555e-06 5.339597e-05 0.00017928299 -8.7476634e-05
000040 43 69 6d bb e3 eb 75 3b 13 77 49 3c 37 a1 9a bb
       -0.003622607 0.0037524633 0.012296456 -0.0047189253
000050 3e 45 30 b9 6a a2 53 39 ad ff 20 3a 6c 2b 87 b9
       -0.00016810463 0.00020183032 0.0006141614 -0.00025781558
000060 07 eb e5 37 47 76 61 35 a4 58 41 37 22 5a 7b 39
       2.740837e-05 8.399115e-07 1.1524335e-05 0.00023970802
000070 35 39 43 b9 97 3a a2 39 ed 8a 52 b7 8c 1b e2 36
       -0.0001861796 0.000309427 -1.2549322e-05 6.7385317e-06
000080 aa 7e 3d b9 4e 63 1f 38 1f 83 66 37 2a bc 27 b9
       -0.0001807163 3.800104e-05 1.3739597e-05 -0.00015996458
000090 5b 67 17 38 ad 12 84 b8 32 8d 04 b9 58 85 2f 38
       3.6097463e-05 -6.297729e-05 -0.000126411 4.1847437e-05
0000a0 ac e4 8f ba 8b 8f 01 bb e0 72 d4 bb af dc 09 3b
       -0.0010978184 -0.0019769396 -0.0064834207 0.0021036079
0000b0 b4 26 44 38 ee a2 58 b9 e7 76 e0 b9 89 f8 a1 38
       4.6766087e-05 -0.00020660061 -0.00042813199 7.7233715e-05
0000c0 e3 32 e1 37 93 2c 8c b8 e4 c2 9a 38 31 e2 e5 38
       2.6845786e-05 -6.684023e-05 7.3795934e-05 0.00010961702
0000d0 9f 8d b2 b7 33 31 f7 b8 22 a3 68 37 46 4a 84 37
       -2.1285201e-05 -0.00011787042 1.386626e-05 1.5770212e-05
0000e0 3a d6 0e b9 6c b5 a3 38 69 ec ae 35 ba 32 10 39
       -0.00013621981 7.806238e-05 1.3032815e-06 0.00013751807
0000f0 bf cd ea 38 5b 73 9a b7 a4 fa 2f b8 db 29 d8 b6
       0.00011196313 -1.8411947e-05 -4.195668e-05 -6.4421743e-06
000100 a7 9b 14 ba 3e c9 15 bb 03 12 84 3a 11 15 e9 b9
       -0.0005668946 -0.0022855545 0.0010076169 -0.0004445692
000110 05 8d 86 39 4d b9 13 b9 85 3a e1 b8 5f c1 d2 37
       0.0002566354 -0.00014088042 -0.00010739736 2.5123996e-05
000120 70 b1 cc b6 dd 56 88 b8 95 c3 fa 38 82 c5 e8 38
       -6.10033e-06 -6.501165e-05 0.00011957359 0.00011099411
000130 05 3d 8d b9 90 cf 6e b9 f2 5e 2b 38 fd c2 9d b7
       -0.0002693908 -0.00022774772 4.0858e-05 -1.8806657e-05
000140 da 16 42 b7 e4 1a 0f b8 ad 1e 36 37 8f 4b 7f b6
       -1.1568622e-05 -3.41189e-05 1.0855188e-05 -3.8041942e-06
000150 8b 4c 3f b7 d0 2b 16 b8 d2 75 74 37 8a d9 e4 b8
       -1.1402309e-05 -3.580359e-05 1.45709655e-05 -0.00010912407
000160 1e 45 38 bb c4 bb 2b 3b cc 1d d9 3b 76 11 ad bb
       -0.002811737 0.0026204446 0.0066258665 -0.0052816225
000170 74 39 41 b8 e2 d9 33 38 3b ab 6a 39 0a d9 ee b8
       -4.6068293e-05 4.2879845e-05 0.00022379767 -0.00011389151
000180 53 b2 90 37 0f bc b6 36 9d e4 10 39 50 60 06 b9
       1.7249176e-05 5.4459156e-06 0.00013818075 -0.00012815115
000190 ba 13 f0 39 04 9a 2c ba eb 46 10 38 d1 ff c8 b4
       0.00045791065 -0.00065842294 3.4398323e-05 -3.7439034e-07
0001a0 a9 f0 28 b9 7b d7 27 39 30 57 e4 36 43 0e f7 38
       -0.00016111381 0.00016006634 6.8050795e-06 0.00011780534
0001b0 d1 ef 08 39 3b 28 7e b8 d9 3b c8 b7 d8 f1 cd 37
       0.0001305931 -6.0595787e-05 -2.3869727e-05 2.4550522e-05
0001c0 ab f1 f4 3a 04 f6 44 39 5b cf 0a bb aa 48 13 3a
       0.0018687745 0.00018783665 -0.0021180722 0.0005618433
0001d0 0e 47 ad 39 cc 7c fc b8 05 45 46 38 2f 43 4e 39
       0.0003305007 -0.000120395416 4.7271158e-05 0.00019670719
0001e0 0b 1a 0f b8 44 73 e6 36 69 88 3a b8 99 d2 8e 38
       -3.411811e-05 6.867953e-06 -4.4472898e-05 6.8103145e-05
0001f0 34 a2 5f 38 20 67 86 b9 fc c4 79 37 c5 44 80 b6
       5.3318407e-05 -0.00025635306 1.4887421e-05 -3.822703e-06
000200 bb 80 26 b9 e8 a0 0d 39 dc a9 a3 36 b7 ad 13 37
       -0.0001587895 0.0001350675 4.877553e-06 8.802329e-06
000210 97 61 4c b8 c7 01 1c 38 24 0a 5e 37 dc 77 a2 b7
       -4.8728278e-05 3.7194954e-05 1.3234592e-05 -1.9367719e-05
000220 33 3f de ba 9a 56 68 b9 14 87 90 3a b4 41 45 bb
       -0.0016956091 -0.00022157506 0.0011026585 -0.0030098977
000230 19 b1 15 b9 e9 d4 d0 37 c2 48 3e b6 73 2c cf 38
       -0.00014275721 2.4894676e-05 -2.8354557e-06 9.8788085e-05
000240 a7 05 f1 36 b2 3e 64 38 fb 62 03 b9 86 94 85 b8
       7.1830177e-06 5.4417826e-05 -0.00012530007 -6.369599e-05
000250 02 cc e2 b9 a7 b7 9f 39 10 aa 20 b8 8e 48 2b 38
       -0.00043258077 0.00030463675 -3.8305356e-05 4.083715e-05
000260 5a 8c 5c 37 1f 6f 87 38 31 ae 6d b7 2c 45 78 38
       1.31457e-05 6.4579996e-05 -1.4166858e-05 5.919223e-05
000270 7f 84 33 39 5a fe b6 38 37 09 2b 38 74 d3 40 39
       0.00017120129 8.725813e-05 4.077816e-05 0.0001838932
000280 6a 07 a0 3b 2d e0 88 3a 0e 0d 10 bb 3b 49 f2 3b
       0.0048836963 0.0010442786 -0.0021980437 0.0073939837
000290 63 f3 fd 39 f1 68 59 39 f0 35 0d b7 3c a2 0c 3a
       0.00048437258 0.00020733826 -8.416813e-06 0.0005364751
0002a0 35 e8 ec b7 fb 09 6f 38 44 25 1c b8 28 e1 8f 38
       -2.8241522e-05 5.6991335e-05 -3.7228005e-05 6.86071e-05
0002b0 44 d1 c5 b9 61 cc 08 3a 39 08 d2 b7 45 ba 2a 36
       -0.00037730683 0.0005218443 -2.503778e-05 2.5440397e-06
0002c0 da 59 17 39 e2 e1 2f b9 fd 4e a2 37 9a 6b 1f b9
       0.00014433954 -0.00016773448 1.9348687e-05 -0.00015203506
0002d0 c5 cb 06 b9 d7 a1 2e b7 ba 09 ca b7 e8 c2 6e 37
       -0.00012855146 -1.04088895e-05 -2.4084806e-05 1.4231286e-05
0002e0 5f 89 1d bb 30 50 e1 3a 74 b6 74 b9 41 a4 81 39
       -0.0024038178 0.0017190035 -0.00023337622 0.00024727176
0002f0 63 34 f9 b9 16 65 cf 37 da d9 cd b8 2d 40 33 b9
       -0.00047532012 2.4723395e-05 -9.81574e-05 -0.00017094678
000300 53 0e 55 38 a4 af ee b7 02 d1 d0 38 1e b0 98 38
       5.0796498e-05 -2.84536e-05 9.9571436e-05 7.280729e-05
000310 11 71 de 37 db 16 25 39 1b 06 2f 37 ae ef 97 b6
       2.6517113e-05 0.0001574414 1.0432234e-05 -4.528053e-06
000320 53 1f 00 b9 46 8a 01 38 be a6 86 37 0b 5e 21 b9
       -0.000122187 3.0884774e-05 1.605169e-05 -0.0001538919
000330 12 07 1f 38 76 6e ae b8 4b 1a 9e b8 d8 3e 78 37
       3.791514e-05 -8.3175415e-05 -7.5389245e-05 1.4796584e-05
000340 ab 19 f0 ba 1f 52 c4 ba aa 54 36 bb 4f eb 02 3a
       -0.0018318197 -0.0014978087 -0.002782146 0.000499417
000350 16 f9 1b 38 93 e8 70 b9 dd 1c 06 b9 8c 8a 4b 38
       3.718686e-05 -0.00022974824 -0.00012789988 4.8528003e-05
000360 a5 7c 74 b8 3f 23 f5 b7 0c 37 58 37 40 5d 41 39
       -5.8290218e-05 -2.9222689e-05 1.288742e-05 0.00018440653
000370 4c 73 0b ba 12 04 47 3a a1 b9 d8 b4 1e be bc b6
       -0.000531961 0.0007591854 -4.0368198e-07 -5.624969e-06
000380 ef e9 a4 39 7e 8a 58 b9 b1 1c cc b3 fe f8 fc 38
       0.00031454812 -0.00020650958 -9.504709e-08 0.00012062675
000390 6a 35 13 38 07 21 d0 38 eb ed 8c 38 97 b0 84 b8
       3.5097277e-05 9.924365e-05 6.720036e-05 -6.327143e-05
0003a0 67 65 73 ba 32 f4 5f 3b 66 82 11 3c f5 ac 25 bb
       -0.00092848245 0.0034172651 0.008881187 -0.0025280092
0003b0 eb 1f 22 b8 d3 93 a2 39 52 68 4a 39 df 9e 54 b9
       -3.8653536e-05 0.00031009185 0.00019303084 -0.0002027708
0003c0 59 16 fc b8 ce 92 7a b8 eb d4 00 37 15 67 a1 39
       -0.00012020459 -5.9741367e-05 7.678968e-06 0.00030785115
0003d0 83 e8 fb b9 a3 dc 58 b9 59 ab 7a 38 32 b2 26 b8
       -0.00048047685 -0.00020681559 5.9764225e-05 -3.974344e-05
0003e0 68 40 bc 39 e1 07 70 b9 c1 54 bd 36 50 ff 97 39
       0.0003590614 -0.00022891119 5.6425056e-06 0.00028991187
0003f0 09 86 f9 b8 ec 94 07 39 a1 c8 fc 38 97 3d 81 38
       -0.00011898211 0.00012930081 0.000120536664 6.162671e-05
